Running pass: {} The meta data of the pass: pass name: sequentialopt_level: 2required passes: [
]

def @main(%data: Tensor[(1, 3, 224, 224), float32], %bn_data_gamma: Tensor[(3), float32], %bn_data_beta: Tensor[(3), float32], %bn_data_moving_mean: Tensor[(3), float32], %bn_data_moving_var: Tensor[(3), float32], %conv0_weight: Tensor[(64, 3, 7, 7), float32], %bn0_gamma: Tensor[(64), float32], %bn0_beta: Tensor[(64), float32], %bn0_moving_mean: Tensor[(64), float32], %bn0_moving_var: Tensor[(64), float32], %stage1_unit1_bn1_gamma: Tensor[(64), float32], %stage1_unit1_bn1_beta: Tensor[(64), float32], %stage1_unit1_bn1_moving_mean: Tensor[(64), float32], %stage1_unit1_bn1_moving_var: Tensor[(64), float32], %stage1_unit1_conv1_weight: Tensor[(64, 64, 3, 3), float32], %stage1_unit1_bn2_gamma: Tensor[(64), float32], %stage1_unit1_bn2_beta: Tensor[(64), float32], %stage1_unit1_bn2_moving_mean: Tensor[(64), float32], %stage1_unit1_bn2_moving_var: Tensor[(64), float32], %stage1_unit1_conv2_weight: Tensor[(64, 64, 3, 3), float32], %stage1_unit1_sc_weight: Tensor[(64, 64, 1, 1), float32], %stage1_unit2_bn1_gamma: Tensor[(64), float32], %stage1_unit2_bn1_beta: Tensor[(64), float32], %stage1_unit2_bn1_moving_mean: Tensor[(64), float32], %stage1_unit2_bn1_moving_var: Tensor[(64), float32], %stage1_unit2_conv1_weight: Tensor[(64, 64, 3, 3), float32], %stage1_unit2_bn2_gamma: Tensor[(64), float32], %stage1_unit2_bn2_beta: Tensor[(64), float32], %stage1_unit2_bn2_moving_mean: Tensor[(64), float32], %stage1_unit2_bn2_moving_var: Tensor[(64), float32], %stage1_unit2_conv2_weight: Tensor[(64, 64, 3, 3), float32], %stage2_unit1_bn1_gamma: Tensor[(64), float32], %stage2_unit1_bn1_beta: Tensor[(64), float32], %stage2_unit1_bn1_moving_mean: Tensor[(64), float32], %stage2_unit1_bn1_moving_var: Tensor[(64), float32], %stage2_unit1_conv1_weight: Tensor[(128, 64, 3, 3), float32], %stage2_unit1_bn2_gamma: Tensor[(128), float32], %stage2_unit1_bn2_beta: Tensor[(128), float32], %stage2_unit1_bn2_moving_mean: Tensor[(128), float32], %stage2_unit1_bn2_moving_var: Tensor[(128), float32], %stage2_unit1_conv2_weight: Tensor[(128, 128, 3, 3), float32], %stage2_unit1_sc_weight: Tensor[(128, 64, 1, 1), float32], %stage2_unit2_bn1_gamma: Tensor[(128), float32], %stage2_unit2_bn1_beta: Tensor[(128), float32], %stage2_unit2_bn1_moving_mean: Tensor[(128), float32], %stage2_unit2_bn1_moving_var: Tensor[(128), float32], %stage2_unit2_conv1_weight: Tensor[(128, 128, 3, 3), float32], %stage2_unit2_bn2_gamma: Tensor[(128), float32], %stage2_unit2_bn2_beta: Tensor[(128), float32], %stage2_unit2_bn2_moving_mean: Tensor[(128), float32], %stage2_unit2_bn2_moving_var: Tensor[(128), float32], %stage2_unit2_conv2_weight: Tensor[(128, 128, 3, 3), float32], %stage3_unit1_bn1_gamma: Tensor[(128), float32], %stage3_unit1_bn1_beta: Tensor[(128), float32], %stage3_unit1_bn1_moving_mean: Tensor[(128), float32], %stage3_unit1_bn1_moving_var: Tensor[(128), float32], %stage3_unit1_conv1_weight: Tensor[(256, 128, 3, 3), float32], %stage3_unit1_bn2_gamma: Tensor[(256), float32], %stage3_unit1_bn2_beta: Tensor[(256), float32], %stage3_unit1_bn2_moving_mean: Tensor[(256), float32], %stage3_unit1_bn2_moving_var: Tensor[(256), float32], %stage3_unit1_conv2_weight: Tensor[(256, 256, 3, 3), float32], %stage3_unit1_sc_weight: Tensor[(256, 128, 1, 1), float32], %stage3_unit2_bn1_gamma: Tensor[(256), float32], %stage3_unit2_bn1_beta: Tensor[(256), float32], %stage3_unit2_bn1_moving_mean: Tensor[(256), float32], %stage3_unit2_bn1_moving_var: Tensor[(256), float32], %stage3_unit2_conv1_weight: Tensor[(256, 256, 3, 3), float32], %stage3_unit2_bn2_gamma: Tensor[(256), float32], %stage3_unit2_bn2_beta: Tensor[(256), float32], %stage3_unit2_bn2_moving_mean: Tensor[(256), float32], %stage3_unit2_bn2_moving_var: Tensor[(256), float32], %stage3_unit2_conv2_weight: Tensor[(256, 256, 3, 3), float32], %stage4_unit1_bn1_gamma: Tensor[(256), float32], %stage4_unit1_bn1_beta: Tensor[(256), float32], %stage4_unit1_bn1_moving_mean: Tensor[(256), float32], %stage4_unit1_bn1_moving_var: Tensor[(256), float32], %stage4_unit1_conv1_weight: Tensor[(512, 256, 3, 3), float32], %stage4_unit1_bn2_gamma: Tensor[(512), float32], %stage4_unit1_bn2_beta: Tensor[(512), float32], %stage4_unit1_bn2_moving_mean: Tensor[(512), float32], %stage4_unit1_bn2_moving_var: Tensor[(512), float32], %stage4_unit1_conv2_weight: Tensor[(512, 512, 3, 3), float32], %stage4_unit1_sc_weight: Tensor[(512, 256, 1, 1), float32], %stage4_unit2_bn1_gamma: Tensor[(512), float32], %stage4_unit2_bn1_beta: Tensor[(512), float32], %stage4_unit2_bn1_moving_mean: Tensor[(512), float32], %stage4_unit2_bn1_moving_var: Tensor[(512), float32], %stage4_unit2_conv1_weight: Tensor[(512, 512, 3, 3), float32], %stage4_unit2_bn2_gamma: Tensor[(512), float32], %stage4_unit2_bn2_beta: Tensor[(512), float32], %stage4_unit2_bn2_moving_mean: Tensor[(512), float32], %stage4_unit2_bn2_moving_var: Tensor[(512), float32], %stage4_unit2_conv2_weight: Tensor[(512, 512, 3, 3), float32], %bn1_gamma: Tensor[(512), float32], %bn1_beta: Tensor[(512), float32], %bn1_moving_mean: Tensor[(512), float32], %bn1_moving_var: Tensor[(512), float32], %fc1_weight: Tensor[(1000, 512), float32], %fc1_bias: Tensor[(1000), float32]) -> Tensor[(1, 1000), float32] {
  %0 = nn.batch_norm(%data, %bn_data_gamma, %bn_data_beta, %bn_data_moving_mean, %bn_data_moving_var, epsilon=2e-05f, scale=False) /* ty=(Tensor[(1, 3, 224, 224), float32], Tensor[(3), float32], Tensor[(3), float32]) */;
  %1 = %0.0;
  %2 = nn.conv2d(%1, %conv0_weight, strides=[2, 2], padding=[3, 3, 3, 3], channels=64, kernel_size=[7, 7]) /* ty=Tensor[(1, 64, 112, 112), float32] */;
  %3 = nn.batch_norm(%2, %bn0_gamma, %bn0_beta, %bn0_moving_mean, %bn0_moving_var, epsilon=2e-05f) /* ty=(Tensor[(1, 64, 112, 112), float32], Tensor[(64), float32], Tensor[(64), float32]) */;
  %4 = %3.0;
  %5 = nn.relu(%4) /* ty=Tensor[(1, 64, 112, 112), float32] */;
  %6 = nn.max_pool2d(%5, pool_size=[3, 3], strides=[2, 2], padding=[1, 1, 1, 1]) /* ty=Tensor[(1, 64, 56, 56), float32] */;
  %7 = nn.batch_norm(%6, %stage1_unit1_bn1_gamma, %stage1_unit1_bn1_beta, %stage1_unit1_bn1_moving_mean, %stage1_unit1_bn1_moving_var, epsilon=2e-05f) /* ty=(Tensor[(1, 64, 56, 56), float32], Tensor[(64), float32], Tensor[(64), float32]) */;
  %8 = %7.0;
  %9 = nn.relu(%8) /* ty=Tensor[(1, 64, 56, 56), float32] */;
  %10 = nn.conv2d(%9, %stage1_unit1_conv1_weight, padding=[1, 1, 1, 1], channels=64, kernel_size=[3, 3]) /* ty=Tensor[(1, 64, 56, 56), float32] */;
  %11 = nn.batch_norm(%10, %stage1_unit1_bn2_gamma, %stage1_unit1_bn2_beta, %stage1_unit1_bn2_moving_mean, %stage1_unit1_bn2_moving_var, epsilon=2e-05f) /* ty=(Tensor[(1, 64, 56, 56), float32], Tensor[(64), float32], Tensor[(64), float32]) */;
  %12 = %11.0;
  %13 = nn.relu(%12) /* ty=Tensor[(1, 64, 56, 56), float32] */;
  %14 = nn.conv2d(%13, %stage1_unit1_conv2_weight, padding=[1, 1, 1, 1], channels=64, kernel_size=[3, 3]) /* ty=Tensor[(1, 64, 56, 56), float32] */;
  %15 = nn.conv2d(%9, %stage1_unit1_sc_weight, padding=[0, 0, 0, 0], channels=64, kernel_size=[1, 1]) /* ty=Tensor[(1, 64, 56, 56), float32] */;
  %16 = add(%14, %15) /* ty=Tensor[(1, 64, 56, 56), float32] */;
  %17 = nn.batch_norm(%16, %stage1_unit2_bn1_gamma, %stage1_unit2_bn1_beta, %stage1_unit2_bn1_moving_mean, %stage1_unit2_bn1_moving_var, epsilon=2e-05f) /* ty=(Tensor[(1, 64, 56, 56), float32], Tensor[(64), float32], Tensor[(64), float32]) */;
  %18 = %17.0;
  %19 = nn.relu(%18) /* ty=Tensor[(1, 64, 56, 56), float32] */;
  %20 = nn.conv2d(%19, %stage1_unit2_conv1_weight, padding=[1, 1, 1, 1], channels=64, kernel_size=[3, 3]) /* ty=Tensor[(1, 64, 56, 56), float32] */;
  %21 = nn.batch_norm(%20, %stage1_unit2_bn2_gamma, %stage1_unit2_bn2_beta, %stage1_unit2_bn2_moving_mean, %stage1_unit2_bn2_moving_var, epsilon=2e-05f) /* ty=(Tensor[(1, 64, 56, 56), float32], Tensor[(64), float32], Tensor[(64), float32]) */;
  %22 = %21.0;
  %23 = nn.relu(%22) /* ty=Tensor[(1, 64, 56, 56), float32] */;
  %24 = nn.conv2d(%23, %stage1_unit2_conv2_weight, padding=[1, 1, 1, 1], channels=64, kernel_size=[3, 3]) /* ty=Tensor[(1, 64, 56, 56), float32] */;
  %25 = add(%24, %16) /* ty=Tensor[(1, 64, 56, 56), float32] */;
  %26 = nn.batch_norm(%25, %stage2_unit1_bn1_gamma, %stage2_unit1_bn1_beta, %stage2_unit1_bn1_moving_mean, %stage2_unit1_bn1_moving_var, epsilon=2e-05f) /* ty=(Tensor[(1, 64, 56, 56), float32], Tensor[(64), float32], Tensor[(64), float32]) */;
  %27 = %26.0;
  %28 = nn.relu(%27) /* ty=Tensor[(1, 64, 56, 56), float32] */;
  %29 = nn.conv2d(%28, %stage2_unit1_conv1_weight, strides=[2, 2], padding=[1, 1, 1, 1], channels=128, kernel_size=[3, 3]) /* ty=Tensor[(1, 128, 28, 28), float32] */;
  %30 = nn.batch_norm(%29, %stage2_unit1_bn2_gamma, %stage2_unit1_bn2_beta, %stage2_unit1_bn2_moving_mean, %stage2_unit1_bn2_moving_var, epsilon=2e-05f) /* ty=(Tensor[(1, 128, 28, 28), float32], Tensor[(128), float32], Tensor[(128), float32]) */;
  %31 = %30.0;
  %32 = nn.relu(%31) /* ty=Tensor[(1, 128, 28, 28), float32] */;
  %33 = nn.conv2d(%32, %stage2_unit1_conv2_weight, padding=[1, 1, 1, 1], channels=128, kernel_size=[3, 3]) /* ty=Tensor[(1, 128, 28, 28), float32] */;
  %34 = nn.conv2d(%28, %stage2_unit1_sc_weight, strides=[2, 2], padding=[0, 0, 0, 0], channels=128, kernel_size=[1, 1]) /* ty=Tensor[(1, 128, 28, 28), float32] */;
  %35 = add(%33, %34) /* ty=Tensor[(1, 128, 28, 28), float32] */;
  %36 = nn.batch_norm(%35, %stage2_unit2_bn1_gamma, %stage2_unit2_bn1_beta, %stage2_unit2_bn1_moving_mean, %stage2_unit2_bn1_moving_var, epsilon=2e-05f) /* ty=(Tensor[(1, 128, 28, 28), float32], Tensor[(128), float32], Tensor[(128), float32]) */;
  %37 = %36.0;
  %38 = nn.relu(%37) /* ty=Tensor[(1, 128, 28, 28), float32] */;
  %39 = nn.conv2d(%38, %stage2_unit2_conv1_weight, padding=[1, 1, 1, 1], channels=128, kernel_size=[3, 3]) /* ty=Tensor[(1, 128, 28, 28), float32] */;
  %40 = nn.batch_norm(%39, %stage2_unit2_bn2_gamma, %stage2_unit2_bn2_beta, %stage2_unit2_bn2_moving_mean, %stage2_unit2_bn2_moving_var, epsilon=2e-05f) /* ty=(Tensor[(1, 128, 28, 28), float32], Tensor[(128), float32], Tensor[(128), float32]) */;
  %41 = %40.0;
  %42 = nn.relu(%41) /* ty=Tensor[(1, 128, 28, 28), float32] */;
  %43 = nn.conv2d(%42, %stage2_unit2_conv2_weight, padding=[1, 1, 1, 1], channels=128, kernel_size=[3, 3]) /* ty=Tensor[(1, 128, 28, 28), float32] */;
  %44 = add(%43, %35) /* ty=Tensor[(1, 128, 28, 28), float32] */;
  %45 = nn.batch_norm(%44, %stage3_unit1_bn1_gamma, %stage3_unit1_bn1_beta, %stage3_unit1_bn1_moving_mean, %stage3_unit1_bn1_moving_var, epsilon=2e-05f) /* ty=(Tensor[(1, 128, 28, 28), float32], Tensor[(128), float32], Tensor[(128), float32]) */;
  %46 = %45.0;
  %47 = nn.relu(%46) /* ty=Tensor[(1, 128, 28, 28), float32] */;
  %48 = nn.conv2d(%47, %stage3_unit1_conv1_weight, strides=[2, 2], padding=[1, 1, 1, 1], channels=256, kernel_size=[3, 3]) /* ty=Tensor[(1, 256, 14, 14), float32] */;
  %49 = nn.batch_norm(%48, %stage3_unit1_bn2_gamma, %stage3_unit1_bn2_beta, %stage3_unit1_bn2_moving_mean, %stage3_unit1_bn2_moving_var, epsilon=2e-05f) /* ty=(Tensor[(1, 256, 14, 14), float32], Tensor[(256), float32], Tensor[(256), float32]) */;
  %50 = %49.0;
  %51 = nn.relu(%50) /* ty=Tensor[(1, 256, 14, 14), float32] */;
  %52 = nn.conv2d(%51, %stage3_unit1_conv2_weight, padding=[1, 1, 1, 1], channels=256, kernel_size=[3, 3]) /* ty=Tensor[(1, 256, 14, 14), float32] */;
  %53 = nn.conv2d(%47, %stage3_unit1_sc_weight, strides=[2, 2], padding=[0, 0, 0, 0], channels=256, kernel_size=[1, 1]) /* ty=Tensor[(1, 256, 14, 14), float32] */;
  %54 = add(%52, %53) /* ty=Tensor[(1, 256, 14, 14), float32] */;
  %55 = nn.batch_norm(%54, %stage3_unit2_bn1_gamma, %stage3_unit2_bn1_beta, %stage3_unit2_bn1_moving_mean, %stage3_unit2_bn1_moving_var, epsilon=2e-05f) /* ty=(Tensor[(1, 256, 14, 14), float32], Tensor[(256), float32], Tensor[(256), float32]) */;
  %56 = %55.0;
  %57 = nn.relu(%56) /* ty=Tensor[(1, 256, 14, 14), float32] */;
  %58 = nn.conv2d(%57, %stage3_unit2_conv1_weight, padding=[1, 1, 1, 1], channels=256, kernel_size=[3, 3]) /* ty=Tensor[(1, 256, 14, 14), float32] */;
  %59 = nn.batch_norm(%58, %stage3_unit2_bn2_gamma, %stage3_unit2_bn2_beta, %stage3_unit2_bn2_moving_mean, %stage3_unit2_bn2_moving_var, epsilon=2e-05f) /* ty=(Tensor[(1, 256, 14, 14), float32], Tensor[(256), float32], Tensor[(256), float32]) */;
  %60 = %59.0;
  %61 = nn.relu(%60) /* ty=Tensor[(1, 256, 14, 14), float32] */;
  %62 = nn.conv2d(%61, %stage3_unit2_conv2_weight, padding=[1, 1, 1, 1], channels=256, kernel_size=[3, 3]) /* ty=Tensor[(1, 256, 14, 14), float32] */;
  %63 = add(%62, %54) /* ty=Tensor[(1, 256, 14, 14), float32] */;
  %64 = nn.batch_norm(%63, %stage4_unit1_bn1_gamma, %stage4_unit1_bn1_beta, %stage4_unit1_bn1_moving_mean, %stage4_unit1_bn1_moving_var, epsilon=2e-05f) /* ty=(Tensor[(1, 256, 14, 14), float32], Tensor[(256), float32], Tensor[(256), float32]) */;
  %65 = %64.0;
  %66 = nn.relu(%65) /* ty=Tensor[(1, 256, 14, 14), float32] */;
  %67 = nn.conv2d(%66, %stage4_unit1_conv1_weight, strides=[2, 2], padding=[1, 1, 1, 1], channels=512, kernel_size=[3, 3]) /* ty=Tensor[(1, 512, 7, 7), float32] */;
  %68 = nn.batch_norm(%67, %stage4_unit1_bn2_gamma, %stage4_unit1_bn2_beta, %stage4_unit1_bn2_moving_mean, %stage4_unit1_bn2_moving_var, epsilon=2e-05f) /* ty=(Tensor[(1, 512, 7, 7), float32], Tensor[(512), float32], Tensor[(512), float32]) */;
  %69 = %68.0;
  %70 = nn.relu(%69) /* ty=Tensor[(1, 512, 7, 7), float32] */;
  %71 = nn.conv2d(%70, %stage4_unit1_conv2_weight, padding=[1, 1, 1, 1], channels=512, kernel_size=[3, 3]) /* ty=Tensor[(1, 512, 7, 7), float32] */;
  %72 = nn.conv2d(%66, %stage4_unit1_sc_weight, strides=[2, 2], padding=[0, 0, 0, 0], channels=512, kernel_size=[1, 1]) /* ty=Tensor[(1, 512, 7, 7), float32] */;
  %73 = add(%71, %72) /* ty=Tensor[(1, 512, 7, 7), float32] */;
  %74 = nn.batch_norm(%73, %stage4_unit2_bn1_gamma, %stage4_unit2_bn1_beta, %stage4_unit2_bn1_moving_mean, %stage4_unit2_bn1_moving_var, epsilon=2e-05f) /* ty=(Tensor[(1, 512, 7, 7), float32], Tensor[(512), float32], Tensor[(512), float32]) */;
  %75 = %74.0;
  %76 = nn.relu(%75) /* ty=Tensor[(1, 512, 7, 7), float32] */;
  %77 = nn.conv2d(%76, %stage4_unit2_conv1_weight, padding=[1, 1, 1, 1], channels=512, kernel_size=[3, 3]) /* ty=Tensor[(1, 512, 7, 7), float32] */;
  %78 = nn.batch_norm(%77, %stage4_unit2_bn2_gamma, %stage4_unit2_bn2_beta, %stage4_unit2_bn2_moving_mean, %stage4_unit2_bn2_moving_var, epsilon=2e-05f) /* ty=(Tensor[(1, 512, 7, 7), float32], Tensor[(512), float32], Tensor[(512), float32]) */;
  %79 = %78.0;
  %80 = nn.relu(%79) /* ty=Tensor[(1, 512, 7, 7), float32] */;
  %81 = nn.conv2d(%80, %stage4_unit2_conv2_weight, padding=[1, 1, 1, 1], channels=512, kernel_size=[3, 3]) /* ty=Tensor[(1, 512, 7, 7), float32] */;
  %82 = add(%81, %73) /* ty=Tensor[(1, 512, 7, 7), float32] */;
  %83 = nn.batch_norm(%82, %bn1_gamma, %bn1_beta, %bn1_moving_mean, %bn1_moving_var, epsilon=2e-05f) /* ty=(Tensor[(1, 512, 7, 7), float32], Tensor[(512), float32], Tensor[(512), float32]) */;
  %84 = %83.0;
  %85 = nn.relu(%84) /* ty=Tensor[(1, 512, 7, 7), float32] */;
  %86 = nn.global_avg_pool2d(%85) /* ty=Tensor[(1, 512, 1, 1), float32] */;
  %87 = nn.batch_flatten(%86) /* ty=Tensor[(1, 512), float32] */;
  %88 = nn.dense(%87, %fc1_weight, units=1000) /* ty=Tensor[(1, 1000), float32] */;
  %89 = nn.bias_add(%88, %fc1_bias, axis=-1) /* ty=Tensor[(1, 1000), float32] */;
  nn.softmax(%89) /* ty=Tensor[(1, 1000), float32] */
}

Running pass: {} The meta data of the pass: pass name: MergeCompositeopt_level: 0required passes: [
]

def @main(%data: Tensor[(1, 3, 224, 224), float32], %bn_data_gamma: Tensor[(3), float32], %bn_data_beta: Tensor[(3), float32], %bn_data_moving_mean: Tensor[(3), float32], %bn_data_moving_var: Tensor[(3), float32], %conv0_weight: Tensor[(64, 3, 7, 7), float32], %bn0_gamma: Tensor[(64), float32], %bn0_beta: Tensor[(64), float32], %bn0_moving_mean: Tensor[(64), float32], %bn0_moving_var: Tensor[(64), float32], %stage1_unit1_bn1_gamma: Tensor[(64), float32], %stage1_unit1_bn1_beta: Tensor[(64), float32], %stage1_unit1_bn1_moving_mean: Tensor[(64), float32], %stage1_unit1_bn1_moving_var: Tensor[(64), float32], %stage1_unit1_conv1_weight: Tensor[(64, 64, 3, 3), float32], %stage1_unit1_bn2_gamma: Tensor[(64), float32], %stage1_unit1_bn2_beta: Tensor[(64), float32], %stage1_unit1_bn2_moving_mean: Tensor[(64), float32], %stage1_unit1_bn2_moving_var: Tensor[(64), float32], %stage1_unit1_conv2_weight: Tensor[(64, 64, 3, 3), float32], %stage1_unit1_sc_weight: Tensor[(64, 64, 1, 1), float32], %stage1_unit2_bn1_gamma: Tensor[(64), float32], %stage1_unit2_bn1_beta: Tensor[(64), float32], %stage1_unit2_bn1_moving_mean: Tensor[(64), float32], %stage1_unit2_bn1_moving_var: Tensor[(64), float32], %stage1_unit2_conv1_weight: Tensor[(64, 64, 3, 3), float32], %stage1_unit2_bn2_gamma: Tensor[(64), float32], %stage1_unit2_bn2_beta: Tensor[(64), float32], %stage1_unit2_bn2_moving_mean: Tensor[(64), float32], %stage1_unit2_bn2_moving_var: Tensor[(64), float32], %stage1_unit2_conv2_weight: Tensor[(64, 64, 3, 3), float32], %stage2_unit1_bn1_gamma: Tensor[(64), float32], %stage2_unit1_bn1_beta: Tensor[(64), float32], %stage2_unit1_bn1_moving_mean: Tensor[(64), float32], %stage2_unit1_bn1_moving_var: Tensor[(64), float32], %stage2_unit1_conv1_weight: Tensor[(128, 64, 3, 3), float32], %stage2_unit1_bn2_gamma: Tensor[(128), float32], %stage2_unit1_bn2_beta: Tensor[(128), float32], %stage2_unit1_bn2_moving_mean: Tensor[(128), float32], %stage2_unit1_bn2_moving_var: Tensor[(128), float32], %stage2_unit1_conv2_weight: Tensor[(128, 128, 3, 3), float32], %stage2_unit1_sc_weight: Tensor[(128, 64, 1, 1), float32], %stage2_unit2_bn1_gamma: Tensor[(128), float32], %stage2_unit2_bn1_beta: Tensor[(128), float32], %stage2_unit2_bn1_moving_mean: Tensor[(128), float32], %stage2_unit2_bn1_moving_var: Tensor[(128), float32], %stage2_unit2_conv1_weight: Tensor[(128, 128, 3, 3), float32], %stage2_unit2_bn2_gamma: Tensor[(128), float32], %stage2_unit2_bn2_beta: Tensor[(128), float32], %stage2_unit2_bn2_moving_mean: Tensor[(128), float32], %stage2_unit2_bn2_moving_var: Tensor[(128), float32], %stage2_unit2_conv2_weight: Tensor[(128, 128, 3, 3), float32], %stage3_unit1_bn1_gamma: Tensor[(128), float32], %stage3_unit1_bn1_beta: Tensor[(128), float32], %stage3_unit1_bn1_moving_mean: Tensor[(128), float32], %stage3_unit1_bn1_moving_var: Tensor[(128), float32], %stage3_unit1_conv1_weight: Tensor[(256, 128, 3, 3), float32], %stage3_unit1_bn2_gamma: Tensor[(256), float32], %stage3_unit1_bn2_beta: Tensor[(256), float32], %stage3_unit1_bn2_moving_mean: Tensor[(256), float32], %stage3_unit1_bn2_moving_var: Tensor[(256), float32], %stage3_unit1_conv2_weight: Tensor[(256, 256, 3, 3), float32], %stage3_unit1_sc_weight: Tensor[(256, 128, 1, 1), float32], %stage3_unit2_bn1_gamma: Tensor[(256), float32], %stage3_unit2_bn1_beta: Tensor[(256), float32], %stage3_unit2_bn1_moving_mean: Tensor[(256), float32], %stage3_unit2_bn1_moving_var: Tensor[(256), float32], %stage3_unit2_conv1_weight: Tensor[(256, 256, 3, 3), float32], %stage3_unit2_bn2_gamma: Tensor[(256), float32], %stage3_unit2_bn2_beta: Tensor[(256), float32], %stage3_unit2_bn2_moving_mean: Tensor[(256), float32], %stage3_unit2_bn2_moving_var: Tensor[(256), float32], %stage3_unit2_conv2_weight: Tensor[(256, 256, 3, 3), float32], %stage4_unit1_bn1_gamma: Tensor[(256), float32], %stage4_unit1_bn1_beta: Tensor[(256), float32], %stage4_unit1_bn1_moving_mean: Tensor[(256), float32], %stage4_unit1_bn1_moving_var: Tensor[(256), float32], %stage4_unit1_conv1_weight: Tensor[(512, 256, 3, 3), float32], %stage4_unit1_bn2_gamma: Tensor[(512), float32], %stage4_unit1_bn2_beta: Tensor[(512), float32], %stage4_unit1_bn2_moving_mean: Tensor[(512), float32], %stage4_unit1_bn2_moving_var: Tensor[(512), float32], %stage4_unit1_conv2_weight: Tensor[(512, 512, 3, 3), float32], %stage4_unit1_sc_weight: Tensor[(512, 256, 1, 1), float32], %stage4_unit2_bn1_gamma: Tensor[(512), float32], %stage4_unit2_bn1_beta: Tensor[(512), float32], %stage4_unit2_bn1_moving_mean: Tensor[(512), float32], %stage4_unit2_bn1_moving_var: Tensor[(512), float32], %stage4_unit2_conv1_weight: Tensor[(512, 512, 3, 3), float32], %stage4_unit2_bn2_gamma: Tensor[(512), float32], %stage4_unit2_bn2_beta: Tensor[(512), float32], %stage4_unit2_bn2_moving_mean: Tensor[(512), float32], %stage4_unit2_bn2_moving_var: Tensor[(512), float32], %stage4_unit2_conv2_weight: Tensor[(512, 512, 3, 3), float32], %bn1_gamma: Tensor[(512), float32], %bn1_beta: Tensor[(512), float32], %bn1_moving_mean: Tensor[(512), float32], %bn1_moving_var: Tensor[(512), float32], %fc1_weight: Tensor[(1000, 512), float32], %fc1_bias: Tensor[(1000), float32]) -> Tensor[(1, 1000), float32] {
  %0 = nn.batch_norm(%data, %bn_data_gamma, %bn_data_beta, %bn_data_moving_mean, %bn_data_moving_var, epsilon=2e-05f, scale=False) /* ty=(Tensor[(1, 3, 224, 224), float32], Tensor[(3), float32], Tensor[(3), float32]) */;
  %1 = %0.0;
  %2 = nn.conv2d(%1, %conv0_weight, strides=[2, 2], padding=[3, 3, 3, 3], channels=64, kernel_size=[7, 7]) /* ty=Tensor[(1, 64, 112, 112), float32] */;
  %3 = nn.batch_norm(%2, %bn0_gamma, %bn0_beta, %bn0_moving_mean, %bn0_moving_var, epsilon=2e-05f) /* ty=(Tensor[(1, 64, 112, 112), float32], Tensor[(64), float32], Tensor[(64), float32]) */;
  %4 = %3.0;
  %5 = nn.relu(%4) /* ty=Tensor[(1, 64, 112, 112), float32] */;
  %6 = nn.max_pool2d(%5, pool_size=[3, 3], strides=[2, 2], padding=[1, 1, 1, 1]) /* ty=Tensor[(1, 64, 56, 56), float32] */;
  %7 = nn.batch_norm(%6, %stage1_unit1_bn1_gamma, %stage1_unit1_bn1_beta, %stage1_unit1_bn1_moving_mean, %stage1_unit1_bn1_moving_var, epsilon=2e-05f) /* ty=(Tensor[(1, 64, 56, 56), float32], Tensor[(64), float32], Tensor[(64), float32]) */;
  %8 = %7.0;
  %9 = nn.relu(%8) /* ty=Tensor[(1, 64, 56, 56), float32] */;
  %10 = nn.conv2d(%9, %stage1_unit1_conv1_weight, padding=[1, 1, 1, 1], channels=64, kernel_size=[3, 3]) /* ty=Tensor[(1, 64, 56, 56), float32] */;
  %11 = nn.batch_norm(%10, %stage1_unit1_bn2_gamma, %stage1_unit1_bn2_beta, %stage1_unit1_bn2_moving_mean, %stage1_unit1_bn2_moving_var, epsilon=2e-05f) /* ty=(Tensor[(1, 64, 56, 56), float32], Tensor[(64), float32], Tensor[(64), float32]) */;
  %12 = %11.0;
  %13 = nn.relu(%12) /* ty=Tensor[(1, 64, 56, 56), float32] */;
  %14 = nn.conv2d(%13, %stage1_unit1_conv2_weight, padding=[1, 1, 1, 1], channels=64, kernel_size=[3, 3]) /* ty=Tensor[(1, 64, 56, 56), float32] */;
  %15 = nn.conv2d(%9, %stage1_unit1_sc_weight, padding=[0, 0, 0, 0], channels=64, kernel_size=[1, 1]) /* ty=Tensor[(1, 64, 56, 56), float32] */;
  %16 = add(%14, %15) /* ty=Tensor[(1, 64, 56, 56), float32] */;
  %17 = nn.batch_norm(%16, %stage1_unit2_bn1_gamma, %stage1_unit2_bn1_beta, %stage1_unit2_bn1_moving_mean, %stage1_unit2_bn1_moving_var, epsilon=2e-05f) /* ty=(Tensor[(1, 64, 56, 56), float32], Tensor[(64), float32], Tensor[(64), float32]) */;
  %18 = %17.0;
  %19 = nn.relu(%18) /* ty=Tensor[(1, 64, 56, 56), float32] */;
  %20 = nn.conv2d(%19, %stage1_unit2_conv1_weight, padding=[1, 1, 1, 1], channels=64, kernel_size=[3, 3]) /* ty=Tensor[(1, 64, 56, 56), float32] */;
  %21 = nn.batch_norm(%20, %stage1_unit2_bn2_gamma, %stage1_unit2_bn2_beta, %stage1_unit2_bn2_moving_mean, %stage1_unit2_bn2_moving_var, epsilon=2e-05f) /* ty=(Tensor[(1, 64, 56, 56), float32], Tensor[(64), float32], Tensor[(64), float32]) */;
  %22 = %21.0;
  %23 = nn.relu(%22) /* ty=Tensor[(1, 64, 56, 56), float32] */;
  %24 = nn.conv2d(%23, %stage1_unit2_conv2_weight, padding=[1, 1, 1, 1], channels=64, kernel_size=[3, 3]) /* ty=Tensor[(1, 64, 56, 56), float32] */;
  %25 = add(%24, %16) /* ty=Tensor[(1, 64, 56, 56), float32] */;
  %26 = nn.batch_norm(%25, %stage2_unit1_bn1_gamma, %stage2_unit1_bn1_beta, %stage2_unit1_bn1_moving_mean, %stage2_unit1_bn1_moving_var, epsilon=2e-05f) /* ty=(Tensor[(1, 64, 56, 56), float32], Tensor[(64), float32], Tensor[(64), float32]) */;
  %27 = %26.0;
  %28 = nn.relu(%27) /* ty=Tensor[(1, 64, 56, 56), float32] */;
  %29 = nn.conv2d(%28, %stage2_unit1_conv1_weight, strides=[2, 2], padding=[1, 1, 1, 1], channels=128, kernel_size=[3, 3]) /* ty=Tensor[(1, 128, 28, 28), float32] */;
  %30 = nn.batch_norm(%29, %stage2_unit1_bn2_gamma, %stage2_unit1_bn2_beta, %stage2_unit1_bn2_moving_mean, %stage2_unit1_bn2_moving_var, epsilon=2e-05f) /* ty=(Tensor[(1, 128, 28, 28), float32], Tensor[(128), float32], Tensor[(128), float32]) */;
  %31 = %30.0;
  %32 = nn.relu(%31) /* ty=Tensor[(1, 128, 28, 28), float32] */;
  %33 = nn.conv2d(%32, %stage2_unit1_conv2_weight, padding=[1, 1, 1, 1], channels=128, kernel_size=[3, 3]) /* ty=Tensor[(1, 128, 28, 28), float32] */;
  %34 = nn.conv2d(%28, %stage2_unit1_sc_weight, strides=[2, 2], padding=[0, 0, 0, 0], channels=128, kernel_size=[1, 1]) /* ty=Tensor[(1, 128, 28, 28), float32] */;
  %35 = add(%33, %34) /* ty=Tensor[(1, 128, 28, 28), float32] */;
  %36 = nn.batch_norm(%35, %stage2_unit2_bn1_gamma, %stage2_unit2_bn1_beta, %stage2_unit2_bn1_moving_mean, %stage2_unit2_bn1_moving_var, epsilon=2e-05f) /* ty=(Tensor[(1, 128, 28, 28), float32], Tensor[(128), float32], Tensor[(128), float32]) */;
  %37 = %36.0;
  %38 = nn.relu(%37) /* ty=Tensor[(1, 128, 28, 28), float32] */;
  %39 = nn.conv2d(%38, %stage2_unit2_conv1_weight, padding=[1, 1, 1, 1], channels=128, kernel_size=[3, 3]) /* ty=Tensor[(1, 128, 28, 28), float32] */;
  %40 = nn.batch_norm(%39, %stage2_unit2_bn2_gamma, %stage2_unit2_bn2_beta, %stage2_unit2_bn2_moving_mean, %stage2_unit2_bn2_moving_var, epsilon=2e-05f) /* ty=(Tensor[(1, 128, 28, 28), float32], Tensor[(128), float32], Tensor[(128), float32]) */;
  %41 = %40.0;
  %42 = nn.relu(%41) /* ty=Tensor[(1, 128, 28, 28), float32] */;
  %43 = nn.conv2d(%42, %stage2_unit2_conv2_weight, padding=[1, 1, 1, 1], channels=128, kernel_size=[3, 3]) /* ty=Tensor[(1, 128, 28, 28), float32] */;
  %44 = add(%43, %35) /* ty=Tensor[(1, 128, 28, 28), float32] */;
  %45 = nn.batch_norm(%44, %stage3_unit1_bn1_gamma, %stage3_unit1_bn1_beta, %stage3_unit1_bn1_moving_mean, %stage3_unit1_bn1_moving_var, epsilon=2e-05f) /* ty=(Tensor[(1, 128, 28, 28), float32], Tensor[(128), float32], Tensor[(128), float32]) */;
  %46 = %45.0;
  %47 = nn.relu(%46) /* ty=Tensor[(1, 128, 28, 28), float32] */;
  %48 = nn.conv2d(%47, %stage3_unit1_conv1_weight, strides=[2, 2], padding=[1, 1, 1, 1], channels=256, kernel_size=[3, 3]) /* ty=Tensor[(1, 256, 14, 14), float32] */;
  %49 = nn.batch_norm(%48, %stage3_unit1_bn2_gamma, %stage3_unit1_bn2_beta, %stage3_unit1_bn2_moving_mean, %stage3_unit1_bn2_moving_var, epsilon=2e-05f) /* ty=(Tensor[(1, 256, 14, 14), float32], Tensor[(256), float32], Tensor[(256), float32]) */;
  %50 = %49.0;
  %51 = nn.relu(%50) /* ty=Tensor[(1, 256, 14, 14), float32] */;
  %52 = nn.conv2d(%51, %stage3_unit1_conv2_weight, padding=[1, 1, 1, 1], channels=256, kernel_size=[3, 3]) /* ty=Tensor[(1, 256, 14, 14), float32] */;
  %53 = nn.conv2d(%47, %stage3_unit1_sc_weight, strides=[2, 2], padding=[0, 0, 0, 0], channels=256, kernel_size=[1, 1]) /* ty=Tensor[(1, 256, 14, 14), float32] */;
  %54 = add(%52, %53) /* ty=Tensor[(1, 256, 14, 14), float32] */;
  %55 = nn.batch_norm(%54, %stage3_unit2_bn1_gamma, %stage3_unit2_bn1_beta, %stage3_unit2_bn1_moving_mean, %stage3_unit2_bn1_moving_var, epsilon=2e-05f) /* ty=(Tensor[(1, 256, 14, 14), float32], Tensor[(256), float32], Tensor[(256), float32]) */;
  %56 = %55.0;
  %57 = nn.relu(%56) /* ty=Tensor[(1, 256, 14, 14), float32] */;
  %58 = nn.conv2d(%57, %stage3_unit2_conv1_weight, padding=[1, 1, 1, 1], channels=256, kernel_size=[3, 3]) /* ty=Tensor[(1, 256, 14, 14), float32] */;
  %59 = nn.batch_norm(%58, %stage3_unit2_bn2_gamma, %stage3_unit2_bn2_beta, %stage3_unit2_bn2_moving_mean, %stage3_unit2_bn2_moving_var, epsilon=2e-05f) /* ty=(Tensor[(1, 256, 14, 14), float32], Tensor[(256), float32], Tensor[(256), float32]) */;
  %60 = %59.0;
  %61 = nn.relu(%60) /* ty=Tensor[(1, 256, 14, 14), float32] */;
  %62 = nn.conv2d(%61, %stage3_unit2_conv2_weight, padding=[1, 1, 1, 1], channels=256, kernel_size=[3, 3]) /* ty=Tensor[(1, 256, 14, 14), float32] */;
  %63 = add(%62, %54) /* ty=Tensor[(1, 256, 14, 14), float32] */;
  %64 = nn.batch_norm(%63, %stage4_unit1_bn1_gamma, %stage4_unit1_bn1_beta, %stage4_unit1_bn1_moving_mean, %stage4_unit1_bn1_moving_var, epsilon=2e-05f) /* ty=(Tensor[(1, 256, 14, 14), float32], Tensor[(256), float32], Tensor[(256), float32]) */;
  %65 = %64.0;
  %66 = nn.relu(%65) /* ty=Tensor[(1, 256, 14, 14), float32] */;
  %67 = nn.conv2d(%66, %stage4_unit1_conv1_weight, strides=[2, 2], padding=[1, 1, 1, 1], channels=512, kernel_size=[3, 3]) /* ty=Tensor[(1, 512, 7, 7), float32] */;
  %68 = nn.batch_norm(%67, %stage4_unit1_bn2_gamma, %stage4_unit1_bn2_beta, %stage4_unit1_bn2_moving_mean, %stage4_unit1_bn2_moving_var, epsilon=2e-05f) /* ty=(Tensor[(1, 512, 7, 7), float32], Tensor[(512), float32], Tensor[(512), float32]) */;
  %69 = %68.0;
  %70 = nn.relu(%69) /* ty=Tensor[(1, 512, 7, 7), float32] */;
  %71 = nn.conv2d(%70, %stage4_unit1_conv2_weight, padding=[1, 1, 1, 1], channels=512, kernel_size=[3, 3]) /* ty=Tensor[(1, 512, 7, 7), float32] */;
  %72 = nn.conv2d(%66, %stage4_unit1_sc_weight, strides=[2, 2], padding=[0, 0, 0, 0], channels=512, kernel_size=[1, 1]) /* ty=Tensor[(1, 512, 7, 7), float32] */;
  %73 = add(%71, %72) /* ty=Tensor[(1, 512, 7, 7), float32] */;
  %74 = nn.batch_norm(%73, %stage4_unit2_bn1_gamma, %stage4_unit2_bn1_beta, %stage4_unit2_bn1_moving_mean, %stage4_unit2_bn1_moving_var, epsilon=2e-05f) /* ty=(Tensor[(1, 512, 7, 7), float32], Tensor[(512), float32], Tensor[(512), float32]) */;
  %75 = %74.0;
  %76 = nn.relu(%75) /* ty=Tensor[(1, 512, 7, 7), float32] */;
  %77 = nn.conv2d(%76, %stage4_unit2_conv1_weight, padding=[1, 1, 1, 1], channels=512, kernel_size=[3, 3]) /* ty=Tensor[(1, 512, 7, 7), float32] */;
  %78 = nn.batch_norm(%77, %stage4_unit2_bn2_gamma, %stage4_unit2_bn2_beta, %stage4_unit2_bn2_moving_mean, %stage4_unit2_bn2_moving_var, epsilon=2e-05f) /* ty=(Tensor[(1, 512, 7, 7), float32], Tensor[(512), float32], Tensor[(512), float32]) */;
  %79 = %78.0;
  %80 = nn.relu(%79) /* ty=Tensor[(1, 512, 7, 7), float32] */;
  %81 = nn.conv2d(%80, %stage4_unit2_conv2_weight, padding=[1, 1, 1, 1], channels=512, kernel_size=[3, 3]) /* ty=Tensor[(1, 512, 7, 7), float32] */;
  %82 = add(%81, %73) /* ty=Tensor[(1, 512, 7, 7), float32] */;
  %83 = nn.batch_norm(%82, %bn1_gamma, %bn1_beta, %bn1_moving_mean, %bn1_moving_var, epsilon=2e-05f) /* ty=(Tensor[(1, 512, 7, 7), float32], Tensor[(512), float32], Tensor[(512), float32]) */;
  %84 = %83.0;
  %85 = nn.relu(%84) /* ty=Tensor[(1, 512, 7, 7), float32] */;
  %86 = nn.global_avg_pool2d(%85) /* ty=Tensor[(1, 512, 1, 1), float32] */;
  %87 = nn.batch_flatten(%86) /* ty=Tensor[(1, 512), float32] */;
  %88 = nn.dense(%87, %fc1_weight, units=1000) /* ty=Tensor[(1, 1000), float32] */;
  %89 = nn.bias_add(%88, %fc1_bias, axis=-1) /* ty=Tensor[(1, 1000), float32] */;
  nn.softmax(%89) /* ty=Tensor[(1, 1000), float32] */
}

Running pass: {} The meta data of the pass: pass name: InferTypeopt_level: 0required passes: [
]

def @main(%data: Tensor[(1, 3, 224, 224), float32], %bn_data_gamma: Tensor[(3), float32], %bn_data_beta: Tensor[(3), float32], %bn_data_moving_mean: Tensor[(3), float32], %bn_data_moving_var: Tensor[(3), float32], %conv0_weight: Tensor[(64, 3, 7, 7), float32], %bn0_gamma: Tensor[(64), float32], %bn0_beta: Tensor[(64), float32], %bn0_moving_mean: Tensor[(64), float32], %bn0_moving_var: Tensor[(64), float32], %stage1_unit1_bn1_gamma: Tensor[(64), float32], %stage1_unit1_bn1_beta: Tensor[(64), float32], %stage1_unit1_bn1_moving_mean: Tensor[(64), float32], %stage1_unit1_bn1_moving_var: Tensor[(64), float32], %stage1_unit1_conv1_weight: Tensor[(64, 64, 3, 3), float32], %stage1_unit1_bn2_gamma: Tensor[(64), float32], %stage1_unit1_bn2_beta: Tensor[(64), float32], %stage1_unit1_bn2_moving_mean: Tensor[(64), float32], %stage1_unit1_bn2_moving_var: Tensor[(64), float32], %stage1_unit1_conv2_weight: Tensor[(64, 64, 3, 3), float32], %stage1_unit1_sc_weight: Tensor[(64, 64, 1, 1), float32], %stage1_unit2_bn1_gamma: Tensor[(64), float32], %stage1_unit2_bn1_beta: Tensor[(64), float32], %stage1_unit2_bn1_moving_mean: Tensor[(64), float32], %stage1_unit2_bn1_moving_var: Tensor[(64), float32], %stage1_unit2_conv1_weight: Tensor[(64, 64, 3, 3), float32], %stage1_unit2_bn2_gamma: Tensor[(64), float32], %stage1_unit2_bn2_beta: Tensor[(64), float32], %stage1_unit2_bn2_moving_mean: Tensor[(64), float32], %stage1_unit2_bn2_moving_var: Tensor[(64), float32], %stage1_unit2_conv2_weight: Tensor[(64, 64, 3, 3), float32], %stage2_unit1_bn1_gamma: Tensor[(64), float32], %stage2_unit1_bn1_beta: Tensor[(64), float32], %stage2_unit1_bn1_moving_mean: Tensor[(64), float32], %stage2_unit1_bn1_moving_var: Tensor[(64), float32], %stage2_unit1_conv1_weight: Tensor[(128, 64, 3, 3), float32], %stage2_unit1_bn2_gamma: Tensor[(128), float32], %stage2_unit1_bn2_beta: Tensor[(128), float32], %stage2_unit1_bn2_moving_mean: Tensor[(128), float32], %stage2_unit1_bn2_moving_var: Tensor[(128), float32], %stage2_unit1_conv2_weight: Tensor[(128, 128, 3, 3), float32], %stage2_unit1_sc_weight: Tensor[(128, 64, 1, 1), float32], %stage2_unit2_bn1_gamma: Tensor[(128), float32], %stage2_unit2_bn1_beta: Tensor[(128), float32], %stage2_unit2_bn1_moving_mean: Tensor[(128), float32], %stage2_unit2_bn1_moving_var: Tensor[(128), float32], %stage2_unit2_conv1_weight: Tensor[(128, 128, 3, 3), float32], %stage2_unit2_bn2_gamma: Tensor[(128), float32], %stage2_unit2_bn2_beta: Tensor[(128), float32], %stage2_unit2_bn2_moving_mean: Tensor[(128), float32], %stage2_unit2_bn2_moving_var: Tensor[(128), float32], %stage2_unit2_conv2_weight: Tensor[(128, 128, 3, 3), float32], %stage3_unit1_bn1_gamma: Tensor[(128), float32], %stage3_unit1_bn1_beta: Tensor[(128), float32], %stage3_unit1_bn1_moving_mean: Tensor[(128), float32], %stage3_unit1_bn1_moving_var: Tensor[(128), float32], %stage3_unit1_conv1_weight: Tensor[(256, 128, 3, 3), float32], %stage3_unit1_bn2_gamma: Tensor[(256), float32], %stage3_unit1_bn2_beta: Tensor[(256), float32], %stage3_unit1_bn2_moving_mean: Tensor[(256), float32], %stage3_unit1_bn2_moving_var: Tensor[(256), float32], %stage3_unit1_conv2_weight: Tensor[(256, 256, 3, 3), float32], %stage3_unit1_sc_weight: Tensor[(256, 128, 1, 1), float32], %stage3_unit2_bn1_gamma: Tensor[(256), float32], %stage3_unit2_bn1_beta: Tensor[(256), float32], %stage3_unit2_bn1_moving_mean: Tensor[(256), float32], %stage3_unit2_bn1_moving_var: Tensor[(256), float32], %stage3_unit2_conv1_weight: Tensor[(256, 256, 3, 3), float32], %stage3_unit2_bn2_gamma: Tensor[(256), float32], %stage3_unit2_bn2_beta: Tensor[(256), float32], %stage3_unit2_bn2_moving_mean: Tensor[(256), float32], %stage3_unit2_bn2_moving_var: Tensor[(256), float32], %stage3_unit2_conv2_weight: Tensor[(256, 256, 3, 3), float32], %stage4_unit1_bn1_gamma: Tensor[(256), float32], %stage4_unit1_bn1_beta: Tensor[(256), float32], %stage4_unit1_bn1_moving_mean: Tensor[(256), float32], %stage4_unit1_bn1_moving_var: Tensor[(256), float32], %stage4_unit1_conv1_weight: Tensor[(512, 256, 3, 3), float32], %stage4_unit1_bn2_gamma: Tensor[(512), float32], %stage4_unit1_bn2_beta: Tensor[(512), float32], %stage4_unit1_bn2_moving_mean: Tensor[(512), float32], %stage4_unit1_bn2_moving_var: Tensor[(512), float32], %stage4_unit1_conv2_weight: Tensor[(512, 512, 3, 3), float32], %stage4_unit1_sc_weight: Tensor[(512, 256, 1, 1), float32], %stage4_unit2_bn1_gamma: Tensor[(512), float32], %stage4_unit2_bn1_beta: Tensor[(512), float32], %stage4_unit2_bn1_moving_mean: Tensor[(512), float32], %stage4_unit2_bn1_moving_var: Tensor[(512), float32], %stage4_unit2_conv1_weight: Tensor[(512, 512, 3, 3), float32], %stage4_unit2_bn2_gamma: Tensor[(512), float32], %stage4_unit2_bn2_beta: Tensor[(512), float32], %stage4_unit2_bn2_moving_mean: Tensor[(512), float32], %stage4_unit2_bn2_moving_var: Tensor[(512), float32], %stage4_unit2_conv2_weight: Tensor[(512, 512, 3, 3), float32], %bn1_gamma: Tensor[(512), float32], %bn1_beta: Tensor[(512), float32], %bn1_moving_mean: Tensor[(512), float32], %bn1_moving_var: Tensor[(512), float32], %fc1_weight: Tensor[(1000, 512), float32], %fc1_bias: Tensor[(1000), float32]) -> Tensor[(1, 1000), float32] {
  %0 = nn.batch_norm(%data, %bn_data_gamma, %bn_data_beta, %bn_data_moving_mean, %bn_data_moving_var, epsilon=2e-05f, scale=False) /* ty=(Tensor[(1, 3, 224, 224), float32], Tensor[(3), float32], Tensor[(3), float32]) */;
  %1 = %0.0;
  %2 = nn.conv2d(%1, %conv0_weight, strides=[2, 2], padding=[3, 3, 3, 3], channels=64, kernel_size=[7, 7]) /* ty=Tensor[(1, 64, 112, 112), float32] */;
  %3 = nn.batch_norm(%2, %bn0_gamma, %bn0_beta, %bn0_moving_mean, %bn0_moving_var, epsilon=2e-05f) /* ty=(Tensor[(1, 64, 112, 112), float32], Tensor[(64), float32], Tensor[(64), float32]) */;
  %4 = %3.0;
  %5 = nn.relu(%4) /* ty=Tensor[(1, 64, 112, 112), float32] */;
  %6 = nn.max_pool2d(%5, pool_size=[3, 3], strides=[2, 2], padding=[1, 1, 1, 1]) /* ty=Tensor[(1, 64, 56, 56), float32] */;
  %7 = nn.batch_norm(%6, %stage1_unit1_bn1_gamma, %stage1_unit1_bn1_beta, %stage1_unit1_bn1_moving_mean, %stage1_unit1_bn1_moving_var, epsilon=2e-05f) /* ty=(Tensor[(1, 64, 56, 56), float32], Tensor[(64), float32], Tensor[(64), float32]) */;
  %8 = %7.0;
  %9 = nn.relu(%8) /* ty=Tensor[(1, 64, 56, 56), float32] */;
  %10 = nn.conv2d(%9, %stage1_unit1_conv1_weight, padding=[1, 1, 1, 1], channels=64, kernel_size=[3, 3]) /* ty=Tensor[(1, 64, 56, 56), float32] */;
  %11 = nn.batch_norm(%10, %stage1_unit1_bn2_gamma, %stage1_unit1_bn2_beta, %stage1_unit1_bn2_moving_mean, %stage1_unit1_bn2_moving_var, epsilon=2e-05f) /* ty=(Tensor[(1, 64, 56, 56), float32], Tensor[(64), float32], Tensor[(64), float32]) */;
  %12 = %11.0;
  %13 = nn.relu(%12) /* ty=Tensor[(1, 64, 56, 56), float32] */;
  %14 = nn.conv2d(%13, %stage1_unit1_conv2_weight, padding=[1, 1, 1, 1], channels=64, kernel_size=[3, 3]) /* ty=Tensor[(1, 64, 56, 56), float32] */;
  %15 = nn.conv2d(%9, %stage1_unit1_sc_weight, padding=[0, 0, 0, 0], channels=64, kernel_size=[1, 1]) /* ty=Tensor[(1, 64, 56, 56), float32] */;
  %16 = add(%14, %15) /* ty=Tensor[(1, 64, 56, 56), float32] */;
  %17 = nn.batch_norm(%16, %stage1_unit2_bn1_gamma, %stage1_unit2_bn1_beta, %stage1_unit2_bn1_moving_mean, %stage1_unit2_bn1_moving_var, epsilon=2e-05f) /* ty=(Tensor[(1, 64, 56, 56), float32], Tensor[(64), float32], Tensor[(64), float32]) */;
  %18 = %17.0;
  %19 = nn.relu(%18) /* ty=Tensor[(1, 64, 56, 56), float32] */;
  %20 = nn.conv2d(%19, %stage1_unit2_conv1_weight, padding=[1, 1, 1, 1], channels=64, kernel_size=[3, 3]) /* ty=Tensor[(1, 64, 56, 56), float32] */;
  %21 = nn.batch_norm(%20, %stage1_unit2_bn2_gamma, %stage1_unit2_bn2_beta, %stage1_unit2_bn2_moving_mean, %stage1_unit2_bn2_moving_var, epsilon=2e-05f) /* ty=(Tensor[(1, 64, 56, 56), float32], Tensor[(64), float32], Tensor[(64), float32]) */;
  %22 = %21.0;
  %23 = nn.relu(%22) /* ty=Tensor[(1, 64, 56, 56), float32] */;
  %24 = nn.conv2d(%23, %stage1_unit2_conv2_weight, padding=[1, 1, 1, 1], channels=64, kernel_size=[3, 3]) /* ty=Tensor[(1, 64, 56, 56), float32] */;
  %25 = add(%24, %16) /* ty=Tensor[(1, 64, 56, 56), float32] */;
  %26 = nn.batch_norm(%25, %stage2_unit1_bn1_gamma, %stage2_unit1_bn1_beta, %stage2_unit1_bn1_moving_mean, %stage2_unit1_bn1_moving_var, epsilon=2e-05f) /* ty=(Tensor[(1, 64, 56, 56), float32], Tensor[(64), float32], Tensor[(64), float32]) */;
  %27 = %26.0;
  %28 = nn.relu(%27) /* ty=Tensor[(1, 64, 56, 56), float32] */;
  %29 = nn.conv2d(%28, %stage2_unit1_conv1_weight, strides=[2, 2], padding=[1, 1, 1, 1], channels=128, kernel_size=[3, 3]) /* ty=Tensor[(1, 128, 28, 28), float32] */;
  %30 = nn.batch_norm(%29, %stage2_unit1_bn2_gamma, %stage2_unit1_bn2_beta, %stage2_unit1_bn2_moving_mean, %stage2_unit1_bn2_moving_var, epsilon=2e-05f) /* ty=(Tensor[(1, 128, 28, 28), float32], Tensor[(128), float32], Tensor[(128), float32]) */;
  %31 = %30.0;
  %32 = nn.relu(%31) /* ty=Tensor[(1, 128, 28, 28), float32] */;
  %33 = nn.conv2d(%32, %stage2_unit1_conv2_weight, padding=[1, 1, 1, 1], channels=128, kernel_size=[3, 3]) /* ty=Tensor[(1, 128, 28, 28), float32] */;
  %34 = nn.conv2d(%28, %stage2_unit1_sc_weight, strides=[2, 2], padding=[0, 0, 0, 0], channels=128, kernel_size=[1, 1]) /* ty=Tensor[(1, 128, 28, 28), float32] */;
  %35 = add(%33, %34) /* ty=Tensor[(1, 128, 28, 28), float32] */;
  %36 = nn.batch_norm(%35, %stage2_unit2_bn1_gamma, %stage2_unit2_bn1_beta, %stage2_unit2_bn1_moving_mean, %stage2_unit2_bn1_moving_var, epsilon=2e-05f) /* ty=(Tensor[(1, 128, 28, 28), float32], Tensor[(128), float32], Tensor[(128), float32]) */;
  %37 = %36.0;
  %38 = nn.relu(%37) /* ty=Tensor[(1, 128, 28, 28), float32] */;
  %39 = nn.conv2d(%38, %stage2_unit2_conv1_weight, padding=[1, 1, 1, 1], channels=128, kernel_size=[3, 3]) /* ty=Tensor[(1, 128, 28, 28), float32] */;
  %40 = nn.batch_norm(%39, %stage2_unit2_bn2_gamma, %stage2_unit2_bn2_beta, %stage2_unit2_bn2_moving_mean, %stage2_unit2_bn2_moving_var, epsilon=2e-05f) /* ty=(Tensor[(1, 128, 28, 28), float32], Tensor[(128), float32], Tensor[(128), float32]) */;
  %41 = %40.0;
  %42 = nn.relu(%41) /* ty=Tensor[(1, 128, 28, 28), float32] */;
  %43 = nn.conv2d(%42, %stage2_unit2_conv2_weight, padding=[1, 1, 1, 1], channels=128, kernel_size=[3, 3]) /* ty=Tensor[(1, 128, 28, 28), float32] */;
  %44 = add(%43, %35) /* ty=Tensor[(1, 128, 28, 28), float32] */;
  %45 = nn.batch_norm(%44, %stage3_unit1_bn1_gamma, %stage3_unit1_bn1_beta, %stage3_unit1_bn1_moving_mean, %stage3_unit1_bn1_moving_var, epsilon=2e-05f) /* ty=(Tensor[(1, 128, 28, 28), float32], Tensor[(128), float32], Tensor[(128), float32]) */;
  %46 = %45.0;
  %47 = nn.relu(%46) /* ty=Tensor[(1, 128, 28, 28), float32] */;
  %48 = nn.conv2d(%47, %stage3_unit1_conv1_weight, strides=[2, 2], padding=[1, 1, 1, 1], channels=256, kernel_size=[3, 3]) /* ty=Tensor[(1, 256, 14, 14), float32] */;
  %49 = nn.batch_norm(%48, %stage3_unit1_bn2_gamma, %stage3_unit1_bn2_beta, %stage3_unit1_bn2_moving_mean, %stage3_unit1_bn2_moving_var, epsilon=2e-05f) /* ty=(Tensor[(1, 256, 14, 14), float32], Tensor[(256), float32], Tensor[(256), float32]) */;
  %50 = %49.0;
  %51 = nn.relu(%50) /* ty=Tensor[(1, 256, 14, 14), float32] */;
  %52 = nn.conv2d(%51, %stage3_unit1_conv2_weight, padding=[1, 1, 1, 1], channels=256, kernel_size=[3, 3]) /* ty=Tensor[(1, 256, 14, 14), float32] */;
  %53 = nn.conv2d(%47, %stage3_unit1_sc_weight, strides=[2, 2], padding=[0, 0, 0, 0], channels=256, kernel_size=[1, 1]) /* ty=Tensor[(1, 256, 14, 14), float32] */;
  %54 = add(%52, %53) /* ty=Tensor[(1, 256, 14, 14), float32] */;
  %55 = nn.batch_norm(%54, %stage3_unit2_bn1_gamma, %stage3_unit2_bn1_beta, %stage3_unit2_bn1_moving_mean, %stage3_unit2_bn1_moving_var, epsilon=2e-05f) /* ty=(Tensor[(1, 256, 14, 14), float32], Tensor[(256), float32], Tensor[(256), float32]) */;
  %56 = %55.0;
  %57 = nn.relu(%56) /* ty=Tensor[(1, 256, 14, 14), float32] */;
  %58 = nn.conv2d(%57, %stage3_unit2_conv1_weight, padding=[1, 1, 1, 1], channels=256, kernel_size=[3, 3]) /* ty=Tensor[(1, 256, 14, 14), float32] */;
  %59 = nn.batch_norm(%58, %stage3_unit2_bn2_gamma, %stage3_unit2_bn2_beta, %stage3_unit2_bn2_moving_mean, %stage3_unit2_bn2_moving_var, epsilon=2e-05f) /* ty=(Tensor[(1, 256, 14, 14), float32], Tensor[(256), float32], Tensor[(256), float32]) */;
  %60 = %59.0;
  %61 = nn.relu(%60) /* ty=Tensor[(1, 256, 14, 14), float32] */;
  %62 = nn.conv2d(%61, %stage3_unit2_conv2_weight, padding=[1, 1, 1, 1], channels=256, kernel_size=[3, 3]) /* ty=Tensor[(1, 256, 14, 14), float32] */;
  %63 = add(%62, %54) /* ty=Tensor[(1, 256, 14, 14), float32] */;
  %64 = nn.batch_norm(%63, %stage4_unit1_bn1_gamma, %stage4_unit1_bn1_beta, %stage4_unit1_bn1_moving_mean, %stage4_unit1_bn1_moving_var, epsilon=2e-05f) /* ty=(Tensor[(1, 256, 14, 14), float32], Tensor[(256), float32], Tensor[(256), float32]) */;
  %65 = %64.0;
  %66 = nn.relu(%65) /* ty=Tensor[(1, 256, 14, 14), float32] */;
  %67 = nn.conv2d(%66, %stage4_unit1_conv1_weight, strides=[2, 2], padding=[1, 1, 1, 1], channels=512, kernel_size=[3, 3]) /* ty=Tensor[(1, 512, 7, 7), float32] */;
  %68 = nn.batch_norm(%67, %stage4_unit1_bn2_gamma, %stage4_unit1_bn2_beta, %stage4_unit1_bn2_moving_mean, %stage4_unit1_bn2_moving_var, epsilon=2e-05f) /* ty=(Tensor[(1, 512, 7, 7), float32], Tensor[(512), float32], Tensor[(512), float32]) */;
  %69 = %68.0;
  %70 = nn.relu(%69) /* ty=Tensor[(1, 512, 7, 7), float32] */;
  %71 = nn.conv2d(%70, %stage4_unit1_conv2_weight, padding=[1, 1, 1, 1], channels=512, kernel_size=[3, 3]) /* ty=Tensor[(1, 512, 7, 7), float32] */;
  %72 = nn.conv2d(%66, %stage4_unit1_sc_weight, strides=[2, 2], padding=[0, 0, 0, 0], channels=512, kernel_size=[1, 1]) /* ty=Tensor[(1, 512, 7, 7), float32] */;
  %73 = add(%71, %72) /* ty=Tensor[(1, 512, 7, 7), float32] */;
  %74 = nn.batch_norm(%73, %stage4_unit2_bn1_gamma, %stage4_unit2_bn1_beta, %stage4_unit2_bn1_moving_mean, %stage4_unit2_bn1_moving_var, epsilon=2e-05f) /* ty=(Tensor[(1, 512, 7, 7), float32], Tensor[(512), float32], Tensor[(512), float32]) */;
  %75 = %74.0;
  %76 = nn.relu(%75) /* ty=Tensor[(1, 512, 7, 7), float32] */;
  %77 = nn.conv2d(%76, %stage4_unit2_conv1_weight, padding=[1, 1, 1, 1], channels=512, kernel_size=[3, 3]) /* ty=Tensor[(1, 512, 7, 7), float32] */;
  %78 = nn.batch_norm(%77, %stage4_unit2_bn2_gamma, %stage4_unit2_bn2_beta, %stage4_unit2_bn2_moving_mean, %stage4_unit2_bn2_moving_var, epsilon=2e-05f) /* ty=(Tensor[(1, 512, 7, 7), float32], Tensor[(512), float32], Tensor[(512), float32]) */;
  %79 = %78.0;
  %80 = nn.relu(%79) /* ty=Tensor[(1, 512, 7, 7), float32] */;
  %81 = nn.conv2d(%80, %stage4_unit2_conv2_weight, padding=[1, 1, 1, 1], channels=512, kernel_size=[3, 3]) /* ty=Tensor[(1, 512, 7, 7), float32] */;
  %82 = add(%81, %73) /* ty=Tensor[(1, 512, 7, 7), float32] */;
  %83 = nn.batch_norm(%82, %bn1_gamma, %bn1_beta, %bn1_moving_mean, %bn1_moving_var, epsilon=2e-05f) /* ty=(Tensor[(1, 512, 7, 7), float32], Tensor[(512), float32], Tensor[(512), float32]) */;
  %84 = %83.0;
  %85 = nn.relu(%84) /* ty=Tensor[(1, 512, 7, 7), float32] */;
  %86 = nn.global_avg_pool2d(%85) /* ty=Tensor[(1, 512, 1, 1), float32] */;
  %87 = nn.batch_flatten(%86) /* ty=Tensor[(1, 512), float32] */;
  %88 = nn.dense(%87, %fc1_weight, units=1000) /* ty=Tensor[(1, 1000), float32] */;
  %89 = nn.bias_add(%88, %fc1_bias, axis=-1) /* ty=Tensor[(1, 1000), float32] */;
  nn.softmax(%89) /* ty=Tensor[(1, 1000), float32] */
}

Running pass: {} The meta data of the pass: pass name: InferTypeopt_level: 0required passes: [
]

def @main(%data: Tensor[(1, 3, 224, 224), float32], %bn_data_gamma: Tensor[(3), float32], %bn_data_beta: Tensor[(3), float32], %bn_data_moving_mean: Tensor[(3), float32], %bn_data_moving_var: Tensor[(3), float32], %conv0_weight: Tensor[(64, 3, 7, 7), float32], %bn0_gamma: Tensor[(64), float32], %bn0_beta: Tensor[(64), float32], %bn0_moving_mean: Tensor[(64), float32], %bn0_moving_var: Tensor[(64), float32], %stage1_unit1_bn1_gamma: Tensor[(64), float32], %stage1_unit1_bn1_beta: Tensor[(64), float32], %stage1_unit1_bn1_moving_mean: Tensor[(64), float32], %stage1_unit1_bn1_moving_var: Tensor[(64), float32], %stage1_unit1_conv1_weight: Tensor[(64, 64, 3, 3), float32], %stage1_unit1_bn2_gamma: Tensor[(64), float32], %stage1_unit1_bn2_beta: Tensor[(64), float32], %stage1_unit1_bn2_moving_mean: Tensor[(64), float32], %stage1_unit1_bn2_moving_var: Tensor[(64), float32], %stage1_unit1_conv2_weight: Tensor[(64, 64, 3, 3), float32], %stage1_unit1_sc_weight: Tensor[(64, 64, 1, 1), float32], %stage1_unit2_bn1_gamma: Tensor[(64), float32], %stage1_unit2_bn1_beta: Tensor[(64), float32], %stage1_unit2_bn1_moving_mean: Tensor[(64), float32], %stage1_unit2_bn1_moving_var: Tensor[(64), float32], %stage1_unit2_conv1_weight: Tensor[(64, 64, 3, 3), float32], %stage1_unit2_bn2_gamma: Tensor[(64), float32], %stage1_unit2_bn2_beta: Tensor[(64), float32], %stage1_unit2_bn2_moving_mean: Tensor[(64), float32], %stage1_unit2_bn2_moving_var: Tensor[(64), float32], %stage1_unit2_conv2_weight: Tensor[(64, 64, 3, 3), float32], %stage2_unit1_bn1_gamma: Tensor[(64), float32], %stage2_unit1_bn1_beta: Tensor[(64), float32], %stage2_unit1_bn1_moving_mean: Tensor[(64), float32], %stage2_unit1_bn1_moving_var: Tensor[(64), float32], %stage2_unit1_conv1_weight: Tensor[(128, 64, 3, 3), float32], %stage2_unit1_bn2_gamma: Tensor[(128), float32], %stage2_unit1_bn2_beta: Tensor[(128), float32], %stage2_unit1_bn2_moving_mean: Tensor[(128), float32], %stage2_unit1_bn2_moving_var: Tensor[(128), float32], %stage2_unit1_conv2_weight: Tensor[(128, 128, 3, 3), float32], %stage2_unit1_sc_weight: Tensor[(128, 64, 1, 1), float32], %stage2_unit2_bn1_gamma: Tensor[(128), float32], %stage2_unit2_bn1_beta: Tensor[(128), float32], %stage2_unit2_bn1_moving_mean: Tensor[(128), float32], %stage2_unit2_bn1_moving_var: Tensor[(128), float32], %stage2_unit2_conv1_weight: Tensor[(128, 128, 3, 3), float32], %stage2_unit2_bn2_gamma: Tensor[(128), float32], %stage2_unit2_bn2_beta: Tensor[(128), float32], %stage2_unit2_bn2_moving_mean: Tensor[(128), float32], %stage2_unit2_bn2_moving_var: Tensor[(128), float32], %stage2_unit2_conv2_weight: Tensor[(128, 128, 3, 3), float32], %stage3_unit1_bn1_gamma: Tensor[(128), float32], %stage3_unit1_bn1_beta: Tensor[(128), float32], %stage3_unit1_bn1_moving_mean: Tensor[(128), float32], %stage3_unit1_bn1_moving_var: Tensor[(128), float32], %stage3_unit1_conv1_weight: Tensor[(256, 128, 3, 3), float32], %stage3_unit1_bn2_gamma: Tensor[(256), float32], %stage3_unit1_bn2_beta: Tensor[(256), float32], %stage3_unit1_bn2_moving_mean: Tensor[(256), float32], %stage3_unit1_bn2_moving_var: Tensor[(256), float32], %stage3_unit1_conv2_weight: Tensor[(256, 256, 3, 3), float32], %stage3_unit1_sc_weight: Tensor[(256, 128, 1, 1), float32], %stage3_unit2_bn1_gamma: Tensor[(256), float32], %stage3_unit2_bn1_beta: Tensor[(256), float32], %stage3_unit2_bn1_moving_mean: Tensor[(256), float32], %stage3_unit2_bn1_moving_var: Tensor[(256), float32], %stage3_unit2_conv1_weight: Tensor[(256, 256, 3, 3), float32], %stage3_unit2_bn2_gamma: Tensor[(256), float32], %stage3_unit2_bn2_beta: Tensor[(256), float32], %stage3_unit2_bn2_moving_mean: Tensor[(256), float32], %stage3_unit2_bn2_moving_var: Tensor[(256), float32], %stage3_unit2_conv2_weight: Tensor[(256, 256, 3, 3), float32], %stage4_unit1_bn1_gamma: Tensor[(256), float32], %stage4_unit1_bn1_beta: Tensor[(256), float32], %stage4_unit1_bn1_moving_mean: Tensor[(256), float32], %stage4_unit1_bn1_moving_var: Tensor[(256), float32], %stage4_unit1_conv1_weight: Tensor[(512, 256, 3, 3), float32], %stage4_unit1_bn2_gamma: Tensor[(512), float32], %stage4_unit1_bn2_beta: Tensor[(512), float32], %stage4_unit1_bn2_moving_mean: Tensor[(512), float32], %stage4_unit1_bn2_moving_var: Tensor[(512), float32], %stage4_unit1_conv2_weight: Tensor[(512, 512, 3, 3), float32], %stage4_unit1_sc_weight: Tensor[(512, 256, 1, 1), float32], %stage4_unit2_bn1_gamma: Tensor[(512), float32], %stage4_unit2_bn1_beta: Tensor[(512), float32], %stage4_unit2_bn1_moving_mean: Tensor[(512), float32], %stage4_unit2_bn1_moving_var: Tensor[(512), float32], %stage4_unit2_conv1_weight: Tensor[(512, 512, 3, 3), float32], %stage4_unit2_bn2_gamma: Tensor[(512), float32], %stage4_unit2_bn2_beta: Tensor[(512), float32], %stage4_unit2_bn2_moving_mean: Tensor[(512), float32], %stage4_unit2_bn2_moving_var: Tensor[(512), float32], %stage4_unit2_conv2_weight: Tensor[(512, 512, 3, 3), float32], %bn1_gamma: Tensor[(512), float32], %bn1_beta: Tensor[(512), float32], %bn1_moving_mean: Tensor[(512), float32], %bn1_moving_var: Tensor[(512), float32], %fc1_weight: Tensor[(1000, 512), float32], %fc1_bias: Tensor[(1000), float32]) -> Tensor[(1, 1000), float32] {
  %0 = nn.batch_norm(%data, %bn_data_gamma, %bn_data_beta, %bn_data_moving_mean, %bn_data_moving_var, epsilon=2e-05f, scale=False) /* ty=(Tensor[(1, 3, 224, 224), float32], Tensor[(3), float32], Tensor[(3), float32]) */;
  %1 = %0.0;
  %2 = nn.conv2d(%1, %conv0_weight, strides=[2, 2], padding=[3, 3, 3, 3], channels=64, kernel_size=[7, 7]) /* ty=Tensor[(1, 64, 112, 112), float32] */;
  %3 = nn.batch_norm(%2, %bn0_gamma, %bn0_beta, %bn0_moving_mean, %bn0_moving_var, epsilon=2e-05f) /* ty=(Tensor[(1, 64, 112, 112), float32], Tensor[(64), float32], Tensor[(64), float32]) */;
  %4 = %3.0;
  %5 = nn.relu(%4) /* ty=Tensor[(1, 64, 112, 112), float32] */;
  %6 = nn.max_pool2d(%5, pool_size=[3, 3], strides=[2, 2], padding=[1, 1, 1, 1]) /* ty=Tensor[(1, 64, 56, 56), float32] */;
  %7 = nn.batch_norm(%6, %stage1_unit1_bn1_gamma, %stage1_unit1_bn1_beta, %stage1_unit1_bn1_moving_mean, %stage1_unit1_bn1_moving_var, epsilon=2e-05f) /* ty=(Tensor[(1, 64, 56, 56), float32], Tensor[(64), float32], Tensor[(64), float32]) */;
  %8 = %7.0;
  %9 = nn.relu(%8) /* ty=Tensor[(1, 64, 56, 56), float32] */;
  %10 = nn.conv2d(%9, %stage1_unit1_conv1_weight, padding=[1, 1, 1, 1], channels=64, kernel_size=[3, 3]) /* ty=Tensor[(1, 64, 56, 56), float32] */;
  %11 = nn.batch_norm(%10, %stage1_unit1_bn2_gamma, %stage1_unit1_bn2_beta, %stage1_unit1_bn2_moving_mean, %stage1_unit1_bn2_moving_var, epsilon=2e-05f) /* ty=(Tensor[(1, 64, 56, 56), float32], Tensor[(64), float32], Tensor[(64), float32]) */;
  %12 = %11.0;
  %13 = nn.relu(%12) /* ty=Tensor[(1, 64, 56, 56), float32] */;
  %14 = nn.conv2d(%13, %stage1_unit1_conv2_weight, padding=[1, 1, 1, 1], channels=64, kernel_size=[3, 3]) /* ty=Tensor[(1, 64, 56, 56), float32] */;
  %15 = nn.conv2d(%9, %stage1_unit1_sc_weight, padding=[0, 0, 0, 0], channels=64, kernel_size=[1, 1]) /* ty=Tensor[(1, 64, 56, 56), float32] */;
  %16 = add(%14, %15) /* ty=Tensor[(1, 64, 56, 56), float32] */;
  %17 = nn.batch_norm(%16, %stage1_unit2_bn1_gamma, %stage1_unit2_bn1_beta, %stage1_unit2_bn1_moving_mean, %stage1_unit2_bn1_moving_var, epsilon=2e-05f) /* ty=(Tensor[(1, 64, 56, 56), float32], Tensor[(64), float32], Tensor[(64), float32]) */;
  %18 = %17.0;
  %19 = nn.relu(%18) /* ty=Tensor[(1, 64, 56, 56), float32] */;
  %20 = nn.conv2d(%19, %stage1_unit2_conv1_weight, padding=[1, 1, 1, 1], channels=64, kernel_size=[3, 3]) /* ty=Tensor[(1, 64, 56, 56), float32] */;
  %21 = nn.batch_norm(%20, %stage1_unit2_bn2_gamma, %stage1_unit2_bn2_beta, %stage1_unit2_bn2_moving_mean, %stage1_unit2_bn2_moving_var, epsilon=2e-05f) /* ty=(Tensor[(1, 64, 56, 56), float32], Tensor[(64), float32], Tensor[(64), float32]) */;
  %22 = %21.0;
  %23 = nn.relu(%22) /* ty=Tensor[(1, 64, 56, 56), float32] */;
  %24 = nn.conv2d(%23, %stage1_unit2_conv2_weight, padding=[1, 1, 1, 1], channels=64, kernel_size=[3, 3]) /* ty=Tensor[(1, 64, 56, 56), float32] */;
  %25 = add(%24, %16) /* ty=Tensor[(1, 64, 56, 56), float32] */;
  %26 = nn.batch_norm(%25, %stage2_unit1_bn1_gamma, %stage2_unit1_bn1_beta, %stage2_unit1_bn1_moving_mean, %stage2_unit1_bn1_moving_var, epsilon=2e-05f) /* ty=(Tensor[(1, 64, 56, 56), float32], Tensor[(64), float32], Tensor[(64), float32]) */;
  %27 = %26.0;
  %28 = nn.relu(%27) /* ty=Tensor[(1, 64, 56, 56), float32] */;
  %29 = nn.conv2d(%28, %stage2_unit1_conv1_weight, strides=[2, 2], padding=[1, 1, 1, 1], channels=128, kernel_size=[3, 3]) /* ty=Tensor[(1, 128, 28, 28), float32] */;
  %30 = nn.batch_norm(%29, %stage2_unit1_bn2_gamma, %stage2_unit1_bn2_beta, %stage2_unit1_bn2_moving_mean, %stage2_unit1_bn2_moving_var, epsilon=2e-05f) /* ty=(Tensor[(1, 128, 28, 28), float32], Tensor[(128), float32], Tensor[(128), float32]) */;
  %31 = %30.0;
  %32 = nn.relu(%31) /* ty=Tensor[(1, 128, 28, 28), float32] */;
  %33 = nn.conv2d(%32, %stage2_unit1_conv2_weight, padding=[1, 1, 1, 1], channels=128, kernel_size=[3, 3]) /* ty=Tensor[(1, 128, 28, 28), float32] */;
  %34 = nn.conv2d(%28, %stage2_unit1_sc_weight, strides=[2, 2], padding=[0, 0, 0, 0], channels=128, kernel_size=[1, 1]) /* ty=Tensor[(1, 128, 28, 28), float32] */;
  %35 = add(%33, %34) /* ty=Tensor[(1, 128, 28, 28), float32] */;
  %36 = nn.batch_norm(%35, %stage2_unit2_bn1_gamma, %stage2_unit2_bn1_beta, %stage2_unit2_bn1_moving_mean, %stage2_unit2_bn1_moving_var, epsilon=2e-05f) /* ty=(Tensor[(1, 128, 28, 28), float32], Tensor[(128), float32], Tensor[(128), float32]) */;
  %37 = %36.0;
  %38 = nn.relu(%37) /* ty=Tensor[(1, 128, 28, 28), float32] */;
  %39 = nn.conv2d(%38, %stage2_unit2_conv1_weight, padding=[1, 1, 1, 1], channels=128, kernel_size=[3, 3]) /* ty=Tensor[(1, 128, 28, 28), float32] */;
  %40 = nn.batch_norm(%39, %stage2_unit2_bn2_gamma, %stage2_unit2_bn2_beta, %stage2_unit2_bn2_moving_mean, %stage2_unit2_bn2_moving_var, epsilon=2e-05f) /* ty=(Tensor[(1, 128, 28, 28), float32], Tensor[(128), float32], Tensor[(128), float32]) */;
  %41 = %40.0;
  %42 = nn.relu(%41) /* ty=Tensor[(1, 128, 28, 28), float32] */;
  %43 = nn.conv2d(%42, %stage2_unit2_conv2_weight, padding=[1, 1, 1, 1], channels=128, kernel_size=[3, 3]) /* ty=Tensor[(1, 128, 28, 28), float32] */;
  %44 = add(%43, %35) /* ty=Tensor[(1, 128, 28, 28), float32] */;
  %45 = nn.batch_norm(%44, %stage3_unit1_bn1_gamma, %stage3_unit1_bn1_beta, %stage3_unit1_bn1_moving_mean, %stage3_unit1_bn1_moving_var, epsilon=2e-05f) /* ty=(Tensor[(1, 128, 28, 28), float32], Tensor[(128), float32], Tensor[(128), float32]) */;
  %46 = %45.0;
  %47 = nn.relu(%46) /* ty=Tensor[(1, 128, 28, 28), float32] */;
  %48 = nn.conv2d(%47, %stage3_unit1_conv1_weight, strides=[2, 2], padding=[1, 1, 1, 1], channels=256, kernel_size=[3, 3]) /* ty=Tensor[(1, 256, 14, 14), float32] */;
  %49 = nn.batch_norm(%48, %stage3_unit1_bn2_gamma, %stage3_unit1_bn2_beta, %stage3_unit1_bn2_moving_mean, %stage3_unit1_bn2_moving_var, epsilon=2e-05f) /* ty=(Tensor[(1, 256, 14, 14), float32], Tensor[(256), float32], Tensor[(256), float32]) */;
  %50 = %49.0;
  %51 = nn.relu(%50) /* ty=Tensor[(1, 256, 14, 14), float32] */;
  %52 = nn.conv2d(%51, %stage3_unit1_conv2_weight, padding=[1, 1, 1, 1], channels=256, kernel_size=[3, 3]) /* ty=Tensor[(1, 256, 14, 14), float32] */;
  %53 = nn.conv2d(%47, %stage3_unit1_sc_weight, strides=[2, 2], padding=[0, 0, 0, 0], channels=256, kernel_size=[1, 1]) /* ty=Tensor[(1, 256, 14, 14), float32] */;
  %54 = add(%52, %53) /* ty=Tensor[(1, 256, 14, 14), float32] */;
  %55 = nn.batch_norm(%54, %stage3_unit2_bn1_gamma, %stage3_unit2_bn1_beta, %stage3_unit2_bn1_moving_mean, %stage3_unit2_bn1_moving_var, epsilon=2e-05f) /* ty=(Tensor[(1, 256, 14, 14), float32], Tensor[(256), float32], Tensor[(256), float32]) */;
  %56 = %55.0;
  %57 = nn.relu(%56) /* ty=Tensor[(1, 256, 14, 14), float32] */;
  %58 = nn.conv2d(%57, %stage3_unit2_conv1_weight, padding=[1, 1, 1, 1], channels=256, kernel_size=[3, 3]) /* ty=Tensor[(1, 256, 14, 14), float32] */;
  %59 = nn.batch_norm(%58, %stage3_unit2_bn2_gamma, %stage3_unit2_bn2_beta, %stage3_unit2_bn2_moving_mean, %stage3_unit2_bn2_moving_var, epsilon=2e-05f) /* ty=(Tensor[(1, 256, 14, 14), float32], Tensor[(256), float32], Tensor[(256), float32]) */;
  %60 = %59.0;
  %61 = nn.relu(%60) /* ty=Tensor[(1, 256, 14, 14), float32] */;
  %62 = nn.conv2d(%61, %stage3_unit2_conv2_weight, padding=[1, 1, 1, 1], channels=256, kernel_size=[3, 3]) /* ty=Tensor[(1, 256, 14, 14), float32] */;
  %63 = add(%62, %54) /* ty=Tensor[(1, 256, 14, 14), float32] */;
  %64 = nn.batch_norm(%63, %stage4_unit1_bn1_gamma, %stage4_unit1_bn1_beta, %stage4_unit1_bn1_moving_mean, %stage4_unit1_bn1_moving_var, epsilon=2e-05f) /* ty=(Tensor[(1, 256, 14, 14), float32], Tensor[(256), float32], Tensor[(256), float32]) */;
  %65 = %64.0;
  %66 = nn.relu(%65) /* ty=Tensor[(1, 256, 14, 14), float32] */;
  %67 = nn.conv2d(%66, %stage4_unit1_conv1_weight, strides=[2, 2], padding=[1, 1, 1, 1], channels=512, kernel_size=[3, 3]) /* ty=Tensor[(1, 512, 7, 7), float32] */;
  %68 = nn.batch_norm(%67, %stage4_unit1_bn2_gamma, %stage4_unit1_bn2_beta, %stage4_unit1_bn2_moving_mean, %stage4_unit1_bn2_moving_var, epsilon=2e-05f) /* ty=(Tensor[(1, 512, 7, 7), float32], Tensor[(512), float32], Tensor[(512), float32]) */;
  %69 = %68.0;
  %70 = nn.relu(%69) /* ty=Tensor[(1, 512, 7, 7), float32] */;
  %71 = nn.conv2d(%70, %stage4_unit1_conv2_weight, padding=[1, 1, 1, 1], channels=512, kernel_size=[3, 3]) /* ty=Tensor[(1, 512, 7, 7), float32] */;
  %72 = nn.conv2d(%66, %stage4_unit1_sc_weight, strides=[2, 2], padding=[0, 0, 0, 0], channels=512, kernel_size=[1, 1]) /* ty=Tensor[(1, 512, 7, 7), float32] */;
  %73 = add(%71, %72) /* ty=Tensor[(1, 512, 7, 7), float32] */;
  %74 = nn.batch_norm(%73, %stage4_unit2_bn1_gamma, %stage4_unit2_bn1_beta, %stage4_unit2_bn1_moving_mean, %stage4_unit2_bn1_moving_var, epsilon=2e-05f) /* ty=(Tensor[(1, 512, 7, 7), float32], Tensor[(512), float32], Tensor[(512), float32]) */;
  %75 = %74.0;
  %76 = nn.relu(%75) /* ty=Tensor[(1, 512, 7, 7), float32] */;
  %77 = nn.conv2d(%76, %stage4_unit2_conv1_weight, padding=[1, 1, 1, 1], channels=512, kernel_size=[3, 3]) /* ty=Tensor[(1, 512, 7, 7), float32] */;
  %78 = nn.batch_norm(%77, %stage4_unit2_bn2_gamma, %stage4_unit2_bn2_beta, %stage4_unit2_bn2_moving_mean, %stage4_unit2_bn2_moving_var, epsilon=2e-05f) /* ty=(Tensor[(1, 512, 7, 7), float32], Tensor[(512), float32], Tensor[(512), float32]) */;
  %79 = %78.0;
  %80 = nn.relu(%79) /* ty=Tensor[(1, 512, 7, 7), float32] */;
  %81 = nn.conv2d(%80, %stage4_unit2_conv2_weight, padding=[1, 1, 1, 1], channels=512, kernel_size=[3, 3]) /* ty=Tensor[(1, 512, 7, 7), float32] */;
  %82 = add(%81, %73) /* ty=Tensor[(1, 512, 7, 7), float32] */;
  %83 = nn.batch_norm(%82, %bn1_gamma, %bn1_beta, %bn1_moving_mean, %bn1_moving_var, epsilon=2e-05f) /* ty=(Tensor[(1, 512, 7, 7), float32], Tensor[(512), float32], Tensor[(512), float32]) */;
  %84 = %83.0;
  %85 = nn.relu(%84) /* ty=Tensor[(1, 512, 7, 7), float32] */;
  %86 = nn.global_avg_pool2d(%85) /* ty=Tensor[(1, 512, 1, 1), float32] */;
  %87 = nn.batch_flatten(%86) /* ty=Tensor[(1, 512), float32] */;
  %88 = nn.dense(%87, %fc1_weight, units=1000) /* ty=Tensor[(1, 1000), float32] */;
  %89 = nn.bias_add(%88, %fc1_bias, axis=-1) /* ty=Tensor[(1, 1000), float32] */;
  nn.softmax(%89) /* ty=Tensor[(1, 1000), float32] */
}

Running pass: {} The meta data of the pass: pass name: InferTypeopt_level: 0required passes: [
]

def @main(%data: Tensor[(1, 3, 224, 224), float32], %bn_data_gamma: Tensor[(3), float32], %bn_data_beta: Tensor[(3), float32], %bn_data_moving_mean: Tensor[(3), float32], %bn_data_moving_var: Tensor[(3), float32], %conv0_weight: Tensor[(64, 3, 7, 7), float32], %bn0_gamma: Tensor[(64), float32], %bn0_beta: Tensor[(64), float32], %bn0_moving_mean: Tensor[(64), float32], %bn0_moving_var: Tensor[(64), float32], %stage1_unit1_bn1_gamma: Tensor[(64), float32], %stage1_unit1_bn1_beta: Tensor[(64), float32], %stage1_unit1_bn1_moving_mean: Tensor[(64), float32], %stage1_unit1_bn1_moving_var: Tensor[(64), float32], %stage1_unit1_conv1_weight: Tensor[(64, 64, 3, 3), float32], %stage1_unit1_bn2_gamma: Tensor[(64), float32], %stage1_unit1_bn2_beta: Tensor[(64), float32], %stage1_unit1_bn2_moving_mean: Tensor[(64), float32], %stage1_unit1_bn2_moving_var: Tensor[(64), float32], %stage1_unit1_conv2_weight: Tensor[(64, 64, 3, 3), float32], %stage1_unit1_sc_weight: Tensor[(64, 64, 1, 1), float32], %stage1_unit2_bn1_gamma: Tensor[(64), float32], %stage1_unit2_bn1_beta: Tensor[(64), float32], %stage1_unit2_bn1_moving_mean: Tensor[(64), float32], %stage1_unit2_bn1_moving_var: Tensor[(64), float32], %stage1_unit2_conv1_weight: Tensor[(64, 64, 3, 3), float32], %stage1_unit2_bn2_gamma: Tensor[(64), float32], %stage1_unit2_bn2_beta: Tensor[(64), float32], %stage1_unit2_bn2_moving_mean: Tensor[(64), float32], %stage1_unit2_bn2_moving_var: Tensor[(64), float32], %stage1_unit2_conv2_weight: Tensor[(64, 64, 3, 3), float32], %stage2_unit1_bn1_gamma: Tensor[(64), float32], %stage2_unit1_bn1_beta: Tensor[(64), float32], %stage2_unit1_bn1_moving_mean: Tensor[(64), float32], %stage2_unit1_bn1_moving_var: Tensor[(64), float32], %stage2_unit1_conv1_weight: Tensor[(128, 64, 3, 3), float32], %stage2_unit1_bn2_gamma: Tensor[(128), float32], %stage2_unit1_bn2_beta: Tensor[(128), float32], %stage2_unit1_bn2_moving_mean: Tensor[(128), float32], %stage2_unit1_bn2_moving_var: Tensor[(128), float32], %stage2_unit1_conv2_weight: Tensor[(128, 128, 3, 3), float32], %stage2_unit1_sc_weight: Tensor[(128, 64, 1, 1), float32], %stage2_unit2_bn1_gamma: Tensor[(128), float32], %stage2_unit2_bn1_beta: Tensor[(128), float32], %stage2_unit2_bn1_moving_mean: Tensor[(128), float32], %stage2_unit2_bn1_moving_var: Tensor[(128), float32], %stage2_unit2_conv1_weight: Tensor[(128, 128, 3, 3), float32], %stage2_unit2_bn2_gamma: Tensor[(128), float32], %stage2_unit2_bn2_beta: Tensor[(128), float32], %stage2_unit2_bn2_moving_mean: Tensor[(128), float32], %stage2_unit2_bn2_moving_var: Tensor[(128), float32], %stage2_unit2_conv2_weight: Tensor[(128, 128, 3, 3), float32], %stage3_unit1_bn1_gamma: Tensor[(128), float32], %stage3_unit1_bn1_beta: Tensor[(128), float32], %stage3_unit1_bn1_moving_mean: Tensor[(128), float32], %stage3_unit1_bn1_moving_var: Tensor[(128), float32], %stage3_unit1_conv1_weight: Tensor[(256, 128, 3, 3), float32], %stage3_unit1_bn2_gamma: Tensor[(256), float32], %stage3_unit1_bn2_beta: Tensor[(256), float32], %stage3_unit1_bn2_moving_mean: Tensor[(256), float32], %stage3_unit1_bn2_moving_var: Tensor[(256), float32], %stage3_unit1_conv2_weight: Tensor[(256, 256, 3, 3), float32], %stage3_unit1_sc_weight: Tensor[(256, 128, 1, 1), float32], %stage3_unit2_bn1_gamma: Tensor[(256), float32], %stage3_unit2_bn1_beta: Tensor[(256), float32], %stage3_unit2_bn1_moving_mean: Tensor[(256), float32], %stage3_unit2_bn1_moving_var: Tensor[(256), float32], %stage3_unit2_conv1_weight: Tensor[(256, 256, 3, 3), float32], %stage3_unit2_bn2_gamma: Tensor[(256), float32], %stage3_unit2_bn2_beta: Tensor[(256), float32], %stage3_unit2_bn2_moving_mean: Tensor[(256), float32], %stage3_unit2_bn2_moving_var: Tensor[(256), float32], %stage3_unit2_conv2_weight: Tensor[(256, 256, 3, 3), float32], %stage4_unit1_bn1_gamma: Tensor[(256), float32], %stage4_unit1_bn1_beta: Tensor[(256), float32], %stage4_unit1_bn1_moving_mean: Tensor[(256), float32], %stage4_unit1_bn1_moving_var: Tensor[(256), float32], %stage4_unit1_conv1_weight: Tensor[(512, 256, 3, 3), float32], %stage4_unit1_bn2_gamma: Tensor[(512), float32], %stage4_unit1_bn2_beta: Tensor[(512), float32], %stage4_unit1_bn2_moving_mean: Tensor[(512), float32], %stage4_unit1_bn2_moving_var: Tensor[(512), float32], %stage4_unit1_conv2_weight: Tensor[(512, 512, 3, 3), float32], %stage4_unit1_sc_weight: Tensor[(512, 256, 1, 1), float32], %stage4_unit2_bn1_gamma: Tensor[(512), float32], %stage4_unit2_bn1_beta: Tensor[(512), float32], %stage4_unit2_bn1_moving_mean: Tensor[(512), float32], %stage4_unit2_bn1_moving_var: Tensor[(512), float32], %stage4_unit2_conv1_weight: Tensor[(512, 512, 3, 3), float32], %stage4_unit2_bn2_gamma: Tensor[(512), float32], %stage4_unit2_bn2_beta: Tensor[(512), float32], %stage4_unit2_bn2_moving_mean: Tensor[(512), float32], %stage4_unit2_bn2_moving_var: Tensor[(512), float32], %stage4_unit2_conv2_weight: Tensor[(512, 512, 3, 3), float32], %bn1_gamma: Tensor[(512), float32], %bn1_beta: Tensor[(512), float32], %bn1_moving_mean: Tensor[(512), float32], %bn1_moving_var: Tensor[(512), float32], %fc1_weight: Tensor[(1000, 512), float32], %fc1_bias: Tensor[(1000), float32]) -> Tensor[(1, 1000), float32] {
  %0 = nn.batch_norm(%data, %bn_data_gamma, %bn_data_beta, %bn_data_moving_mean, %bn_data_moving_var, epsilon=2e-05f, scale=False) /* ty=(Tensor[(1, 3, 224, 224), float32], Tensor[(3), float32], Tensor[(3), float32]) */;
  %1 = %0.0;
  %2 = nn.conv2d(%1, %conv0_weight, strides=[2, 2], padding=[3, 3, 3, 3], channels=64, kernel_size=[7, 7]) /* ty=Tensor[(1, 64, 112, 112), float32] */;
  %3 = nn.batch_norm(%2, %bn0_gamma, %bn0_beta, %bn0_moving_mean, %bn0_moving_var, epsilon=2e-05f) /* ty=(Tensor[(1, 64, 112, 112), float32], Tensor[(64), float32], Tensor[(64), float32]) */;
  %4 = %3.0;
  %5 = nn.relu(%4) /* ty=Tensor[(1, 64, 112, 112), float32] */;
  %6 = nn.max_pool2d(%5, pool_size=[3, 3], strides=[2, 2], padding=[1, 1, 1, 1]) /* ty=Tensor[(1, 64, 56, 56), float32] */;
  %7 = nn.batch_norm(%6, %stage1_unit1_bn1_gamma, %stage1_unit1_bn1_beta, %stage1_unit1_bn1_moving_mean, %stage1_unit1_bn1_moving_var, epsilon=2e-05f) /* ty=(Tensor[(1, 64, 56, 56), float32], Tensor[(64), float32], Tensor[(64), float32]) */;
  %8 = %7.0;
  %9 = nn.relu(%8) /* ty=Tensor[(1, 64, 56, 56), float32] */;
  %10 = nn.conv2d(%9, %stage1_unit1_conv1_weight, padding=[1, 1, 1, 1], channels=64, kernel_size=[3, 3]) /* ty=Tensor[(1, 64, 56, 56), float32] */;
  %11 = nn.batch_norm(%10, %stage1_unit1_bn2_gamma, %stage1_unit1_bn2_beta, %stage1_unit1_bn2_moving_mean, %stage1_unit1_bn2_moving_var, epsilon=2e-05f) /* ty=(Tensor[(1, 64, 56, 56), float32], Tensor[(64), float32], Tensor[(64), float32]) */;
  %12 = %11.0;
  %13 = nn.relu(%12) /* ty=Tensor[(1, 64, 56, 56), float32] */;
  %14 = nn.conv2d(%13, %stage1_unit1_conv2_weight, padding=[1, 1, 1, 1], channels=64, kernel_size=[3, 3]) /* ty=Tensor[(1, 64, 56, 56), float32] */;
  %15 = nn.conv2d(%9, %stage1_unit1_sc_weight, padding=[0, 0, 0, 0], channels=64, kernel_size=[1, 1]) /* ty=Tensor[(1, 64, 56, 56), float32] */;
  %16 = add(%14, %15) /* ty=Tensor[(1, 64, 56, 56), float32] */;
  %17 = nn.batch_norm(%16, %stage1_unit2_bn1_gamma, %stage1_unit2_bn1_beta, %stage1_unit2_bn1_moving_mean, %stage1_unit2_bn1_moving_var, epsilon=2e-05f) /* ty=(Tensor[(1, 64, 56, 56), float32], Tensor[(64), float32], Tensor[(64), float32]) */;
  %18 = %17.0;
  %19 = nn.relu(%18) /* ty=Tensor[(1, 64, 56, 56), float32] */;
  %20 = nn.conv2d(%19, %stage1_unit2_conv1_weight, padding=[1, 1, 1, 1], channels=64, kernel_size=[3, 3]) /* ty=Tensor[(1, 64, 56, 56), float32] */;
  %21 = nn.batch_norm(%20, %stage1_unit2_bn2_gamma, %stage1_unit2_bn2_beta, %stage1_unit2_bn2_moving_mean, %stage1_unit2_bn2_moving_var, epsilon=2e-05f) /* ty=(Tensor[(1, 64, 56, 56), float32], Tensor[(64), float32], Tensor[(64), float32]) */;
  %22 = %21.0;
  %23 = nn.relu(%22) /* ty=Tensor[(1, 64, 56, 56), float32] */;
  %24 = nn.conv2d(%23, %stage1_unit2_conv2_weight, padding=[1, 1, 1, 1], channels=64, kernel_size=[3, 3]) /* ty=Tensor[(1, 64, 56, 56), float32] */;
  %25 = add(%24, %16) /* ty=Tensor[(1, 64, 56, 56), float32] */;
  %26 = nn.batch_norm(%25, %stage2_unit1_bn1_gamma, %stage2_unit1_bn1_beta, %stage2_unit1_bn1_moving_mean, %stage2_unit1_bn1_moving_var, epsilon=2e-05f) /* ty=(Tensor[(1, 64, 56, 56), float32], Tensor[(64), float32], Tensor[(64), float32]) */;
  %27 = %26.0;
  %28 = nn.relu(%27) /* ty=Tensor[(1, 64, 56, 56), float32] */;
  %29 = nn.conv2d(%28, %stage2_unit1_conv1_weight, strides=[2, 2], padding=[1, 1, 1, 1], channels=128, kernel_size=[3, 3]) /* ty=Tensor[(1, 128, 28, 28), float32] */;
  %30 = nn.batch_norm(%29, %stage2_unit1_bn2_gamma, %stage2_unit1_bn2_beta, %stage2_unit1_bn2_moving_mean, %stage2_unit1_bn2_moving_var, epsilon=2e-05f) /* ty=(Tensor[(1, 128, 28, 28), float32], Tensor[(128), float32], Tensor[(128), float32]) */;
  %31 = %30.0;
  %32 = nn.relu(%31) /* ty=Tensor[(1, 128, 28, 28), float32] */;
  %33 = nn.conv2d(%32, %stage2_unit1_conv2_weight, padding=[1, 1, 1, 1], channels=128, kernel_size=[3, 3]) /* ty=Tensor[(1, 128, 28, 28), float32] */;
  %34 = nn.conv2d(%28, %stage2_unit1_sc_weight, strides=[2, 2], padding=[0, 0, 0, 0], channels=128, kernel_size=[1, 1]) /* ty=Tensor[(1, 128, 28, 28), float32] */;
  %35 = add(%33, %34) /* ty=Tensor[(1, 128, 28, 28), float32] */;
  %36 = nn.batch_norm(%35, %stage2_unit2_bn1_gamma, %stage2_unit2_bn1_beta, %stage2_unit2_bn1_moving_mean, %stage2_unit2_bn1_moving_var, epsilon=2e-05f) /* ty=(Tensor[(1, 128, 28, 28), float32], Tensor[(128), float32], Tensor[(128), float32]) */;
  %37 = %36.0;
  %38 = nn.relu(%37) /* ty=Tensor[(1, 128, 28, 28), float32] */;
  %39 = nn.conv2d(%38, %stage2_unit2_conv1_weight, padding=[1, 1, 1, 1], channels=128, kernel_size=[3, 3]) /* ty=Tensor[(1, 128, 28, 28), float32] */;
  %40 = nn.batch_norm(%39, %stage2_unit2_bn2_gamma, %stage2_unit2_bn2_beta, %stage2_unit2_bn2_moving_mean, %stage2_unit2_bn2_moving_var, epsilon=2e-05f) /* ty=(Tensor[(1, 128, 28, 28), float32], Tensor[(128), float32], Tensor[(128), float32]) */;
  %41 = %40.0;
  %42 = nn.relu(%41) /* ty=Tensor[(1, 128, 28, 28), float32] */;
  %43 = nn.conv2d(%42, %stage2_unit2_conv2_weight, padding=[1, 1, 1, 1], channels=128, kernel_size=[3, 3]) /* ty=Tensor[(1, 128, 28, 28), float32] */;
  %44 = add(%43, %35) /* ty=Tensor[(1, 128, 28, 28), float32] */;
  %45 = nn.batch_norm(%44, %stage3_unit1_bn1_gamma, %stage3_unit1_bn1_beta, %stage3_unit1_bn1_moving_mean, %stage3_unit1_bn1_moving_var, epsilon=2e-05f) /* ty=(Tensor[(1, 128, 28, 28), float32], Tensor[(128), float32], Tensor[(128), float32]) */;
  %46 = %45.0;
  %47 = nn.relu(%46) /* ty=Tensor[(1, 128, 28, 28), float32] */;
  %48 = nn.conv2d(%47, %stage3_unit1_conv1_weight, strides=[2, 2], padding=[1, 1, 1, 1], channels=256, kernel_size=[3, 3]) /* ty=Tensor[(1, 256, 14, 14), float32] */;
  %49 = nn.batch_norm(%48, %stage3_unit1_bn2_gamma, %stage3_unit1_bn2_beta, %stage3_unit1_bn2_moving_mean, %stage3_unit1_bn2_moving_var, epsilon=2e-05f) /* ty=(Tensor[(1, 256, 14, 14), float32], Tensor[(256), float32], Tensor[(256), float32]) */;
  %50 = %49.0;
  %51 = nn.relu(%50) /* ty=Tensor[(1, 256, 14, 14), float32] */;
  %52 = nn.conv2d(%51, %stage3_unit1_conv2_weight, padding=[1, 1, 1, 1], channels=256, kernel_size=[3, 3]) /* ty=Tensor[(1, 256, 14, 14), float32] */;
  %53 = nn.conv2d(%47, %stage3_unit1_sc_weight, strides=[2, 2], padding=[0, 0, 0, 0], channels=256, kernel_size=[1, 1]) /* ty=Tensor[(1, 256, 14, 14), float32] */;
  %54 = add(%52, %53) /* ty=Tensor[(1, 256, 14, 14), float32] */;
  %55 = nn.batch_norm(%54, %stage3_unit2_bn1_gamma, %stage3_unit2_bn1_beta, %stage3_unit2_bn1_moving_mean, %stage3_unit2_bn1_moving_var, epsilon=2e-05f) /* ty=(Tensor[(1, 256, 14, 14), float32], Tensor[(256), float32], Tensor[(256), float32]) */;
  %56 = %55.0;
  %57 = nn.relu(%56) /* ty=Tensor[(1, 256, 14, 14), float32] */;
  %58 = nn.conv2d(%57, %stage3_unit2_conv1_weight, padding=[1, 1, 1, 1], channels=256, kernel_size=[3, 3]) /* ty=Tensor[(1, 256, 14, 14), float32] */;
  %59 = nn.batch_norm(%58, %stage3_unit2_bn2_gamma, %stage3_unit2_bn2_beta, %stage3_unit2_bn2_moving_mean, %stage3_unit2_bn2_moving_var, epsilon=2e-05f) /* ty=(Tensor[(1, 256, 14, 14), float32], Tensor[(256), float32], Tensor[(256), float32]) */;
  %60 = %59.0;
  %61 = nn.relu(%60) /* ty=Tensor[(1, 256, 14, 14), float32] */;
  %62 = nn.conv2d(%61, %stage3_unit2_conv2_weight, padding=[1, 1, 1, 1], channels=256, kernel_size=[3, 3]) /* ty=Tensor[(1, 256, 14, 14), float32] */;
  %63 = add(%62, %54) /* ty=Tensor[(1, 256, 14, 14), float32] */;
  %64 = nn.batch_norm(%63, %stage4_unit1_bn1_gamma, %stage4_unit1_bn1_beta, %stage4_unit1_bn1_moving_mean, %stage4_unit1_bn1_moving_var, epsilon=2e-05f) /* ty=(Tensor[(1, 256, 14, 14), float32], Tensor[(256), float32], Tensor[(256), float32]) */;
  %65 = %64.0;
  %66 = nn.relu(%65) /* ty=Tensor[(1, 256, 14, 14), float32] */;
  %67 = nn.conv2d(%66, %stage4_unit1_conv1_weight, strides=[2, 2], padding=[1, 1, 1, 1], channels=512, kernel_size=[3, 3]) /* ty=Tensor[(1, 512, 7, 7), float32] */;
  %68 = nn.batch_norm(%67, %stage4_unit1_bn2_gamma, %stage4_unit1_bn2_beta, %stage4_unit1_bn2_moving_mean, %stage4_unit1_bn2_moving_var, epsilon=2e-05f) /* ty=(Tensor[(1, 512, 7, 7), float32], Tensor[(512), float32], Tensor[(512), float32]) */;
  %69 = %68.0;
  %70 = nn.relu(%69) /* ty=Tensor[(1, 512, 7, 7), float32] */;
  %71 = nn.conv2d(%70, %stage4_unit1_conv2_weight, padding=[1, 1, 1, 1], channels=512, kernel_size=[3, 3]) /* ty=Tensor[(1, 512, 7, 7), float32] */;
  %72 = nn.conv2d(%66, %stage4_unit1_sc_weight, strides=[2, 2], padding=[0, 0, 0, 0], channels=512, kernel_size=[1, 1]) /* ty=Tensor[(1, 512, 7, 7), float32] */;
  %73 = add(%71, %72) /* ty=Tensor[(1, 512, 7, 7), float32] */;
  %74 = nn.batch_norm(%73, %stage4_unit2_bn1_gamma, %stage4_unit2_bn1_beta, %stage4_unit2_bn1_moving_mean, %stage4_unit2_bn1_moving_var, epsilon=2e-05f) /* ty=(Tensor[(1, 512, 7, 7), float32], Tensor[(512), float32], Tensor[(512), float32]) */;
  %75 = %74.0;
  %76 = nn.relu(%75) /* ty=Tensor[(1, 512, 7, 7), float32] */;
  %77 = nn.conv2d(%76, %stage4_unit2_conv1_weight, padding=[1, 1, 1, 1], channels=512, kernel_size=[3, 3]) /* ty=Tensor[(1, 512, 7, 7), float32] */;
  %78 = nn.batch_norm(%77, %stage4_unit2_bn2_gamma, %stage4_unit2_bn2_beta, %stage4_unit2_bn2_moving_mean, %stage4_unit2_bn2_moving_var, epsilon=2e-05f) /* ty=(Tensor[(1, 512, 7, 7), float32], Tensor[(512), float32], Tensor[(512), float32]) */;
  %79 = %78.0;
  %80 = nn.relu(%79) /* ty=Tensor[(1, 512, 7, 7), float32] */;
  %81 = nn.conv2d(%80, %stage4_unit2_conv2_weight, padding=[1, 1, 1, 1], channels=512, kernel_size=[3, 3]) /* ty=Tensor[(1, 512, 7, 7), float32] */;
  %82 = add(%81, %73) /* ty=Tensor[(1, 512, 7, 7), float32] */;
  %83 = nn.batch_norm(%82, %bn1_gamma, %bn1_beta, %bn1_moving_mean, %bn1_moving_var, epsilon=2e-05f) /* ty=(Tensor[(1, 512, 7, 7), float32], Tensor[(512), float32], Tensor[(512), float32]) */;
  %84 = %83.0;
  %85 = nn.relu(%84) /* ty=Tensor[(1, 512, 7, 7), float32] */;
  %86 = nn.global_avg_pool2d(%85) /* ty=Tensor[(1, 512, 1, 1), float32] */;
  %87 = nn.batch_flatten(%86) /* ty=Tensor[(1, 512), float32] */;
  %88 = nn.dense(%87, %fc1_weight, units=1000) /* ty=Tensor[(1, 1000), float32] */;
  %89 = nn.bias_add(%88, %fc1_bias, axis=-1) /* ty=Tensor[(1, 1000), float32] */;
  nn.softmax(%89) /* ty=Tensor[(1, 1000), float32] */
}

Running pass: {} The meta data of the pass: pass name: AnnotateTargetopt_level: 2required passes: [
]

def @main(%data: Tensor[(1, 3, 224, 224), float32], %bn_data_gamma: Tensor[(3), float32], %bn_data_beta: Tensor[(3), float32], %bn_data_moving_mean: Tensor[(3), float32], %bn_data_moving_var: Tensor[(3), float32], %conv0_weight: Tensor[(64, 3, 7, 7), float32], %bn0_gamma: Tensor[(64), float32], %bn0_beta: Tensor[(64), float32], %bn0_moving_mean: Tensor[(64), float32], %bn0_moving_var: Tensor[(64), float32], %stage1_unit1_bn1_gamma: Tensor[(64), float32], %stage1_unit1_bn1_beta: Tensor[(64), float32], %stage1_unit1_bn1_moving_mean: Tensor[(64), float32], %stage1_unit1_bn1_moving_var: Tensor[(64), float32], %stage1_unit1_conv1_weight: Tensor[(64, 64, 3, 3), float32], %stage1_unit1_bn2_gamma: Tensor[(64), float32], %stage1_unit1_bn2_beta: Tensor[(64), float32], %stage1_unit1_bn2_moving_mean: Tensor[(64), float32], %stage1_unit1_bn2_moving_var: Tensor[(64), float32], %stage1_unit1_conv2_weight: Tensor[(64, 64, 3, 3), float32], %stage1_unit1_sc_weight: Tensor[(64, 64, 1, 1), float32], %stage1_unit2_bn1_gamma: Tensor[(64), float32], %stage1_unit2_bn1_beta: Tensor[(64), float32], %stage1_unit2_bn1_moving_mean: Tensor[(64), float32], %stage1_unit2_bn1_moving_var: Tensor[(64), float32], %stage1_unit2_conv1_weight: Tensor[(64, 64, 3, 3), float32], %stage1_unit2_bn2_gamma: Tensor[(64), float32], %stage1_unit2_bn2_beta: Tensor[(64), float32], %stage1_unit2_bn2_moving_mean: Tensor[(64), float32], %stage1_unit2_bn2_moving_var: Tensor[(64), float32], %stage1_unit2_conv2_weight: Tensor[(64, 64, 3, 3), float32], %stage2_unit1_bn1_gamma: Tensor[(64), float32], %stage2_unit1_bn1_beta: Tensor[(64), float32], %stage2_unit1_bn1_moving_mean: Tensor[(64), float32], %stage2_unit1_bn1_moving_var: Tensor[(64), float32], %stage2_unit1_conv1_weight: Tensor[(128, 64, 3, 3), float32], %stage2_unit1_bn2_gamma: Tensor[(128), float32], %stage2_unit1_bn2_beta: Tensor[(128), float32], %stage2_unit1_bn2_moving_mean: Tensor[(128), float32], %stage2_unit1_bn2_moving_var: Tensor[(128), float32], %stage2_unit1_conv2_weight: Tensor[(128, 128, 3, 3), float32], %stage2_unit1_sc_weight: Tensor[(128, 64, 1, 1), float32], %stage2_unit2_bn1_gamma: Tensor[(128), float32], %stage2_unit2_bn1_beta: Tensor[(128), float32], %stage2_unit2_bn1_moving_mean: Tensor[(128), float32], %stage2_unit2_bn1_moving_var: Tensor[(128), float32], %stage2_unit2_conv1_weight: Tensor[(128, 128, 3, 3), float32], %stage2_unit2_bn2_gamma: Tensor[(128), float32], %stage2_unit2_bn2_beta: Tensor[(128), float32], %stage2_unit2_bn2_moving_mean: Tensor[(128), float32], %stage2_unit2_bn2_moving_var: Tensor[(128), float32], %stage2_unit2_conv2_weight: Tensor[(128, 128, 3, 3), float32], %stage3_unit1_bn1_gamma: Tensor[(128), float32], %stage3_unit1_bn1_beta: Tensor[(128), float32], %stage3_unit1_bn1_moving_mean: Tensor[(128), float32], %stage3_unit1_bn1_moving_var: Tensor[(128), float32], %stage3_unit1_conv1_weight: Tensor[(256, 128, 3, 3), float32], %stage3_unit1_bn2_gamma: Tensor[(256), float32], %stage3_unit1_bn2_beta: Tensor[(256), float32], %stage3_unit1_bn2_moving_mean: Tensor[(256), float32], %stage3_unit1_bn2_moving_var: Tensor[(256), float32], %stage3_unit1_conv2_weight: Tensor[(256, 256, 3, 3), float32], %stage3_unit1_sc_weight: Tensor[(256, 128, 1, 1), float32], %stage3_unit2_bn1_gamma: Tensor[(256), float32], %stage3_unit2_bn1_beta: Tensor[(256), float32], %stage3_unit2_bn1_moving_mean: Tensor[(256), float32], %stage3_unit2_bn1_moving_var: Tensor[(256), float32], %stage3_unit2_conv1_weight: Tensor[(256, 256, 3, 3), float32], %stage3_unit2_bn2_gamma: Tensor[(256), float32], %stage3_unit2_bn2_beta: Tensor[(256), float32], %stage3_unit2_bn2_moving_mean: Tensor[(256), float32], %stage3_unit2_bn2_moving_var: Tensor[(256), float32], %stage3_unit2_conv2_weight: Tensor[(256, 256, 3, 3), float32], %stage4_unit1_bn1_gamma: Tensor[(256), float32], %stage4_unit1_bn1_beta: Tensor[(256), float32], %stage4_unit1_bn1_moving_mean: Tensor[(256), float32], %stage4_unit1_bn1_moving_var: Tensor[(256), float32], %stage4_unit1_conv1_weight: Tensor[(512, 256, 3, 3), float32], %stage4_unit1_bn2_gamma: Tensor[(512), float32], %stage4_unit1_bn2_beta: Tensor[(512), float32], %stage4_unit1_bn2_moving_mean: Tensor[(512), float32], %stage4_unit1_bn2_moving_var: Tensor[(512), float32], %stage4_unit1_conv2_weight: Tensor[(512, 512, 3, 3), float32], %stage4_unit1_sc_weight: Tensor[(512, 256, 1, 1), float32], %stage4_unit2_bn1_gamma: Tensor[(512), float32], %stage4_unit2_bn1_beta: Tensor[(512), float32], %stage4_unit2_bn1_moving_mean: Tensor[(512), float32], %stage4_unit2_bn1_moving_var: Tensor[(512), float32], %stage4_unit2_conv1_weight: Tensor[(512, 512, 3, 3), float32], %stage4_unit2_bn2_gamma: Tensor[(512), float32], %stage4_unit2_bn2_beta: Tensor[(512), float32], %stage4_unit2_bn2_moving_mean: Tensor[(512), float32], %stage4_unit2_bn2_moving_var: Tensor[(512), float32], %stage4_unit2_conv2_weight: Tensor[(512, 512, 3, 3), float32], %bn1_gamma: Tensor[(512), float32], %bn1_beta: Tensor[(512), float32], %bn1_moving_mean: Tensor[(512), float32], %bn1_moving_var: Tensor[(512), float32], %fc1_weight: Tensor[(1000, 512), float32], %fc1_bias: Tensor[(1000), float32]) -> Tensor[(1, 1000), float32] {
  %0 = nn.batch_norm(%data, %bn_data_gamma, %bn_data_beta, %bn_data_moving_mean, %bn_data_moving_var, epsilon=2e-05f, scale=False) /* ty=(Tensor[(1, 3, 224, 224), float32], Tensor[(3), float32], Tensor[(3), float32]) */;
  %1 = %0.0;
  %2 = nn.conv2d(%1, %conv0_weight, strides=[2, 2], padding=[3, 3, 3, 3], channels=64, kernel_size=[7, 7]) /* ty=Tensor[(1, 64, 112, 112), float32] */;
  %3 = nn.batch_norm(%2, %bn0_gamma, %bn0_beta, %bn0_moving_mean, %bn0_moving_var, epsilon=2e-05f) /* ty=(Tensor[(1, 64, 112, 112), float32], Tensor[(64), float32], Tensor[(64), float32]) */;
  %4 = %3.0;
  %5 = nn.relu(%4) /* ty=Tensor[(1, 64, 112, 112), float32] */;
  %6 = nn.max_pool2d(%5, pool_size=[3, 3], strides=[2, 2], padding=[1, 1, 1, 1]) /* ty=Tensor[(1, 64, 56, 56), float32] */;
  %7 = nn.batch_norm(%6, %stage1_unit1_bn1_gamma, %stage1_unit1_bn1_beta, %stage1_unit1_bn1_moving_mean, %stage1_unit1_bn1_moving_var, epsilon=2e-05f) /* ty=(Tensor[(1, 64, 56, 56), float32], Tensor[(64), float32], Tensor[(64), float32]) */;
  %8 = %7.0;
  %9 = nn.relu(%8) /* ty=Tensor[(1, 64, 56, 56), float32] */;
  %10 = nn.conv2d(%9, %stage1_unit1_conv1_weight, padding=[1, 1, 1, 1], channels=64, kernel_size=[3, 3]) /* ty=Tensor[(1, 64, 56, 56), float32] */;
  %11 = nn.batch_norm(%10, %stage1_unit1_bn2_gamma, %stage1_unit1_bn2_beta, %stage1_unit1_bn2_moving_mean, %stage1_unit1_bn2_moving_var, epsilon=2e-05f) /* ty=(Tensor[(1, 64, 56, 56), float32], Tensor[(64), float32], Tensor[(64), float32]) */;
  %12 = %11.0;
  %13 = nn.relu(%12) /* ty=Tensor[(1, 64, 56, 56), float32] */;
  %14 = nn.conv2d(%13, %stage1_unit1_conv2_weight, padding=[1, 1, 1, 1], channels=64, kernel_size=[3, 3]) /* ty=Tensor[(1, 64, 56, 56), float32] */;
  %15 = nn.conv2d(%9, %stage1_unit1_sc_weight, padding=[0, 0, 0, 0], channels=64, kernel_size=[1, 1]) /* ty=Tensor[(1, 64, 56, 56), float32] */;
  %16 = add(%14, %15) /* ty=Tensor[(1, 64, 56, 56), float32] */;
  %17 = nn.batch_norm(%16, %stage1_unit2_bn1_gamma, %stage1_unit2_bn1_beta, %stage1_unit2_bn1_moving_mean, %stage1_unit2_bn1_moving_var, epsilon=2e-05f) /* ty=(Tensor[(1, 64, 56, 56), float32], Tensor[(64), float32], Tensor[(64), float32]) */;
  %18 = %17.0;
  %19 = nn.relu(%18) /* ty=Tensor[(1, 64, 56, 56), float32] */;
  %20 = nn.conv2d(%19, %stage1_unit2_conv1_weight, padding=[1, 1, 1, 1], channels=64, kernel_size=[3, 3]) /* ty=Tensor[(1, 64, 56, 56), float32] */;
  %21 = nn.batch_norm(%20, %stage1_unit2_bn2_gamma, %stage1_unit2_bn2_beta, %stage1_unit2_bn2_moving_mean, %stage1_unit2_bn2_moving_var, epsilon=2e-05f) /* ty=(Tensor[(1, 64, 56, 56), float32], Tensor[(64), float32], Tensor[(64), float32]) */;
  %22 = %21.0;
  %23 = nn.relu(%22) /* ty=Tensor[(1, 64, 56, 56), float32] */;
  %24 = nn.conv2d(%23, %stage1_unit2_conv2_weight, padding=[1, 1, 1, 1], channels=64, kernel_size=[3, 3]) /* ty=Tensor[(1, 64, 56, 56), float32] */;
  %25 = add(%24, %16) /* ty=Tensor[(1, 64, 56, 56), float32] */;
  %26 = nn.batch_norm(%25, %stage2_unit1_bn1_gamma, %stage2_unit1_bn1_beta, %stage2_unit1_bn1_moving_mean, %stage2_unit1_bn1_moving_var, epsilon=2e-05f) /* ty=(Tensor[(1, 64, 56, 56), float32], Tensor[(64), float32], Tensor[(64), float32]) */;
  %27 = %26.0;
  %28 = nn.relu(%27) /* ty=Tensor[(1, 64, 56, 56), float32] */;
  %29 = nn.conv2d(%28, %stage2_unit1_conv1_weight, strides=[2, 2], padding=[1, 1, 1, 1], channels=128, kernel_size=[3, 3]) /* ty=Tensor[(1, 128, 28, 28), float32] */;
  %30 = nn.batch_norm(%29, %stage2_unit1_bn2_gamma, %stage2_unit1_bn2_beta, %stage2_unit1_bn2_moving_mean, %stage2_unit1_bn2_moving_var, epsilon=2e-05f) /* ty=(Tensor[(1, 128, 28, 28), float32], Tensor[(128), float32], Tensor[(128), float32]) */;
  %31 = %30.0;
  %32 = nn.relu(%31) /* ty=Tensor[(1, 128, 28, 28), float32] */;
  %33 = nn.conv2d(%32, %stage2_unit1_conv2_weight, padding=[1, 1, 1, 1], channels=128, kernel_size=[3, 3]) /* ty=Tensor[(1, 128, 28, 28), float32] */;
  %34 = nn.conv2d(%28, %stage2_unit1_sc_weight, strides=[2, 2], padding=[0, 0, 0, 0], channels=128, kernel_size=[1, 1]) /* ty=Tensor[(1, 128, 28, 28), float32] */;
  %35 = add(%33, %34) /* ty=Tensor[(1, 128, 28, 28), float32] */;
  %36 = nn.batch_norm(%35, %stage2_unit2_bn1_gamma, %stage2_unit2_bn1_beta, %stage2_unit2_bn1_moving_mean, %stage2_unit2_bn1_moving_var, epsilon=2e-05f) /* ty=(Tensor[(1, 128, 28, 28), float32], Tensor[(128), float32], Tensor[(128), float32]) */;
  %37 = %36.0;
  %38 = nn.relu(%37) /* ty=Tensor[(1, 128, 28, 28), float32] */;
  %39 = nn.conv2d(%38, %stage2_unit2_conv1_weight, padding=[1, 1, 1, 1], channels=128, kernel_size=[3, 3]) /* ty=Tensor[(1, 128, 28, 28), float32] */;
  %40 = nn.batch_norm(%39, %stage2_unit2_bn2_gamma, %stage2_unit2_bn2_beta, %stage2_unit2_bn2_moving_mean, %stage2_unit2_bn2_moving_var, epsilon=2e-05f) /* ty=(Tensor[(1, 128, 28, 28), float32], Tensor[(128), float32], Tensor[(128), float32]) */;
  %41 = %40.0;
  %42 = nn.relu(%41) /* ty=Tensor[(1, 128, 28, 28), float32] */;
  %43 = nn.conv2d(%42, %stage2_unit2_conv2_weight, padding=[1, 1, 1, 1], channels=128, kernel_size=[3, 3]) /* ty=Tensor[(1, 128, 28, 28), float32] */;
  %44 = add(%43, %35) /* ty=Tensor[(1, 128, 28, 28), float32] */;
  %45 = nn.batch_norm(%44, %stage3_unit1_bn1_gamma, %stage3_unit1_bn1_beta, %stage3_unit1_bn1_moving_mean, %stage3_unit1_bn1_moving_var, epsilon=2e-05f) /* ty=(Tensor[(1, 128, 28, 28), float32], Tensor[(128), float32], Tensor[(128), float32]) */;
  %46 = %45.0;
  %47 = nn.relu(%46) /* ty=Tensor[(1, 128, 28, 28), float32] */;
  %48 = nn.conv2d(%47, %stage3_unit1_conv1_weight, strides=[2, 2], padding=[1, 1, 1, 1], channels=256, kernel_size=[3, 3]) /* ty=Tensor[(1, 256, 14, 14), float32] */;
  %49 = nn.batch_norm(%48, %stage3_unit1_bn2_gamma, %stage3_unit1_bn2_beta, %stage3_unit1_bn2_moving_mean, %stage3_unit1_bn2_moving_var, epsilon=2e-05f) /* ty=(Tensor[(1, 256, 14, 14), float32], Tensor[(256), float32], Tensor[(256), float32]) */;
  %50 = %49.0;
  %51 = nn.relu(%50) /* ty=Tensor[(1, 256, 14, 14), float32] */;
  %52 = nn.conv2d(%51, %stage3_unit1_conv2_weight, padding=[1, 1, 1, 1], channels=256, kernel_size=[3, 3]) /* ty=Tensor[(1, 256, 14, 14), float32] */;
  %53 = nn.conv2d(%47, %stage3_unit1_sc_weight, strides=[2, 2], padding=[0, 0, 0, 0], channels=256, kernel_size=[1, 1]) /* ty=Tensor[(1, 256, 14, 14), float32] */;
  %54 = add(%52, %53) /* ty=Tensor[(1, 256, 14, 14), float32] */;
  %55 = nn.batch_norm(%54, %stage3_unit2_bn1_gamma, %stage3_unit2_bn1_beta, %stage3_unit2_bn1_moving_mean, %stage3_unit2_bn1_moving_var, epsilon=2e-05f) /* ty=(Tensor[(1, 256, 14, 14), float32], Tensor[(256), float32], Tensor[(256), float32]) */;
  %56 = %55.0;
  %57 = nn.relu(%56) /* ty=Tensor[(1, 256, 14, 14), float32] */;
  %58 = nn.conv2d(%57, %stage3_unit2_conv1_weight, padding=[1, 1, 1, 1], channels=256, kernel_size=[3, 3]) /* ty=Tensor[(1, 256, 14, 14), float32] */;
  %59 = nn.batch_norm(%58, %stage3_unit2_bn2_gamma, %stage3_unit2_bn2_beta, %stage3_unit2_bn2_moving_mean, %stage3_unit2_bn2_moving_var, epsilon=2e-05f) /* ty=(Tensor[(1, 256, 14, 14), float32], Tensor[(256), float32], Tensor[(256), float32]) */;
  %60 = %59.0;
  %61 = nn.relu(%60) /* ty=Tensor[(1, 256, 14, 14), float32] */;
  %62 = nn.conv2d(%61, %stage3_unit2_conv2_weight, padding=[1, 1, 1, 1], channels=256, kernel_size=[3, 3]) /* ty=Tensor[(1, 256, 14, 14), float32] */;
  %63 = add(%62, %54) /* ty=Tensor[(1, 256, 14, 14), float32] */;
  %64 = nn.batch_norm(%63, %stage4_unit1_bn1_gamma, %stage4_unit1_bn1_beta, %stage4_unit1_bn1_moving_mean, %stage4_unit1_bn1_moving_var, epsilon=2e-05f) /* ty=(Tensor[(1, 256, 14, 14), float32], Tensor[(256), float32], Tensor[(256), float32]) */;
  %65 = %64.0;
  %66 = nn.relu(%65) /* ty=Tensor[(1, 256, 14, 14), float32] */;
  %67 = nn.conv2d(%66, %stage4_unit1_conv1_weight, strides=[2, 2], padding=[1, 1, 1, 1], channels=512, kernel_size=[3, 3]) /* ty=Tensor[(1, 512, 7, 7), float32] */;
  %68 = nn.batch_norm(%67, %stage4_unit1_bn2_gamma, %stage4_unit1_bn2_beta, %stage4_unit1_bn2_moving_mean, %stage4_unit1_bn2_moving_var, epsilon=2e-05f) /* ty=(Tensor[(1, 512, 7, 7), float32], Tensor[(512), float32], Tensor[(512), float32]) */;
  %69 = %68.0;
  %70 = nn.relu(%69) /* ty=Tensor[(1, 512, 7, 7), float32] */;
  %71 = nn.conv2d(%70, %stage4_unit1_conv2_weight, padding=[1, 1, 1, 1], channels=512, kernel_size=[3, 3]) /* ty=Tensor[(1, 512, 7, 7), float32] */;
  %72 = nn.conv2d(%66, %stage4_unit1_sc_weight, strides=[2, 2], padding=[0, 0, 0, 0], channels=512, kernel_size=[1, 1]) /* ty=Tensor[(1, 512, 7, 7), float32] */;
  %73 = add(%71, %72) /* ty=Tensor[(1, 512, 7, 7), float32] */;
  %74 = nn.batch_norm(%73, %stage4_unit2_bn1_gamma, %stage4_unit2_bn1_beta, %stage4_unit2_bn1_moving_mean, %stage4_unit2_bn1_moving_var, epsilon=2e-05f) /* ty=(Tensor[(1, 512, 7, 7), float32], Tensor[(512), float32], Tensor[(512), float32]) */;
  %75 = %74.0;
  %76 = nn.relu(%75) /* ty=Tensor[(1, 512, 7, 7), float32] */;
  %77 = nn.conv2d(%76, %stage4_unit2_conv1_weight, padding=[1, 1, 1, 1], channels=512, kernel_size=[3, 3]) /* ty=Tensor[(1, 512, 7, 7), float32] */;
  %78 = nn.batch_norm(%77, %stage4_unit2_bn2_gamma, %stage4_unit2_bn2_beta, %stage4_unit2_bn2_moving_mean, %stage4_unit2_bn2_moving_var, epsilon=2e-05f) /* ty=(Tensor[(1, 512, 7, 7), float32], Tensor[(512), float32], Tensor[(512), float32]) */;
  %79 = %78.0;
  %80 = nn.relu(%79) /* ty=Tensor[(1, 512, 7, 7), float32] */;
  %81 = nn.conv2d(%80, %stage4_unit2_conv2_weight, padding=[1, 1, 1, 1], channels=512, kernel_size=[3, 3]) /* ty=Tensor[(1, 512, 7, 7), float32] */;
  %82 = add(%81, %73) /* ty=Tensor[(1, 512, 7, 7), float32] */;
  %83 = nn.batch_norm(%82, %bn1_gamma, %bn1_beta, %bn1_moving_mean, %bn1_moving_var, epsilon=2e-05f) /* ty=(Tensor[(1, 512, 7, 7), float32], Tensor[(512), float32], Tensor[(512), float32]) */;
  %84 = %83.0;
  %85 = nn.relu(%84) /* ty=Tensor[(1, 512, 7, 7), float32] */;
  %86 = nn.global_avg_pool2d(%85) /* ty=Tensor[(1, 512, 1, 1), float32] */;
  %87 = nn.batch_flatten(%86) /* ty=Tensor[(1, 512), float32] */;
  %88 = nn.dense(%87, %fc1_weight, units=1000) /* ty=Tensor[(1, 1000), float32] */;
  %89 = nn.bias_add(%88, %fc1_bias, axis=-1) /* ty=Tensor[(1, 1000), float32] */;
  nn.softmax(%89) /* ty=Tensor[(1, 1000), float32] */
}

Running pass: {} The meta data of the pass: pass name: InferTypeopt_level: 0required passes: [
]

def @main(%data: Tensor[(1, 3, 224, 224), float32], %bn_data_gamma: Tensor[(3), float32], %bn_data_beta: Tensor[(3), float32], %bn_data_moving_mean: Tensor[(3), float32], %bn_data_moving_var: Tensor[(3), float32], %conv0_weight: Tensor[(64, 3, 7, 7), float32], %bn0_gamma: Tensor[(64), float32], %bn0_beta: Tensor[(64), float32], %bn0_moving_mean: Tensor[(64), float32], %bn0_moving_var: Tensor[(64), float32], %stage1_unit1_bn1_gamma: Tensor[(64), float32], %stage1_unit1_bn1_beta: Tensor[(64), float32], %stage1_unit1_bn1_moving_mean: Tensor[(64), float32], %stage1_unit1_bn1_moving_var: Tensor[(64), float32], %stage1_unit1_conv1_weight: Tensor[(64, 64, 3, 3), float32], %stage1_unit1_bn2_gamma: Tensor[(64), float32], %stage1_unit1_bn2_beta: Tensor[(64), float32], %stage1_unit1_bn2_moving_mean: Tensor[(64), float32], %stage1_unit1_bn2_moving_var: Tensor[(64), float32], %stage1_unit1_conv2_weight: Tensor[(64, 64, 3, 3), float32], %stage1_unit1_sc_weight: Tensor[(64, 64, 1, 1), float32], %stage1_unit2_bn1_gamma: Tensor[(64), float32], %stage1_unit2_bn1_beta: Tensor[(64), float32], %stage1_unit2_bn1_moving_mean: Tensor[(64), float32], %stage1_unit2_bn1_moving_var: Tensor[(64), float32], %stage1_unit2_conv1_weight: Tensor[(64, 64, 3, 3), float32], %stage1_unit2_bn2_gamma: Tensor[(64), float32], %stage1_unit2_bn2_beta: Tensor[(64), float32], %stage1_unit2_bn2_moving_mean: Tensor[(64), float32], %stage1_unit2_bn2_moving_var: Tensor[(64), float32], %stage1_unit2_conv2_weight: Tensor[(64, 64, 3, 3), float32], %stage2_unit1_bn1_gamma: Tensor[(64), float32], %stage2_unit1_bn1_beta: Tensor[(64), float32], %stage2_unit1_bn1_moving_mean: Tensor[(64), float32], %stage2_unit1_bn1_moving_var: Tensor[(64), float32], %stage2_unit1_conv1_weight: Tensor[(128, 64, 3, 3), float32], %stage2_unit1_bn2_gamma: Tensor[(128), float32], %stage2_unit1_bn2_beta: Tensor[(128), float32], %stage2_unit1_bn2_moving_mean: Tensor[(128), float32], %stage2_unit1_bn2_moving_var: Tensor[(128), float32], %stage2_unit1_conv2_weight: Tensor[(128, 128, 3, 3), float32], %stage2_unit1_sc_weight: Tensor[(128, 64, 1, 1), float32], %stage2_unit2_bn1_gamma: Tensor[(128), float32], %stage2_unit2_bn1_beta: Tensor[(128), float32], %stage2_unit2_bn1_moving_mean: Tensor[(128), float32], %stage2_unit2_bn1_moving_var: Tensor[(128), float32], %stage2_unit2_conv1_weight: Tensor[(128, 128, 3, 3), float32], %stage2_unit2_bn2_gamma: Tensor[(128), float32], %stage2_unit2_bn2_beta: Tensor[(128), float32], %stage2_unit2_bn2_moving_mean: Tensor[(128), float32], %stage2_unit2_bn2_moving_var: Tensor[(128), float32], %stage2_unit2_conv2_weight: Tensor[(128, 128, 3, 3), float32], %stage3_unit1_bn1_gamma: Tensor[(128), float32], %stage3_unit1_bn1_beta: Tensor[(128), float32], %stage3_unit1_bn1_moving_mean: Tensor[(128), float32], %stage3_unit1_bn1_moving_var: Tensor[(128), float32], %stage3_unit1_conv1_weight: Tensor[(256, 128, 3, 3), float32], %stage3_unit1_bn2_gamma: Tensor[(256), float32], %stage3_unit1_bn2_beta: Tensor[(256), float32], %stage3_unit1_bn2_moving_mean: Tensor[(256), float32], %stage3_unit1_bn2_moving_var: Tensor[(256), float32], %stage3_unit1_conv2_weight: Tensor[(256, 256, 3, 3), float32], %stage3_unit1_sc_weight: Tensor[(256, 128, 1, 1), float32], %stage3_unit2_bn1_gamma: Tensor[(256), float32], %stage3_unit2_bn1_beta: Tensor[(256), float32], %stage3_unit2_bn1_moving_mean: Tensor[(256), float32], %stage3_unit2_bn1_moving_var: Tensor[(256), float32], %stage3_unit2_conv1_weight: Tensor[(256, 256, 3, 3), float32], %stage3_unit2_bn2_gamma: Tensor[(256), float32], %stage3_unit2_bn2_beta: Tensor[(256), float32], %stage3_unit2_bn2_moving_mean: Tensor[(256), float32], %stage3_unit2_bn2_moving_var: Tensor[(256), float32], %stage3_unit2_conv2_weight: Tensor[(256, 256, 3, 3), float32], %stage4_unit1_bn1_gamma: Tensor[(256), float32], %stage4_unit1_bn1_beta: Tensor[(256), float32], %stage4_unit1_bn1_moving_mean: Tensor[(256), float32], %stage4_unit1_bn1_moving_var: Tensor[(256), float32], %stage4_unit1_conv1_weight: Tensor[(512, 256, 3, 3), float32], %stage4_unit1_bn2_gamma: Tensor[(512), float32], %stage4_unit1_bn2_beta: Tensor[(512), float32], %stage4_unit1_bn2_moving_mean: Tensor[(512), float32], %stage4_unit1_bn2_moving_var: Tensor[(512), float32], %stage4_unit1_conv2_weight: Tensor[(512, 512, 3, 3), float32], %stage4_unit1_sc_weight: Tensor[(512, 256, 1, 1), float32], %stage4_unit2_bn1_gamma: Tensor[(512), float32], %stage4_unit2_bn1_beta: Tensor[(512), float32], %stage4_unit2_bn1_moving_mean: Tensor[(512), float32], %stage4_unit2_bn1_moving_var: Tensor[(512), float32], %stage4_unit2_conv1_weight: Tensor[(512, 512, 3, 3), float32], %stage4_unit2_bn2_gamma: Tensor[(512), float32], %stage4_unit2_bn2_beta: Tensor[(512), float32], %stage4_unit2_bn2_moving_mean: Tensor[(512), float32], %stage4_unit2_bn2_moving_var: Tensor[(512), float32], %stage4_unit2_conv2_weight: Tensor[(512, 512, 3, 3), float32], %bn1_gamma: Tensor[(512), float32], %bn1_beta: Tensor[(512), float32], %bn1_moving_mean: Tensor[(512), float32], %bn1_moving_var: Tensor[(512), float32], %fc1_weight: Tensor[(1000, 512), float32], %fc1_bias: Tensor[(1000), float32]) -> Tensor[(1, 1000), float32] {
  %0 = nn.batch_norm(%data, %bn_data_gamma, %bn_data_beta, %bn_data_moving_mean, %bn_data_moving_var, epsilon=2e-05f, scale=False) /* ty=(Tensor[(1, 3, 224, 224), float32], Tensor[(3), float32], Tensor[(3), float32]) */;
  %1 = %0.0;
  %2 = nn.conv2d(%1, %conv0_weight, strides=[2, 2], padding=[3, 3, 3, 3], channels=64, kernel_size=[7, 7]) /* ty=Tensor[(1, 64, 112, 112), float32] */;
  %3 = nn.batch_norm(%2, %bn0_gamma, %bn0_beta, %bn0_moving_mean, %bn0_moving_var, epsilon=2e-05f) /* ty=(Tensor[(1, 64, 112, 112), float32], Tensor[(64), float32], Tensor[(64), float32]) */;
  %4 = %3.0;
  %5 = nn.relu(%4) /* ty=Tensor[(1, 64, 112, 112), float32] */;
  %6 = nn.max_pool2d(%5, pool_size=[3, 3], strides=[2, 2], padding=[1, 1, 1, 1]) /* ty=Tensor[(1, 64, 56, 56), float32] */;
  %7 = nn.batch_norm(%6, %stage1_unit1_bn1_gamma, %stage1_unit1_bn1_beta, %stage1_unit1_bn1_moving_mean, %stage1_unit1_bn1_moving_var, epsilon=2e-05f) /* ty=(Tensor[(1, 64, 56, 56), float32], Tensor[(64), float32], Tensor[(64), float32]) */;
  %8 = %7.0;
  %9 = nn.relu(%8) /* ty=Tensor[(1, 64, 56, 56), float32] */;
  %10 = nn.conv2d(%9, %stage1_unit1_conv1_weight, padding=[1, 1, 1, 1], channels=64, kernel_size=[3, 3]) /* ty=Tensor[(1, 64, 56, 56), float32] */;
  %11 = nn.batch_norm(%10, %stage1_unit1_bn2_gamma, %stage1_unit1_bn2_beta, %stage1_unit1_bn2_moving_mean, %stage1_unit1_bn2_moving_var, epsilon=2e-05f) /* ty=(Tensor[(1, 64, 56, 56), float32], Tensor[(64), float32], Tensor[(64), float32]) */;
  %12 = %11.0;
  %13 = nn.relu(%12) /* ty=Tensor[(1, 64, 56, 56), float32] */;
  %14 = nn.conv2d(%13, %stage1_unit1_conv2_weight, padding=[1, 1, 1, 1], channels=64, kernel_size=[3, 3]) /* ty=Tensor[(1, 64, 56, 56), float32] */;
  %15 = nn.conv2d(%9, %stage1_unit1_sc_weight, padding=[0, 0, 0, 0], channels=64, kernel_size=[1, 1]) /* ty=Tensor[(1, 64, 56, 56), float32] */;
  %16 = add(%14, %15) /* ty=Tensor[(1, 64, 56, 56), float32] */;
  %17 = nn.batch_norm(%16, %stage1_unit2_bn1_gamma, %stage1_unit2_bn1_beta, %stage1_unit2_bn1_moving_mean, %stage1_unit2_bn1_moving_var, epsilon=2e-05f) /* ty=(Tensor[(1, 64, 56, 56), float32], Tensor[(64), float32], Tensor[(64), float32]) */;
  %18 = %17.0;
  %19 = nn.relu(%18) /* ty=Tensor[(1, 64, 56, 56), float32] */;
  %20 = nn.conv2d(%19, %stage1_unit2_conv1_weight, padding=[1, 1, 1, 1], channels=64, kernel_size=[3, 3]) /* ty=Tensor[(1, 64, 56, 56), float32] */;
  %21 = nn.batch_norm(%20, %stage1_unit2_bn2_gamma, %stage1_unit2_bn2_beta, %stage1_unit2_bn2_moving_mean, %stage1_unit2_bn2_moving_var, epsilon=2e-05f) /* ty=(Tensor[(1, 64, 56, 56), float32], Tensor[(64), float32], Tensor[(64), float32]) */;
  %22 = %21.0;
  %23 = nn.relu(%22) /* ty=Tensor[(1, 64, 56, 56), float32] */;
  %24 = nn.conv2d(%23, %stage1_unit2_conv2_weight, padding=[1, 1, 1, 1], channels=64, kernel_size=[3, 3]) /* ty=Tensor[(1, 64, 56, 56), float32] */;
  %25 = add(%24, %16) /* ty=Tensor[(1, 64, 56, 56), float32] */;
  %26 = nn.batch_norm(%25, %stage2_unit1_bn1_gamma, %stage2_unit1_bn1_beta, %stage2_unit1_bn1_moving_mean, %stage2_unit1_bn1_moving_var, epsilon=2e-05f) /* ty=(Tensor[(1, 64, 56, 56), float32], Tensor[(64), float32], Tensor[(64), float32]) */;
  %27 = %26.0;
  %28 = nn.relu(%27) /* ty=Tensor[(1, 64, 56, 56), float32] */;
  %29 = nn.conv2d(%28, %stage2_unit1_conv1_weight, strides=[2, 2], padding=[1, 1, 1, 1], channels=128, kernel_size=[3, 3]) /* ty=Tensor[(1, 128, 28, 28), float32] */;
  %30 = nn.batch_norm(%29, %stage2_unit1_bn2_gamma, %stage2_unit1_bn2_beta, %stage2_unit1_bn2_moving_mean, %stage2_unit1_bn2_moving_var, epsilon=2e-05f) /* ty=(Tensor[(1, 128, 28, 28), float32], Tensor[(128), float32], Tensor[(128), float32]) */;
  %31 = %30.0;
  %32 = nn.relu(%31) /* ty=Tensor[(1, 128, 28, 28), float32] */;
  %33 = nn.conv2d(%32, %stage2_unit1_conv2_weight, padding=[1, 1, 1, 1], channels=128, kernel_size=[3, 3]) /* ty=Tensor[(1, 128, 28, 28), float32] */;
  %34 = nn.conv2d(%28, %stage2_unit1_sc_weight, strides=[2, 2], padding=[0, 0, 0, 0], channels=128, kernel_size=[1, 1]) /* ty=Tensor[(1, 128, 28, 28), float32] */;
  %35 = add(%33, %34) /* ty=Tensor[(1, 128, 28, 28), float32] */;
  %36 = nn.batch_norm(%35, %stage2_unit2_bn1_gamma, %stage2_unit2_bn1_beta, %stage2_unit2_bn1_moving_mean, %stage2_unit2_bn1_moving_var, epsilon=2e-05f) /* ty=(Tensor[(1, 128, 28, 28), float32], Tensor[(128), float32], Tensor[(128), float32]) */;
  %37 = %36.0;
  %38 = nn.relu(%37) /* ty=Tensor[(1, 128, 28, 28), float32] */;
  %39 = nn.conv2d(%38, %stage2_unit2_conv1_weight, padding=[1, 1, 1, 1], channels=128, kernel_size=[3, 3]) /* ty=Tensor[(1, 128, 28, 28), float32] */;
  %40 = nn.batch_norm(%39, %stage2_unit2_bn2_gamma, %stage2_unit2_bn2_beta, %stage2_unit2_bn2_moving_mean, %stage2_unit2_bn2_moving_var, epsilon=2e-05f) /* ty=(Tensor[(1, 128, 28, 28), float32], Tensor[(128), float32], Tensor[(128), float32]) */;
  %41 = %40.0;
  %42 = nn.relu(%41) /* ty=Tensor[(1, 128, 28, 28), float32] */;
  %43 = nn.conv2d(%42, %stage2_unit2_conv2_weight, padding=[1, 1, 1, 1], channels=128, kernel_size=[3, 3]) /* ty=Tensor[(1, 128, 28, 28), float32] */;
  %44 = add(%43, %35) /* ty=Tensor[(1, 128, 28, 28), float32] */;
  %45 = nn.batch_norm(%44, %stage3_unit1_bn1_gamma, %stage3_unit1_bn1_beta, %stage3_unit1_bn1_moving_mean, %stage3_unit1_bn1_moving_var, epsilon=2e-05f) /* ty=(Tensor[(1, 128, 28, 28), float32], Tensor[(128), float32], Tensor[(128), float32]) */;
  %46 = %45.0;
  %47 = nn.relu(%46) /* ty=Tensor[(1, 128, 28, 28), float32] */;
  %48 = nn.conv2d(%47, %stage3_unit1_conv1_weight, strides=[2, 2], padding=[1, 1, 1, 1], channels=256, kernel_size=[3, 3]) /* ty=Tensor[(1, 256, 14, 14), float32] */;
  %49 = nn.batch_norm(%48, %stage3_unit1_bn2_gamma, %stage3_unit1_bn2_beta, %stage3_unit1_bn2_moving_mean, %stage3_unit1_bn2_moving_var, epsilon=2e-05f) /* ty=(Tensor[(1, 256, 14, 14), float32], Tensor[(256), float32], Tensor[(256), float32]) */;
  %50 = %49.0;
  %51 = nn.relu(%50) /* ty=Tensor[(1, 256, 14, 14), float32] */;
  %52 = nn.conv2d(%51, %stage3_unit1_conv2_weight, padding=[1, 1, 1, 1], channels=256, kernel_size=[3, 3]) /* ty=Tensor[(1, 256, 14, 14), float32] */;
  %53 = nn.conv2d(%47, %stage3_unit1_sc_weight, strides=[2, 2], padding=[0, 0, 0, 0], channels=256, kernel_size=[1, 1]) /* ty=Tensor[(1, 256, 14, 14), float32] */;
  %54 = add(%52, %53) /* ty=Tensor[(1, 256, 14, 14), float32] */;
  %55 = nn.batch_norm(%54, %stage3_unit2_bn1_gamma, %stage3_unit2_bn1_beta, %stage3_unit2_bn1_moving_mean, %stage3_unit2_bn1_moving_var, epsilon=2e-05f) /* ty=(Tensor[(1, 256, 14, 14), float32], Tensor[(256), float32], Tensor[(256), float32]) */;
  %56 = %55.0;
  %57 = nn.relu(%56) /* ty=Tensor[(1, 256, 14, 14), float32] */;
  %58 = nn.conv2d(%57, %stage3_unit2_conv1_weight, padding=[1, 1, 1, 1], channels=256, kernel_size=[3, 3]) /* ty=Tensor[(1, 256, 14, 14), float32] */;
  %59 = nn.batch_norm(%58, %stage3_unit2_bn2_gamma, %stage3_unit2_bn2_beta, %stage3_unit2_bn2_moving_mean, %stage3_unit2_bn2_moving_var, epsilon=2e-05f) /* ty=(Tensor[(1, 256, 14, 14), float32], Tensor[(256), float32], Tensor[(256), float32]) */;
  %60 = %59.0;
  %61 = nn.relu(%60) /* ty=Tensor[(1, 256, 14, 14), float32] */;
  %62 = nn.conv2d(%61, %stage3_unit2_conv2_weight, padding=[1, 1, 1, 1], channels=256, kernel_size=[3, 3]) /* ty=Tensor[(1, 256, 14, 14), float32] */;
  %63 = add(%62, %54) /* ty=Tensor[(1, 256, 14, 14), float32] */;
  %64 = nn.batch_norm(%63, %stage4_unit1_bn1_gamma, %stage4_unit1_bn1_beta, %stage4_unit1_bn1_moving_mean, %stage4_unit1_bn1_moving_var, epsilon=2e-05f) /* ty=(Tensor[(1, 256, 14, 14), float32], Tensor[(256), float32], Tensor[(256), float32]) */;
  %65 = %64.0;
  %66 = nn.relu(%65) /* ty=Tensor[(1, 256, 14, 14), float32] */;
  %67 = nn.conv2d(%66, %stage4_unit1_conv1_weight, strides=[2, 2], padding=[1, 1, 1, 1], channels=512, kernel_size=[3, 3]) /* ty=Tensor[(1, 512, 7, 7), float32] */;
  %68 = nn.batch_norm(%67, %stage4_unit1_bn2_gamma, %stage4_unit1_bn2_beta, %stage4_unit1_bn2_moving_mean, %stage4_unit1_bn2_moving_var, epsilon=2e-05f) /* ty=(Tensor[(1, 512, 7, 7), float32], Tensor[(512), float32], Tensor[(512), float32]) */;
  %69 = %68.0;
  %70 = nn.relu(%69) /* ty=Tensor[(1, 512, 7, 7), float32] */;
  %71 = nn.conv2d(%70, %stage4_unit1_conv2_weight, padding=[1, 1, 1, 1], channels=512, kernel_size=[3, 3]) /* ty=Tensor[(1, 512, 7, 7), float32] */;
  %72 = nn.conv2d(%66, %stage4_unit1_sc_weight, strides=[2, 2], padding=[0, 0, 0, 0], channels=512, kernel_size=[1, 1]) /* ty=Tensor[(1, 512, 7, 7), float32] */;
  %73 = add(%71, %72) /* ty=Tensor[(1, 512, 7, 7), float32] */;
  %74 = nn.batch_norm(%73, %stage4_unit2_bn1_gamma, %stage4_unit2_bn1_beta, %stage4_unit2_bn1_moving_mean, %stage4_unit2_bn1_moving_var, epsilon=2e-05f) /* ty=(Tensor[(1, 512, 7, 7), float32], Tensor[(512), float32], Tensor[(512), float32]) */;
  %75 = %74.0;
  %76 = nn.relu(%75) /* ty=Tensor[(1, 512, 7, 7), float32] */;
  %77 = nn.conv2d(%76, %stage4_unit2_conv1_weight, padding=[1, 1, 1, 1], channels=512, kernel_size=[3, 3]) /* ty=Tensor[(1, 512, 7, 7), float32] */;
  %78 = nn.batch_norm(%77, %stage4_unit2_bn2_gamma, %stage4_unit2_bn2_beta, %stage4_unit2_bn2_moving_mean, %stage4_unit2_bn2_moving_var, epsilon=2e-05f) /* ty=(Tensor[(1, 512, 7, 7), float32], Tensor[(512), float32], Tensor[(512), float32]) */;
  %79 = %78.0;
  %80 = nn.relu(%79) /* ty=Tensor[(1, 512, 7, 7), float32] */;
  %81 = nn.conv2d(%80, %stage4_unit2_conv2_weight, padding=[1, 1, 1, 1], channels=512, kernel_size=[3, 3]) /* ty=Tensor[(1, 512, 7, 7), float32] */;
  %82 = add(%81, %73) /* ty=Tensor[(1, 512, 7, 7), float32] */;
  %83 = nn.batch_norm(%82, %bn1_gamma, %bn1_beta, %bn1_moving_mean, %bn1_moving_var, epsilon=2e-05f) /* ty=(Tensor[(1, 512, 7, 7), float32], Tensor[(512), float32], Tensor[(512), float32]) */;
  %84 = %83.0;
  %85 = nn.relu(%84) /* ty=Tensor[(1, 512, 7, 7), float32] */;
  %86 = nn.global_avg_pool2d(%85) /* ty=Tensor[(1, 512, 1, 1), float32] */;
  %87 = nn.batch_flatten(%86) /* ty=Tensor[(1, 512), float32] */;
  %88 = nn.dense(%87, %fc1_weight, units=1000) /* ty=Tensor[(1, 1000), float32] */;
  %89 = nn.bias_add(%88, %fc1_bias, axis=-1) /* ty=Tensor[(1, 1000), float32] */;
  nn.softmax(%89) /* ty=Tensor[(1, 1000), float32] */
}

Running pass: {} The meta data of the pass: pass name: AnnotateTargetFuncopt_level: 0required passes: [
InferType, ]

def @main(%data: Tensor[(1, 3, 224, 224), float32], %bn_data_gamma: Tensor[(3), float32], %bn_data_beta: Tensor[(3), float32], %bn_data_moving_mean: Tensor[(3), float32], %bn_data_moving_var: Tensor[(3), float32], %conv0_weight: Tensor[(64, 3, 7, 7), float32], %bn0_gamma: Tensor[(64), float32], %bn0_beta: Tensor[(64), float32], %bn0_moving_mean: Tensor[(64), float32], %bn0_moving_var: Tensor[(64), float32], %stage1_unit1_bn1_gamma: Tensor[(64), float32], %stage1_unit1_bn1_beta: Tensor[(64), float32], %stage1_unit1_bn1_moving_mean: Tensor[(64), float32], %stage1_unit1_bn1_moving_var: Tensor[(64), float32], %stage1_unit1_conv1_weight: Tensor[(64, 64, 3, 3), float32], %stage1_unit1_bn2_gamma: Tensor[(64), float32], %stage1_unit1_bn2_beta: Tensor[(64), float32], %stage1_unit1_bn2_moving_mean: Tensor[(64), float32], %stage1_unit1_bn2_moving_var: Tensor[(64), float32], %stage1_unit1_conv2_weight: Tensor[(64, 64, 3, 3), float32], %stage1_unit1_sc_weight: Tensor[(64, 64, 1, 1), float32], %stage1_unit2_bn1_gamma: Tensor[(64), float32], %stage1_unit2_bn1_beta: Tensor[(64), float32], %stage1_unit2_bn1_moving_mean: Tensor[(64), float32], %stage1_unit2_bn1_moving_var: Tensor[(64), float32], %stage1_unit2_conv1_weight: Tensor[(64, 64, 3, 3), float32], %stage1_unit2_bn2_gamma: Tensor[(64), float32], %stage1_unit2_bn2_beta: Tensor[(64), float32], %stage1_unit2_bn2_moving_mean: Tensor[(64), float32], %stage1_unit2_bn2_moving_var: Tensor[(64), float32], %stage1_unit2_conv2_weight: Tensor[(64, 64, 3, 3), float32], %stage2_unit1_bn1_gamma: Tensor[(64), float32], %stage2_unit1_bn1_beta: Tensor[(64), float32], %stage2_unit1_bn1_moving_mean: Tensor[(64), float32], %stage2_unit1_bn1_moving_var: Tensor[(64), float32], %stage2_unit1_conv1_weight: Tensor[(128, 64, 3, 3), float32], %stage2_unit1_bn2_gamma: Tensor[(128), float32], %stage2_unit1_bn2_beta: Tensor[(128), float32], %stage2_unit1_bn2_moving_mean: Tensor[(128), float32], %stage2_unit1_bn2_moving_var: Tensor[(128), float32], %stage2_unit1_conv2_weight: Tensor[(128, 128, 3, 3), float32], %stage2_unit1_sc_weight: Tensor[(128, 64, 1, 1), float32], %stage2_unit2_bn1_gamma: Tensor[(128), float32], %stage2_unit2_bn1_beta: Tensor[(128), float32], %stage2_unit2_bn1_moving_mean: Tensor[(128), float32], %stage2_unit2_bn1_moving_var: Tensor[(128), float32], %stage2_unit2_conv1_weight: Tensor[(128, 128, 3, 3), float32], %stage2_unit2_bn2_gamma: Tensor[(128), float32], %stage2_unit2_bn2_beta: Tensor[(128), float32], %stage2_unit2_bn2_moving_mean: Tensor[(128), float32], %stage2_unit2_bn2_moving_var: Tensor[(128), float32], %stage2_unit2_conv2_weight: Tensor[(128, 128, 3, 3), float32], %stage3_unit1_bn1_gamma: Tensor[(128), float32], %stage3_unit1_bn1_beta: Tensor[(128), float32], %stage3_unit1_bn1_moving_mean: Tensor[(128), float32], %stage3_unit1_bn1_moving_var: Tensor[(128), float32], %stage3_unit1_conv1_weight: Tensor[(256, 128, 3, 3), float32], %stage3_unit1_bn2_gamma: Tensor[(256), float32], %stage3_unit1_bn2_beta: Tensor[(256), float32], %stage3_unit1_bn2_moving_mean: Tensor[(256), float32], %stage3_unit1_bn2_moving_var: Tensor[(256), float32], %stage3_unit1_conv2_weight: Tensor[(256, 256, 3, 3), float32], %stage3_unit1_sc_weight: Tensor[(256, 128, 1, 1), float32], %stage3_unit2_bn1_gamma: Tensor[(256), float32], %stage3_unit2_bn1_beta: Tensor[(256), float32], %stage3_unit2_bn1_moving_mean: Tensor[(256), float32], %stage3_unit2_bn1_moving_var: Tensor[(256), float32], %stage3_unit2_conv1_weight: Tensor[(256, 256, 3, 3), float32], %stage3_unit2_bn2_gamma: Tensor[(256), float32], %stage3_unit2_bn2_beta: Tensor[(256), float32], %stage3_unit2_bn2_moving_mean: Tensor[(256), float32], %stage3_unit2_bn2_moving_var: Tensor[(256), float32], %stage3_unit2_conv2_weight: Tensor[(256, 256, 3, 3), float32], %stage4_unit1_bn1_gamma: Tensor[(256), float32], %stage4_unit1_bn1_beta: Tensor[(256), float32], %stage4_unit1_bn1_moving_mean: Tensor[(256), float32], %stage4_unit1_bn1_moving_var: Tensor[(256), float32], %stage4_unit1_conv1_weight: Tensor[(512, 256, 3, 3), float32], %stage4_unit1_bn2_gamma: Tensor[(512), float32], %stage4_unit1_bn2_beta: Tensor[(512), float32], %stage4_unit1_bn2_moving_mean: Tensor[(512), float32], %stage4_unit1_bn2_moving_var: Tensor[(512), float32], %stage4_unit1_conv2_weight: Tensor[(512, 512, 3, 3), float32], %stage4_unit1_sc_weight: Tensor[(512, 256, 1, 1), float32], %stage4_unit2_bn1_gamma: Tensor[(512), float32], %stage4_unit2_bn1_beta: Tensor[(512), float32], %stage4_unit2_bn1_moving_mean: Tensor[(512), float32], %stage4_unit2_bn1_moving_var: Tensor[(512), float32], %stage4_unit2_conv1_weight: Tensor[(512, 512, 3, 3), float32], %stage4_unit2_bn2_gamma: Tensor[(512), float32], %stage4_unit2_bn2_beta: Tensor[(512), float32], %stage4_unit2_bn2_moving_mean: Tensor[(512), float32], %stage4_unit2_bn2_moving_var: Tensor[(512), float32], %stage4_unit2_conv2_weight: Tensor[(512, 512, 3, 3), float32], %bn1_gamma: Tensor[(512), float32], %bn1_beta: Tensor[(512), float32], %bn1_moving_mean: Tensor[(512), float32], %bn1_moving_var: Tensor[(512), float32], %fc1_weight: Tensor[(1000, 512), float32], %fc1_bias: Tensor[(1000), float32]) -> Tensor[(1, 1000), float32] {
  %0 = nn.batch_norm(%data, %bn_data_gamma, %bn_data_beta, %bn_data_moving_mean, %bn_data_moving_var, epsilon=2e-05f, scale=False) /* ty=(Tensor[(1, 3, 224, 224), float32], Tensor[(3), float32], Tensor[(3), float32]) */;
  %1 = %0.0;
  %2 = nn.conv2d(%1, %conv0_weight, strides=[2, 2], padding=[3, 3, 3, 3], channels=64, kernel_size=[7, 7]) /* ty=Tensor[(1, 64, 112, 112), float32] */;
  %3 = nn.batch_norm(%2, %bn0_gamma, %bn0_beta, %bn0_moving_mean, %bn0_moving_var, epsilon=2e-05f) /* ty=(Tensor[(1, 64, 112, 112), float32], Tensor[(64), float32], Tensor[(64), float32]) */;
  %4 = %3.0;
  %5 = nn.relu(%4) /* ty=Tensor[(1, 64, 112, 112), float32] */;
  %6 = nn.max_pool2d(%5, pool_size=[3, 3], strides=[2, 2], padding=[1, 1, 1, 1]) /* ty=Tensor[(1, 64, 56, 56), float32] */;
  %7 = nn.batch_norm(%6, %stage1_unit1_bn1_gamma, %stage1_unit1_bn1_beta, %stage1_unit1_bn1_moving_mean, %stage1_unit1_bn1_moving_var, epsilon=2e-05f) /* ty=(Tensor[(1, 64, 56, 56), float32], Tensor[(64), float32], Tensor[(64), float32]) */;
  %8 = %7.0;
  %9 = nn.relu(%8) /* ty=Tensor[(1, 64, 56, 56), float32] */;
  %10 = nn.conv2d(%9, %stage1_unit1_conv1_weight, padding=[1, 1, 1, 1], channels=64, kernel_size=[3, 3]) /* ty=Tensor[(1, 64, 56, 56), float32] */;
  %11 = nn.batch_norm(%10, %stage1_unit1_bn2_gamma, %stage1_unit1_bn2_beta, %stage1_unit1_bn2_moving_mean, %stage1_unit1_bn2_moving_var, epsilon=2e-05f) /* ty=(Tensor[(1, 64, 56, 56), float32], Tensor[(64), float32], Tensor[(64), float32]) */;
  %12 = %11.0;
  %13 = nn.relu(%12) /* ty=Tensor[(1, 64, 56, 56), float32] */;
  %14 = nn.conv2d(%13, %stage1_unit1_conv2_weight, padding=[1, 1, 1, 1], channels=64, kernel_size=[3, 3]) /* ty=Tensor[(1, 64, 56, 56), float32] */;
  %15 = nn.conv2d(%9, %stage1_unit1_sc_weight, padding=[0, 0, 0, 0], channels=64, kernel_size=[1, 1]) /* ty=Tensor[(1, 64, 56, 56), float32] */;
  %16 = add(%14, %15) /* ty=Tensor[(1, 64, 56, 56), float32] */;
  %17 = nn.batch_norm(%16, %stage1_unit2_bn1_gamma, %stage1_unit2_bn1_beta, %stage1_unit2_bn1_moving_mean, %stage1_unit2_bn1_moving_var, epsilon=2e-05f) /* ty=(Tensor[(1, 64, 56, 56), float32], Tensor[(64), float32], Tensor[(64), float32]) */;
  %18 = %17.0;
  %19 = nn.relu(%18) /* ty=Tensor[(1, 64, 56, 56), float32] */;
  %20 = nn.conv2d(%19, %stage1_unit2_conv1_weight, padding=[1, 1, 1, 1], channels=64, kernel_size=[3, 3]) /* ty=Tensor[(1, 64, 56, 56), float32] */;
  %21 = nn.batch_norm(%20, %stage1_unit2_bn2_gamma, %stage1_unit2_bn2_beta, %stage1_unit2_bn2_moving_mean, %stage1_unit2_bn2_moving_var, epsilon=2e-05f) /* ty=(Tensor[(1, 64, 56, 56), float32], Tensor[(64), float32], Tensor[(64), float32]) */;
  %22 = %21.0;
  %23 = nn.relu(%22) /* ty=Tensor[(1, 64, 56, 56), float32] */;
  %24 = nn.conv2d(%23, %stage1_unit2_conv2_weight, padding=[1, 1, 1, 1], channels=64, kernel_size=[3, 3]) /* ty=Tensor[(1, 64, 56, 56), float32] */;
  %25 = add(%24, %16) /* ty=Tensor[(1, 64, 56, 56), float32] */;
  %26 = nn.batch_norm(%25, %stage2_unit1_bn1_gamma, %stage2_unit1_bn1_beta, %stage2_unit1_bn1_moving_mean, %stage2_unit1_bn1_moving_var, epsilon=2e-05f) /* ty=(Tensor[(1, 64, 56, 56), float32], Tensor[(64), float32], Tensor[(64), float32]) */;
  %27 = %26.0;
  %28 = nn.relu(%27) /* ty=Tensor[(1, 64, 56, 56), float32] */;
  %29 = nn.conv2d(%28, %stage2_unit1_conv1_weight, strides=[2, 2], padding=[1, 1, 1, 1], channels=128, kernel_size=[3, 3]) /* ty=Tensor[(1, 128, 28, 28), float32] */;
  %30 = nn.batch_norm(%29, %stage2_unit1_bn2_gamma, %stage2_unit1_bn2_beta, %stage2_unit1_bn2_moving_mean, %stage2_unit1_bn2_moving_var, epsilon=2e-05f) /* ty=(Tensor[(1, 128, 28, 28), float32], Tensor[(128), float32], Tensor[(128), float32]) */;
  %31 = %30.0;
  %32 = nn.relu(%31) /* ty=Tensor[(1, 128, 28, 28), float32] */;
  %33 = nn.conv2d(%32, %stage2_unit1_conv2_weight, padding=[1, 1, 1, 1], channels=128, kernel_size=[3, 3]) /* ty=Tensor[(1, 128, 28, 28), float32] */;
  %34 = nn.conv2d(%28, %stage2_unit1_sc_weight, strides=[2, 2], padding=[0, 0, 0, 0], channels=128, kernel_size=[1, 1]) /* ty=Tensor[(1, 128, 28, 28), float32] */;
  %35 = add(%33, %34) /* ty=Tensor[(1, 128, 28, 28), float32] */;
  %36 = nn.batch_norm(%35, %stage2_unit2_bn1_gamma, %stage2_unit2_bn1_beta, %stage2_unit2_bn1_moving_mean, %stage2_unit2_bn1_moving_var, epsilon=2e-05f) /* ty=(Tensor[(1, 128, 28, 28), float32], Tensor[(128), float32], Tensor[(128), float32]) */;
  %37 = %36.0;
  %38 = nn.relu(%37) /* ty=Tensor[(1, 128, 28, 28), float32] */;
  %39 = nn.conv2d(%38, %stage2_unit2_conv1_weight, padding=[1, 1, 1, 1], channels=128, kernel_size=[3, 3]) /* ty=Tensor[(1, 128, 28, 28), float32] */;
  %40 = nn.batch_norm(%39, %stage2_unit2_bn2_gamma, %stage2_unit2_bn2_beta, %stage2_unit2_bn2_moving_mean, %stage2_unit2_bn2_moving_var, epsilon=2e-05f) /* ty=(Tensor[(1, 128, 28, 28), float32], Tensor[(128), float32], Tensor[(128), float32]) */;
  %41 = %40.0;
  %42 = nn.relu(%41) /* ty=Tensor[(1, 128, 28, 28), float32] */;
  %43 = nn.conv2d(%42, %stage2_unit2_conv2_weight, padding=[1, 1, 1, 1], channels=128, kernel_size=[3, 3]) /* ty=Tensor[(1, 128, 28, 28), float32] */;
  %44 = add(%43, %35) /* ty=Tensor[(1, 128, 28, 28), float32] */;
  %45 = nn.batch_norm(%44, %stage3_unit1_bn1_gamma, %stage3_unit1_bn1_beta, %stage3_unit1_bn1_moving_mean, %stage3_unit1_bn1_moving_var, epsilon=2e-05f) /* ty=(Tensor[(1, 128, 28, 28), float32], Tensor[(128), float32], Tensor[(128), float32]) */;
  %46 = %45.0;
  %47 = nn.relu(%46) /* ty=Tensor[(1, 128, 28, 28), float32] */;
  %48 = nn.conv2d(%47, %stage3_unit1_conv1_weight, strides=[2, 2], padding=[1, 1, 1, 1], channels=256, kernel_size=[3, 3]) /* ty=Tensor[(1, 256, 14, 14), float32] */;
  %49 = nn.batch_norm(%48, %stage3_unit1_bn2_gamma, %stage3_unit1_bn2_beta, %stage3_unit1_bn2_moving_mean, %stage3_unit1_bn2_moving_var, epsilon=2e-05f) /* ty=(Tensor[(1, 256, 14, 14), float32], Tensor[(256), float32], Tensor[(256), float32]) */;
  %50 = %49.0;
  %51 = nn.relu(%50) /* ty=Tensor[(1, 256, 14, 14), float32] */;
  %52 = nn.conv2d(%51, %stage3_unit1_conv2_weight, padding=[1, 1, 1, 1], channels=256, kernel_size=[3, 3]) /* ty=Tensor[(1, 256, 14, 14), float32] */;
  %53 = nn.conv2d(%47, %stage3_unit1_sc_weight, strides=[2, 2], padding=[0, 0, 0, 0], channels=256, kernel_size=[1, 1]) /* ty=Tensor[(1, 256, 14, 14), float32] */;
  %54 = add(%52, %53) /* ty=Tensor[(1, 256, 14, 14), float32] */;
  %55 = nn.batch_norm(%54, %stage3_unit2_bn1_gamma, %stage3_unit2_bn1_beta, %stage3_unit2_bn1_moving_mean, %stage3_unit2_bn1_moving_var, epsilon=2e-05f) /* ty=(Tensor[(1, 256, 14, 14), float32], Tensor[(256), float32], Tensor[(256), float32]) */;
  %56 = %55.0;
  %57 = nn.relu(%56) /* ty=Tensor[(1, 256, 14, 14), float32] */;
  %58 = nn.conv2d(%57, %stage3_unit2_conv1_weight, padding=[1, 1, 1, 1], channels=256, kernel_size=[3, 3]) /* ty=Tensor[(1, 256, 14, 14), float32] */;
  %59 = nn.batch_norm(%58, %stage3_unit2_bn2_gamma, %stage3_unit2_bn2_beta, %stage3_unit2_bn2_moving_mean, %stage3_unit2_bn2_moving_var, epsilon=2e-05f) /* ty=(Tensor[(1, 256, 14, 14), float32], Tensor[(256), float32], Tensor[(256), float32]) */;
  %60 = %59.0;
  %61 = nn.relu(%60) /* ty=Tensor[(1, 256, 14, 14), float32] */;
  %62 = nn.conv2d(%61, %stage3_unit2_conv2_weight, padding=[1, 1, 1, 1], channels=256, kernel_size=[3, 3]) /* ty=Tensor[(1, 256, 14, 14), float32] */;
  %63 = add(%62, %54) /* ty=Tensor[(1, 256, 14, 14), float32] */;
  %64 = nn.batch_norm(%63, %stage4_unit1_bn1_gamma, %stage4_unit1_bn1_beta, %stage4_unit1_bn1_moving_mean, %stage4_unit1_bn1_moving_var, epsilon=2e-05f) /* ty=(Tensor[(1, 256, 14, 14), float32], Tensor[(256), float32], Tensor[(256), float32]) */;
  %65 = %64.0;
  %66 = nn.relu(%65) /* ty=Tensor[(1, 256, 14, 14), float32] */;
  %67 = nn.conv2d(%66, %stage4_unit1_conv1_weight, strides=[2, 2], padding=[1, 1, 1, 1], channels=512, kernel_size=[3, 3]) /* ty=Tensor[(1, 512, 7, 7), float32] */;
  %68 = nn.batch_norm(%67, %stage4_unit1_bn2_gamma, %stage4_unit1_bn2_beta, %stage4_unit1_bn2_moving_mean, %stage4_unit1_bn2_moving_var, epsilon=2e-05f) /* ty=(Tensor[(1, 512, 7, 7), float32], Tensor[(512), float32], Tensor[(512), float32]) */;
  %69 = %68.0;
  %70 = nn.relu(%69) /* ty=Tensor[(1, 512, 7, 7), float32] */;
  %71 = nn.conv2d(%70, %stage4_unit1_conv2_weight, padding=[1, 1, 1, 1], channels=512, kernel_size=[3, 3]) /* ty=Tensor[(1, 512, 7, 7), float32] */;
  %72 = nn.conv2d(%66, %stage4_unit1_sc_weight, strides=[2, 2], padding=[0, 0, 0, 0], channels=512, kernel_size=[1, 1]) /* ty=Tensor[(1, 512, 7, 7), float32] */;
  %73 = add(%71, %72) /* ty=Tensor[(1, 512, 7, 7), float32] */;
  %74 = nn.batch_norm(%73, %stage4_unit2_bn1_gamma, %stage4_unit2_bn1_beta, %stage4_unit2_bn1_moving_mean, %stage4_unit2_bn1_moving_var, epsilon=2e-05f) /* ty=(Tensor[(1, 512, 7, 7), float32], Tensor[(512), float32], Tensor[(512), float32]) */;
  %75 = %74.0;
  %76 = nn.relu(%75) /* ty=Tensor[(1, 512, 7, 7), float32] */;
  %77 = nn.conv2d(%76, %stage4_unit2_conv1_weight, padding=[1, 1, 1, 1], channels=512, kernel_size=[3, 3]) /* ty=Tensor[(1, 512, 7, 7), float32] */;
  %78 = nn.batch_norm(%77, %stage4_unit2_bn2_gamma, %stage4_unit2_bn2_beta, %stage4_unit2_bn2_moving_mean, %stage4_unit2_bn2_moving_var, epsilon=2e-05f) /* ty=(Tensor[(1, 512, 7, 7), float32], Tensor[(512), float32], Tensor[(512), float32]) */;
  %79 = %78.0;
  %80 = nn.relu(%79) /* ty=Tensor[(1, 512, 7, 7), float32] */;
  %81 = nn.conv2d(%80, %stage4_unit2_conv2_weight, padding=[1, 1, 1, 1], channels=512, kernel_size=[3, 3]) /* ty=Tensor[(1, 512, 7, 7), float32] */;
  %82 = add(%81, %73) /* ty=Tensor[(1, 512, 7, 7), float32] */;
  %83 = nn.batch_norm(%82, %bn1_gamma, %bn1_beta, %bn1_moving_mean, %bn1_moving_var, epsilon=2e-05f) /* ty=(Tensor[(1, 512, 7, 7), float32], Tensor[(512), float32], Tensor[(512), float32]) */;
  %84 = %83.0;
  %85 = nn.relu(%84) /* ty=Tensor[(1, 512, 7, 7), float32] */;
  %86 = nn.global_avg_pool2d(%85) /* ty=Tensor[(1, 512, 1, 1), float32] */;
  %87 = nn.batch_flatten(%86) /* ty=Tensor[(1, 512), float32] */;
  %88 = nn.dense(%87, %fc1_weight, units=1000) /* ty=Tensor[(1, 1000), float32] */;
  %89 = nn.bias_add(%88, %fc1_bias, axis=-1) /* ty=Tensor[(1, 1000), float32] */;
  nn.softmax(%89) /* ty=Tensor[(1, 1000), float32] */
}

Running pass: {} The meta data of the pass: pass name: InferTypeopt_level: 0required passes: [
]

def @main(%data: Tensor[(1, 3, 224, 224), float32], %bn_data_gamma: Tensor[(3), float32], %bn_data_beta: Tensor[(3), float32], %bn_data_moving_mean: Tensor[(3), float32], %bn_data_moving_var: Tensor[(3), float32], %conv0_weight: Tensor[(64, 3, 7, 7), float32], %bn0_gamma: Tensor[(64), float32], %bn0_beta: Tensor[(64), float32], %bn0_moving_mean: Tensor[(64), float32], %bn0_moving_var: Tensor[(64), float32], %stage1_unit1_bn1_gamma: Tensor[(64), float32], %stage1_unit1_bn1_beta: Tensor[(64), float32], %stage1_unit1_bn1_moving_mean: Tensor[(64), float32], %stage1_unit1_bn1_moving_var: Tensor[(64), float32], %stage1_unit1_conv1_weight: Tensor[(64, 64, 3, 3), float32], %stage1_unit1_bn2_gamma: Tensor[(64), float32], %stage1_unit1_bn2_beta: Tensor[(64), float32], %stage1_unit1_bn2_moving_mean: Tensor[(64), float32], %stage1_unit1_bn2_moving_var: Tensor[(64), float32], %stage1_unit1_conv2_weight: Tensor[(64, 64, 3, 3), float32], %stage1_unit1_sc_weight: Tensor[(64, 64, 1, 1), float32], %stage1_unit2_bn1_gamma: Tensor[(64), float32], %stage1_unit2_bn1_beta: Tensor[(64), float32], %stage1_unit2_bn1_moving_mean: Tensor[(64), float32], %stage1_unit2_bn1_moving_var: Tensor[(64), float32], %stage1_unit2_conv1_weight: Tensor[(64, 64, 3, 3), float32], %stage1_unit2_bn2_gamma: Tensor[(64), float32], %stage1_unit2_bn2_beta: Tensor[(64), float32], %stage1_unit2_bn2_moving_mean: Tensor[(64), float32], %stage1_unit2_bn2_moving_var: Tensor[(64), float32], %stage1_unit2_conv2_weight: Tensor[(64, 64, 3, 3), float32], %stage2_unit1_bn1_gamma: Tensor[(64), float32], %stage2_unit1_bn1_beta: Tensor[(64), float32], %stage2_unit1_bn1_moving_mean: Tensor[(64), float32], %stage2_unit1_bn1_moving_var: Tensor[(64), float32], %stage2_unit1_conv1_weight: Tensor[(128, 64, 3, 3), float32], %stage2_unit1_bn2_gamma: Tensor[(128), float32], %stage2_unit1_bn2_beta: Tensor[(128), float32], %stage2_unit1_bn2_moving_mean: Tensor[(128), float32], %stage2_unit1_bn2_moving_var: Tensor[(128), float32], %stage2_unit1_conv2_weight: Tensor[(128, 128, 3, 3), float32], %stage2_unit1_sc_weight: Tensor[(128, 64, 1, 1), float32], %stage2_unit2_bn1_gamma: Tensor[(128), float32], %stage2_unit2_bn1_beta: Tensor[(128), float32], %stage2_unit2_bn1_moving_mean: Tensor[(128), float32], %stage2_unit2_bn1_moving_var: Tensor[(128), float32], %stage2_unit2_conv1_weight: Tensor[(128, 128, 3, 3), float32], %stage2_unit2_bn2_gamma: Tensor[(128), float32], %stage2_unit2_bn2_beta: Tensor[(128), float32], %stage2_unit2_bn2_moving_mean: Tensor[(128), float32], %stage2_unit2_bn2_moving_var: Tensor[(128), float32], %stage2_unit2_conv2_weight: Tensor[(128, 128, 3, 3), float32], %stage3_unit1_bn1_gamma: Tensor[(128), float32], %stage3_unit1_bn1_beta: Tensor[(128), float32], %stage3_unit1_bn1_moving_mean: Tensor[(128), float32], %stage3_unit1_bn1_moving_var: Tensor[(128), float32], %stage3_unit1_conv1_weight: Tensor[(256, 128, 3, 3), float32], %stage3_unit1_bn2_gamma: Tensor[(256), float32], %stage3_unit1_bn2_beta: Tensor[(256), float32], %stage3_unit1_bn2_moving_mean: Tensor[(256), float32], %stage3_unit1_bn2_moving_var: Tensor[(256), float32], %stage3_unit1_conv2_weight: Tensor[(256, 256, 3, 3), float32], %stage3_unit1_sc_weight: Tensor[(256, 128, 1, 1), float32], %stage3_unit2_bn1_gamma: Tensor[(256), float32], %stage3_unit2_bn1_beta: Tensor[(256), float32], %stage3_unit2_bn1_moving_mean: Tensor[(256), float32], %stage3_unit2_bn1_moving_var: Tensor[(256), float32], %stage3_unit2_conv1_weight: Tensor[(256, 256, 3, 3), float32], %stage3_unit2_bn2_gamma: Tensor[(256), float32], %stage3_unit2_bn2_beta: Tensor[(256), float32], %stage3_unit2_bn2_moving_mean: Tensor[(256), float32], %stage3_unit2_bn2_moving_var: Tensor[(256), float32], %stage3_unit2_conv2_weight: Tensor[(256, 256, 3, 3), float32], %stage4_unit1_bn1_gamma: Tensor[(256), float32], %stage4_unit1_bn1_beta: Tensor[(256), float32], %stage4_unit1_bn1_moving_mean: Tensor[(256), float32], %stage4_unit1_bn1_moving_var: Tensor[(256), float32], %stage4_unit1_conv1_weight: Tensor[(512, 256, 3, 3), float32], %stage4_unit1_bn2_gamma: Tensor[(512), float32], %stage4_unit1_bn2_beta: Tensor[(512), float32], %stage4_unit1_bn2_moving_mean: Tensor[(512), float32], %stage4_unit1_bn2_moving_var: Tensor[(512), float32], %stage4_unit1_conv2_weight: Tensor[(512, 512, 3, 3), float32], %stage4_unit1_sc_weight: Tensor[(512, 256, 1, 1), float32], %stage4_unit2_bn1_gamma: Tensor[(512), float32], %stage4_unit2_bn1_beta: Tensor[(512), float32], %stage4_unit2_bn1_moving_mean: Tensor[(512), float32], %stage4_unit2_bn1_moving_var: Tensor[(512), float32], %stage4_unit2_conv1_weight: Tensor[(512, 512, 3, 3), float32], %stage4_unit2_bn2_gamma: Tensor[(512), float32], %stage4_unit2_bn2_beta: Tensor[(512), float32], %stage4_unit2_bn2_moving_mean: Tensor[(512), float32], %stage4_unit2_bn2_moving_var: Tensor[(512), float32], %stage4_unit2_conv2_weight: Tensor[(512, 512, 3, 3), float32], %bn1_gamma: Tensor[(512), float32], %bn1_beta: Tensor[(512), float32], %bn1_moving_mean: Tensor[(512), float32], %bn1_moving_var: Tensor[(512), float32], %fc1_weight: Tensor[(1000, 512), float32], %fc1_bias: Tensor[(1000), float32]) -> Tensor[(1, 1000), float32] {
  %0 = annotation.compiler_begin(%data, meta[relay.attrs.CompilerAttrs][0]) /* ty=Tensor[(1, 3, 224, 224), float32] */;
  %1 = annotation.compiler_begin(%bn_data_gamma, meta[relay.attrs.CompilerAttrs][1]) /* ty=Tensor[(3), float32] */;
  %2 = annotation.compiler_begin(%bn_data_beta, meta[relay.attrs.CompilerAttrs][2]) /* ty=Tensor[(3), float32] */;
  %3 = annotation.compiler_begin(%bn_data_moving_mean, meta[relay.attrs.CompilerAttrs][3]) /* ty=Tensor[(3), float32] */;
  %4 = annotation.compiler_begin(%bn_data_moving_var, meta[relay.attrs.CompilerAttrs][4]) /* ty=Tensor[(3), float32] */;
  %5 = nn.batch_norm(%0, %1, %2, %3, %4, epsilon=2e-05f, scale=False) /* ty=(Tensor[(1, 3, 224, 224), float32], Tensor[(3), float32], Tensor[(3), float32]) */;
  %6 = annotation.compiler_end(%5, meta[relay.attrs.CompilerAttrs][5]) /* ty=(Tensor[(1, 3, 224, 224), float32], Tensor[(3), float32], Tensor[(3), float32]) */;
  %7 = annotation.compiler_begin(%6, meta[relay.attrs.CompilerAttrs][6]) /* ty=(Tensor[(1, 3, 224, 224), float32], Tensor[(3), float32], Tensor[(3), float32]) */;
  %8 = %7.0;
  %9 = annotation.compiler_end(%8, meta[relay.attrs.CompilerAttrs][7]);
  %10 = annotation.compiler_begin(%9, meta[relay.attrs.CompilerAttrs][8]);
  %11 = annotation.compiler_begin(%conv0_weight, meta[relay.attrs.CompilerAttrs][9]) /* ty=Tensor[(64, 3, 7, 7), float32] */;
  %12 = nn.conv2d(%10, %11, strides=[2, 2], padding=[3, 3, 3, 3], channels=64, kernel_size=[7, 7]) /* ty=Tensor[(1, 64, 112, 112), float32] */;
  %13 = annotation.compiler_end(%12, meta[relay.attrs.CompilerAttrs][10]) /* ty=Tensor[(1, 64, 112, 112), float32] */;
  %14 = annotation.compiler_begin(%13, meta[relay.attrs.CompilerAttrs][11]) /* ty=Tensor[(1, 64, 112, 112), float32] */;
  %15 = annotation.compiler_begin(%bn0_gamma, meta[relay.attrs.CompilerAttrs][12]) /* ty=Tensor[(64), float32] */;
  %16 = annotation.compiler_begin(%bn0_beta, meta[relay.attrs.CompilerAttrs][13]) /* ty=Tensor[(64), float32] */;
  %17 = annotation.compiler_begin(%bn0_moving_mean, meta[relay.attrs.CompilerAttrs][14]) /* ty=Tensor[(64), float32] */;
  %18 = annotation.compiler_begin(%bn0_moving_var, meta[relay.attrs.CompilerAttrs][15]) /* ty=Tensor[(64), float32] */;
  %19 = nn.batch_norm(%14, %15, %16, %17, %18, epsilon=2e-05f) /* ty=(Tensor[(1, 64, 112, 112), float32], Tensor[(64), float32], Tensor[(64), float32]) */;
  %20 = annotation.compiler_end(%19, meta[relay.attrs.CompilerAttrs][16]) /* ty=(Tensor[(1, 64, 112, 112), float32], Tensor[(64), float32], Tensor[(64), float32]) */;
  %21 = annotation.compiler_begin(%20, meta[relay.attrs.CompilerAttrs][17]) /* ty=(Tensor[(1, 64, 112, 112), float32], Tensor[(64), float32], Tensor[(64), float32]) */;
  %22 = %21.0;
  %23 = annotation.compiler_end(%22, meta[relay.attrs.CompilerAttrs][18]);
  %24 = annotation.compiler_begin(%23, meta[relay.attrs.CompilerAttrs][19]);
  %25 = nn.relu(%24) /* ty=Tensor[(1, 64, 112, 112), float32] */;
  %26 = annotation.compiler_end(%25, meta[relay.attrs.CompilerAttrs][20]) /* ty=Tensor[(1, 64, 112, 112), float32] */;
  %27 = annotation.compiler_begin(%26, meta[relay.attrs.CompilerAttrs][21]) /* ty=Tensor[(1, 64, 112, 112), float32] */;
  %28 = nn.max_pool2d(%27, pool_size=[3, 3], strides=[2, 2], padding=[1, 1, 1, 1]) /* ty=Tensor[(1, 64, 56, 56), float32] */;
  %29 = annotation.compiler_end(%28, meta[relay.attrs.CompilerAttrs][22]) /* ty=Tensor[(1, 64, 56, 56), float32] */;
  %30 = annotation.compiler_begin(%29, meta[relay.attrs.CompilerAttrs][23]) /* ty=Tensor[(1, 64, 56, 56), float32] */;
  %31 = annotation.compiler_begin(%stage1_unit1_bn1_gamma, meta[relay.attrs.CompilerAttrs][24]) /* ty=Tensor[(64), float32] */;
  %32 = annotation.compiler_begin(%stage1_unit1_bn1_beta, meta[relay.attrs.CompilerAttrs][25]) /* ty=Tensor[(64), float32] */;
  %33 = annotation.compiler_begin(%stage1_unit1_bn1_moving_mean, meta[relay.attrs.CompilerAttrs][26]) /* ty=Tensor[(64), float32] */;
  %34 = annotation.compiler_begin(%stage1_unit1_bn1_moving_var, meta[relay.attrs.CompilerAttrs][27]) /* ty=Tensor[(64), float32] */;
  %35 = nn.batch_norm(%30, %31, %32, %33, %34, epsilon=2e-05f) /* ty=(Tensor[(1, 64, 56, 56), float32], Tensor[(64), float32], Tensor[(64), float32]) */;
  %36 = annotation.compiler_end(%35, meta[relay.attrs.CompilerAttrs][28]) /* ty=(Tensor[(1, 64, 56, 56), float32], Tensor[(64), float32], Tensor[(64), float32]) */;
  %37 = annotation.compiler_begin(%36, meta[relay.attrs.CompilerAttrs][29]) /* ty=(Tensor[(1, 64, 56, 56), float32], Tensor[(64), float32], Tensor[(64), float32]) */;
  %38 = %37.0;
  %39 = annotation.compiler_end(%38, meta[relay.attrs.CompilerAttrs][30]);
  %40 = annotation.compiler_begin(%39, meta[relay.attrs.CompilerAttrs][31]);
  %41 = nn.relu(%40) /* ty=Tensor[(1, 64, 56, 56), float32] */;
  %42 = annotation.compiler_end(%41, meta[relay.attrs.CompilerAttrs][32]) /* ty=Tensor[(1, 64, 56, 56), float32] */;
  %43 = annotation.compiler_begin(%42, meta[relay.attrs.CompilerAttrs][33]) /* ty=Tensor[(1, 64, 56, 56), float32] */;
  %44 = annotation.compiler_begin(%stage1_unit1_conv1_weight, meta[relay.attrs.CompilerAttrs][34]) /* ty=Tensor[(64, 64, 3, 3), float32] */;
  %45 = nn.conv2d(%43, %44, padding=[1, 1, 1, 1], channels=64, kernel_size=[3, 3]) /* ty=Tensor[(1, 64, 56, 56), float32] */;
  %46 = annotation.compiler_end(%45, meta[relay.attrs.CompilerAttrs][35]) /* ty=Tensor[(1, 64, 56, 56), float32] */;
  %47 = annotation.compiler_begin(%46, meta[relay.attrs.CompilerAttrs][36]) /* ty=Tensor[(1, 64, 56, 56), float32] */;
  %48 = annotation.compiler_begin(%stage1_unit1_bn2_gamma, meta[relay.attrs.CompilerAttrs][37]) /* ty=Tensor[(64), float32] */;
  %49 = annotation.compiler_begin(%stage1_unit1_bn2_beta, meta[relay.attrs.CompilerAttrs][38]) /* ty=Tensor[(64), float32] */;
  %50 = annotation.compiler_begin(%stage1_unit1_bn2_moving_mean, meta[relay.attrs.CompilerAttrs][39]) /* ty=Tensor[(64), float32] */;
  %51 = annotation.compiler_begin(%stage1_unit1_bn2_moving_var, meta[relay.attrs.CompilerAttrs][40]) /* ty=Tensor[(64), float32] */;
  %52 = nn.batch_norm(%47, %48, %49, %50, %51, epsilon=2e-05f) /* ty=(Tensor[(1, 64, 56, 56), float32], Tensor[(64), float32], Tensor[(64), float32]) */;
  %53 = annotation.compiler_end(%52, meta[relay.attrs.CompilerAttrs][41]) /* ty=(Tensor[(1, 64, 56, 56), float32], Tensor[(64), float32], Tensor[(64), float32]) */;
  %54 = annotation.compiler_begin(%53, meta[relay.attrs.CompilerAttrs][42]) /* ty=(Tensor[(1, 64, 56, 56), float32], Tensor[(64), float32], Tensor[(64), float32]) */;
  %55 = %54.0;
  %56 = annotation.compiler_end(%55, meta[relay.attrs.CompilerAttrs][43]);
  %57 = annotation.compiler_begin(%56, meta[relay.attrs.CompilerAttrs][44]);
  %58 = nn.relu(%57) /* ty=Tensor[(1, 64, 56, 56), float32] */;
  %59 = annotation.compiler_end(%58, meta[relay.attrs.CompilerAttrs][45]) /* ty=Tensor[(1, 64, 56, 56), float32] */;
  %60 = annotation.compiler_begin(%59, meta[relay.attrs.CompilerAttrs][46]) /* ty=Tensor[(1, 64, 56, 56), float32] */;
  %61 = annotation.compiler_begin(%stage1_unit1_conv2_weight, meta[relay.attrs.CompilerAttrs][47]) /* ty=Tensor[(64, 64, 3, 3), float32] */;
  %62 = nn.conv2d(%60, %61, padding=[1, 1, 1, 1], channels=64, kernel_size=[3, 3]) /* ty=Tensor[(1, 64, 56, 56), float32] */;
  %63 = annotation.compiler_end(%62, meta[relay.attrs.CompilerAttrs][48]) /* ty=Tensor[(1, 64, 56, 56), float32] */;
  %64 = annotation.compiler_end(%41, meta[relay.attrs.CompilerAttrs][50]) /* ty=Tensor[(1, 64, 56, 56), float32] */;
  %65 = annotation.compiler_begin(%64, meta[relay.attrs.CompilerAttrs][51]) /* ty=Tensor[(1, 64, 56, 56), float32] */;
  %66 = annotation.compiler_begin(%stage1_unit1_sc_weight, meta[relay.attrs.CompilerAttrs][52]) /* ty=Tensor[(64, 64, 1, 1), float32] */;
  %67 = nn.conv2d(%65, %66, padding=[0, 0, 0, 0], channels=64, kernel_size=[1, 1]) /* ty=Tensor[(1, 64, 56, 56), float32] */;
  %68 = annotation.compiler_end(%67, meta[relay.attrs.CompilerAttrs][53]) /* ty=Tensor[(1, 64, 56, 56), float32] */;
  %69 = annotation.compiler_begin(%63, meta[relay.attrs.CompilerAttrs][49]) /* ty=Tensor[(1, 64, 56, 56), float32] */;
  %70 = annotation.compiler_begin(%68, meta[relay.attrs.CompilerAttrs][54]) /* ty=Tensor[(1, 64, 56, 56), float32] */;
  %71 = add(%69, %70) /* ty=Tensor[(1, 64, 56, 56), float32] */;
  %72 = annotation.compiler_end(%71, meta[relay.attrs.CompilerAttrs][55]) /* ty=Tensor[(1, 64, 56, 56), float32] */;
  %73 = annotation.compiler_begin(%72, meta[relay.attrs.CompilerAttrs][56]) /* ty=Tensor[(1, 64, 56, 56), float32] */;
  %74 = annotation.compiler_begin(%stage1_unit2_bn1_gamma, meta[relay.attrs.CompilerAttrs][57]) /* ty=Tensor[(64), float32] */;
  %75 = annotation.compiler_begin(%stage1_unit2_bn1_beta, meta[relay.attrs.CompilerAttrs][58]) /* ty=Tensor[(64), float32] */;
  %76 = annotation.compiler_begin(%stage1_unit2_bn1_moving_mean, meta[relay.attrs.CompilerAttrs][59]) /* ty=Tensor[(64), float32] */;
  %77 = annotation.compiler_begin(%stage1_unit2_bn1_moving_var, meta[relay.attrs.CompilerAttrs][60]) /* ty=Tensor[(64), float32] */;
  %78 = nn.batch_norm(%73, %74, %75, %76, %77, epsilon=2e-05f) /* ty=(Tensor[(1, 64, 56, 56), float32], Tensor[(64), float32], Tensor[(64), float32]) */;
  %79 = annotation.compiler_end(%78, meta[relay.attrs.CompilerAttrs][61]) /* ty=(Tensor[(1, 64, 56, 56), float32], Tensor[(64), float32], Tensor[(64), float32]) */;
  %80 = annotation.compiler_begin(%79, meta[relay.attrs.CompilerAttrs][62]) /* ty=(Tensor[(1, 64, 56, 56), float32], Tensor[(64), float32], Tensor[(64), float32]) */;
  %81 = %80.0;
  %82 = annotation.compiler_end(%81, meta[relay.attrs.CompilerAttrs][63]);
  %83 = annotation.compiler_begin(%82, meta[relay.attrs.CompilerAttrs][64]);
  %84 = nn.relu(%83) /* ty=Tensor[(1, 64, 56, 56), float32] */;
  %85 = annotation.compiler_end(%84, meta[relay.attrs.CompilerAttrs][65]) /* ty=Tensor[(1, 64, 56, 56), float32] */;
  %86 = annotation.compiler_begin(%85, meta[relay.attrs.CompilerAttrs][66]) /* ty=Tensor[(1, 64, 56, 56), float32] */;
  %87 = annotation.compiler_begin(%stage1_unit2_conv1_weight, meta[relay.attrs.CompilerAttrs][67]) /* ty=Tensor[(64, 64, 3, 3), float32] */;
  %88 = nn.conv2d(%86, %87, padding=[1, 1, 1, 1], channels=64, kernel_size=[3, 3]) /* ty=Tensor[(1, 64, 56, 56), float32] */;
  %89 = annotation.compiler_end(%88, meta[relay.attrs.CompilerAttrs][68]) /* ty=Tensor[(1, 64, 56, 56), float32] */;
  %90 = annotation.compiler_begin(%89, meta[relay.attrs.CompilerAttrs][69]) /* ty=Tensor[(1, 64, 56, 56), float32] */;
  %91 = annotation.compiler_begin(%stage1_unit2_bn2_gamma, meta[relay.attrs.CompilerAttrs][70]) /* ty=Tensor[(64), float32] */;
  %92 = annotation.compiler_begin(%stage1_unit2_bn2_beta, meta[relay.attrs.CompilerAttrs][71]) /* ty=Tensor[(64), float32] */;
  %93 = annotation.compiler_begin(%stage1_unit2_bn2_moving_mean, meta[relay.attrs.CompilerAttrs][72]) /* ty=Tensor[(64), float32] */;
  %94 = annotation.compiler_begin(%stage1_unit2_bn2_moving_var, meta[relay.attrs.CompilerAttrs][73]) /* ty=Tensor[(64), float32] */;
  %95 = nn.batch_norm(%90, %91, %92, %93, %94, epsilon=2e-05f) /* ty=(Tensor[(1, 64, 56, 56), float32], Tensor[(64), float32], Tensor[(64), float32]) */;
  %96 = annotation.compiler_end(%95, meta[relay.attrs.CompilerAttrs][74]) /* ty=(Tensor[(1, 64, 56, 56), float32], Tensor[(64), float32], Tensor[(64), float32]) */;
  %97 = annotation.compiler_begin(%96, meta[relay.attrs.CompilerAttrs][75]) /* ty=(Tensor[(1, 64, 56, 56), float32], Tensor[(64), float32], Tensor[(64), float32]) */;
  %98 = %97.0;
  %99 = annotation.compiler_end(%98, meta[relay.attrs.CompilerAttrs][76]);
  %100 = annotation.compiler_begin(%99, meta[relay.attrs.CompilerAttrs][77]);
  %101 = nn.relu(%100) /* ty=Tensor[(1, 64, 56, 56), float32] */;
  %102 = annotation.compiler_end(%101, meta[relay.attrs.CompilerAttrs][78]) /* ty=Tensor[(1, 64, 56, 56), float32] */;
  %103 = annotation.compiler_begin(%102, meta[relay.attrs.CompilerAttrs][79]) /* ty=Tensor[(1, 64, 56, 56), float32] */;
  %104 = annotation.compiler_begin(%stage1_unit2_conv2_weight, meta[relay.attrs.CompilerAttrs][80]) /* ty=Tensor[(64, 64, 3, 3), float32] */;
  %105 = nn.conv2d(%103, %104, padding=[1, 1, 1, 1], channels=64, kernel_size=[3, 3]) /* ty=Tensor[(1, 64, 56, 56), float32] */;
  %106 = annotation.compiler_end(%105, meta[relay.attrs.CompilerAttrs][81]) /* ty=Tensor[(1, 64, 56, 56), float32] */;
  %107 = annotation.compiler_end(%71, meta[relay.attrs.CompilerAttrs][83]) /* ty=Tensor[(1, 64, 56, 56), float32] */;
  %108 = annotation.compiler_begin(%106, meta[relay.attrs.CompilerAttrs][82]) /* ty=Tensor[(1, 64, 56, 56), float32] */;
  %109 = annotation.compiler_begin(%107, meta[relay.attrs.CompilerAttrs][84]) /* ty=Tensor[(1, 64, 56, 56), float32] */;
  %110 = add(%108, %109) /* ty=Tensor[(1, 64, 56, 56), float32] */;
  %111 = annotation.compiler_end(%110, meta[relay.attrs.CompilerAttrs][85]) /* ty=Tensor[(1, 64, 56, 56), float32] */;
  %112 = annotation.compiler_begin(%111, meta[relay.attrs.CompilerAttrs][86]) /* ty=Tensor[(1, 64, 56, 56), float32] */;
  %113 = annotation.compiler_begin(%stage2_unit1_bn1_gamma, meta[relay.attrs.CompilerAttrs][87]) /* ty=Tensor[(64), float32] */;
  %114 = annotation.compiler_begin(%stage2_unit1_bn1_beta, meta[relay.attrs.CompilerAttrs][88]) /* ty=Tensor[(64), float32] */;
  %115 = annotation.compiler_begin(%stage2_unit1_bn1_moving_mean, meta[relay.attrs.CompilerAttrs][89]) /* ty=Tensor[(64), float32] */;
  %116 = annotation.compiler_begin(%stage2_unit1_bn1_moving_var, meta[relay.attrs.CompilerAttrs][90]) /* ty=Tensor[(64), float32] */;
  %117 = nn.batch_norm(%112, %113, %114, %115, %116, epsilon=2e-05f) /* ty=(Tensor[(1, 64, 56, 56), float32], Tensor[(64), float32], Tensor[(64), float32]) */;
  %118 = annotation.compiler_end(%117, meta[relay.attrs.CompilerAttrs][91]) /* ty=(Tensor[(1, 64, 56, 56), float32], Tensor[(64), float32], Tensor[(64), float32]) */;
  %119 = annotation.compiler_begin(%118, meta[relay.attrs.CompilerAttrs][92]) /* ty=(Tensor[(1, 64, 56, 56), float32], Tensor[(64), float32], Tensor[(64), float32]) */;
  %120 = %119.0;
  %121 = annotation.compiler_end(%120, meta[relay.attrs.CompilerAttrs][93]);
  %122 = annotation.compiler_begin(%121, meta[relay.attrs.CompilerAttrs][94]);
  %123 = nn.relu(%122) /* ty=Tensor[(1, 64, 56, 56), float32] */;
  %124 = annotation.compiler_end(%123, meta[relay.attrs.CompilerAttrs][95]) /* ty=Tensor[(1, 64, 56, 56), float32] */;
  %125 = annotation.compiler_begin(%124, meta[relay.attrs.CompilerAttrs][96]) /* ty=Tensor[(1, 64, 56, 56), float32] */;
  %126 = annotation.compiler_begin(%stage2_unit1_conv1_weight, meta[relay.attrs.CompilerAttrs][97]) /* ty=Tensor[(128, 64, 3, 3), float32] */;
  %127 = nn.conv2d(%125, %126, strides=[2, 2], padding=[1, 1, 1, 1], channels=128, kernel_size=[3, 3]) /* ty=Tensor[(1, 128, 28, 28), float32] */;
  %128 = annotation.compiler_end(%127, meta[relay.attrs.CompilerAttrs][98]) /* ty=Tensor[(1, 128, 28, 28), float32] */;
  %129 = annotation.compiler_begin(%128, meta[relay.attrs.CompilerAttrs][99]) /* ty=Tensor[(1, 128, 28, 28), float32] */;
  %130 = annotation.compiler_begin(%stage2_unit1_bn2_gamma, meta[relay.attrs.CompilerAttrs][100]) /* ty=Tensor[(128), float32] */;
  %131 = annotation.compiler_begin(%stage2_unit1_bn2_beta, meta[relay.attrs.CompilerAttrs][101]) /* ty=Tensor[(128), float32] */;
  %132 = annotation.compiler_begin(%stage2_unit1_bn2_moving_mean, meta[relay.attrs.CompilerAttrs][102]) /* ty=Tensor[(128), float32] */;
  %133 = annotation.compiler_begin(%stage2_unit1_bn2_moving_var, meta[relay.attrs.CompilerAttrs][103]) /* ty=Tensor[(128), float32] */;
  %134 = nn.batch_norm(%129, %130, %131, %132, %133, epsilon=2e-05f) /* ty=(Tensor[(1, 128, 28, 28), float32], Tensor[(128), float32], Tensor[(128), float32]) */;
  %135 = annotation.compiler_end(%134, meta[relay.attrs.CompilerAttrs][104]) /* ty=(Tensor[(1, 128, 28, 28), float32], Tensor[(128), float32], Tensor[(128), float32]) */;
  %136 = annotation.compiler_begin(%135, meta[relay.attrs.CompilerAttrs][105]) /* ty=(Tensor[(1, 128, 28, 28), float32], Tensor[(128), float32], Tensor[(128), float32]) */;
  %137 = %136.0;
  %138 = annotation.compiler_end(%137, meta[relay.attrs.CompilerAttrs][106]);
  %139 = annotation.compiler_begin(%138, meta[relay.attrs.CompilerAttrs][107]);
  %140 = nn.relu(%139) /* ty=Tensor[(1, 128, 28, 28), float32] */;
  %141 = annotation.compiler_end(%140, meta[relay.attrs.CompilerAttrs][108]) /* ty=Tensor[(1, 128, 28, 28), float32] */;
  %142 = annotation.compiler_begin(%141, meta[relay.attrs.CompilerAttrs][109]) /* ty=Tensor[(1, 128, 28, 28), float32] */;
  %143 = annotation.compiler_begin(%stage2_unit1_conv2_weight, meta[relay.attrs.CompilerAttrs][110]) /* ty=Tensor[(128, 128, 3, 3), float32] */;
  %144 = nn.conv2d(%142, %143, padding=[1, 1, 1, 1], channels=128, kernel_size=[3, 3]) /* ty=Tensor[(1, 128, 28, 28), float32] */;
  %145 = annotation.compiler_end(%144, meta[relay.attrs.CompilerAttrs][111]) /* ty=Tensor[(1, 128, 28, 28), float32] */;
  %146 = annotation.compiler_end(%123, meta[relay.attrs.CompilerAttrs][113]) /* ty=Tensor[(1, 64, 56, 56), float32] */;
  %147 = annotation.compiler_begin(%146, meta[relay.attrs.CompilerAttrs][114]) /* ty=Tensor[(1, 64, 56, 56), float32] */;
  %148 = annotation.compiler_begin(%stage2_unit1_sc_weight, meta[relay.attrs.CompilerAttrs][115]) /* ty=Tensor[(128, 64, 1, 1), float32] */;
  %149 = nn.conv2d(%147, %148, strides=[2, 2], padding=[0, 0, 0, 0], channels=128, kernel_size=[1, 1]) /* ty=Tensor[(1, 128, 28, 28), float32] */;
  %150 = annotation.compiler_end(%149, meta[relay.attrs.CompilerAttrs][116]) /* ty=Tensor[(1, 128, 28, 28), float32] */;
  %151 = annotation.compiler_begin(%145, meta[relay.attrs.CompilerAttrs][112]) /* ty=Tensor[(1, 128, 28, 28), float32] */;
  %152 = annotation.compiler_begin(%150, meta[relay.attrs.CompilerAttrs][117]) /* ty=Tensor[(1, 128, 28, 28), float32] */;
  %153 = add(%151, %152) /* ty=Tensor[(1, 128, 28, 28), float32] */;
  %154 = annotation.compiler_end(%153, meta[relay.attrs.CompilerAttrs][118]) /* ty=Tensor[(1, 128, 28, 28), float32] */;
  %155 = annotation.compiler_begin(%154, meta[relay.attrs.CompilerAttrs][119]) /* ty=Tensor[(1, 128, 28, 28), float32] */;
  %156 = annotation.compiler_begin(%stage2_unit2_bn1_gamma, meta[relay.attrs.CompilerAttrs][120]) /* ty=Tensor[(128), float32] */;
  %157 = annotation.compiler_begin(%stage2_unit2_bn1_beta, meta[relay.attrs.CompilerAttrs][121]) /* ty=Tensor[(128), float32] */;
  %158 = annotation.compiler_begin(%stage2_unit2_bn1_moving_mean, meta[relay.attrs.CompilerAttrs][122]) /* ty=Tensor[(128), float32] */;
  %159 = annotation.compiler_begin(%stage2_unit2_bn1_moving_var, meta[relay.attrs.CompilerAttrs][123]) /* ty=Tensor[(128), float32] */;
  %160 = nn.batch_norm(%155, %156, %157, %158, %159, epsilon=2e-05f) /* ty=(Tensor[(1, 128, 28, 28), float32], Tensor[(128), float32], Tensor[(128), float32]) */;
  %161 = annotation.compiler_end(%160, meta[relay.attrs.CompilerAttrs][124]) /* ty=(Tensor[(1, 128, 28, 28), float32], Tensor[(128), float32], Tensor[(128), float32]) */;
  %162 = annotation.compiler_begin(%161, meta[relay.attrs.CompilerAttrs][125]) /* ty=(Tensor[(1, 128, 28, 28), float32], Tensor[(128), float32], Tensor[(128), float32]) */;
  %163 = %162.0;
  %164 = annotation.compiler_end(%163, meta[relay.attrs.CompilerAttrs][126]);
  %165 = annotation.compiler_begin(%164, meta[relay.attrs.CompilerAttrs][127]);
  %166 = nn.relu(%165) /* ty=Tensor[(1, 128, 28, 28), float32] */;
  %167 = annotation.compiler_end(%166, meta[relay.attrs.CompilerAttrs][128]) /* ty=Tensor[(1, 128, 28, 28), float32] */;
  %168 = annotation.compiler_begin(%167, meta[relay.attrs.CompilerAttrs][129]) /* ty=Tensor[(1, 128, 28, 28), float32] */;
  %169 = annotation.compiler_begin(%stage2_unit2_conv1_weight, meta[relay.attrs.CompilerAttrs][130]) /* ty=Tensor[(128, 128, 3, 3), float32] */;
  %170 = nn.conv2d(%168, %169, padding=[1, 1, 1, 1], channels=128, kernel_size=[3, 3]) /* ty=Tensor[(1, 128, 28, 28), float32] */;
  %171 = annotation.compiler_end(%170, meta[relay.attrs.CompilerAttrs][131]) /* ty=Tensor[(1, 128, 28, 28), float32] */;
  %172 = annotation.compiler_begin(%171, meta[relay.attrs.CompilerAttrs][132]) /* ty=Tensor[(1, 128, 28, 28), float32] */;
  %173 = annotation.compiler_begin(%stage2_unit2_bn2_gamma, meta[relay.attrs.CompilerAttrs][133]) /* ty=Tensor[(128), float32] */;
  %174 = annotation.compiler_begin(%stage2_unit2_bn2_beta, meta[relay.attrs.CompilerAttrs][134]) /* ty=Tensor[(128), float32] */;
  %175 = annotation.compiler_begin(%stage2_unit2_bn2_moving_mean, meta[relay.attrs.CompilerAttrs][135]) /* ty=Tensor[(128), float32] */;
…
dnnl_verbose,exec,cpu,eltwise,jit:avx512_common,forward_inference,data_f32::blocked:abcd:f0 diff_undef::undef::f0,,alg:eltwise_relu alpha:0 beta:0,1x64x56x56,0.0400391
dnnl_verbose,exec,cpu,convolution,gemm:jit,forward_inference,src_f32::blocked:abcd:f0 wei_f32::blocked:abcd:f0 bia_f32::blocked:a:f0 dst_f32::blocked:abcd:f0,,alg:convolution_direct,mb1_ic64oc64_ih56oh56kh3sh1dh0ph1_iw56ow56kw3sw1dw0pw1,6.41821
dnnl_verbose,exec,cpu,batch_normalization,ncsp_bnorm:any,forward_inference,data_f32::blocked:abcd:f0 diff_undef::undef::f0,,flags:GS,mb1ic64ih56iw56,0.14917
dnnl_verbose,exec,cpu,eltwise,jit:avx512_common,forward_inference,data_f32::blocked:abcd:f0 diff_undef::undef::f0,,alg:eltwise_relu alpha:0 beta:0,1x64x56x56,0.0339355
dnnl_verbose,exec,cpu,convolution,gemm:jit,forward_inference,src_f32::blocked:abcd:f0 wei_f32::blocked:abcd:f0 bia_f32::blocked:a:f0 dst_f32::blocked:abcd:f0,,alg:convolution_direct,mb1_ic64oc64_ih56oh56kh3sh1dh0ph1_iw56ow56kw3sw1dw0pw1,7.7229
dnnl_verbose,exec,cpu,convolution,gemm:jit,forward_inference,src_f32::blocked:abcd:f0 wei_f32::blocked:abcd:f0 bia_f32::blocked:a:f0 dst_f32::blocked:abcd:f0,,alg:convolution_direct,mb1_ic64oc64_ih56oh56kh1sh1dh0ph0_iw56ow56kw1sw1dw0pw0,0.137939
dnnl_verbose,exec,cpu,binary,jit:uni,undef,src_f32::blocked:abcd:f0 src_f32::blocked:abcd:f0 dst_f32::blocked:abcd:f0,,alg:binary_add,1x64x56x56:1x64x56x56,0.0759277
dnnl_verbose,exec,cpu,batch_normalization,ncsp_bnorm:any,forward_inference,data_f32::blocked:abcd:f0 diff_undef::undef::f0,,flags:GS,mb1ic64ih56iw56,0.240234
dnnl_verbose,exec,cpu,eltwise,jit:avx512_common,forward_inference,data_f32::blocked:abcd:f0 diff_undef::undef::f0,,alg:eltwise_relu alpha:0 beta:0,1x64x56x56,0.0410156
dnnl_verbose,exec,cpu,convolution,gemm:jit,forward_inference,src_f32::blocked:abcd:f0 wei_f32::blocked:abcd:f0 bia_f32::blocked:a:f0 dst_f32::blocked:abcd:f0,,alg:convolution_direct,mb1_ic64oc64_ih56oh56kh3sh1dh0ph1_iw56ow56kw3sw1dw0pw1,0.76416
dnnl_verbose,exec,cpu,batch_normalization,ncsp_bnorm:any,forward_inference,data_f32::blocked:abcd:f0 diff_undef::undef::f0,,flags:GS,mb1ic64ih56iw56,0.14502
dnnl_verbose,exec,cpu,eltwise,jit:avx512_common,forward_inference,data_f32::blocked:abcd:f0 diff_undef::undef::f0,,alg:eltwise_relu alpha:0 beta:0,1x64x56x56,0.0339355
dnnl_verbose,exec,cpu,convolution,gemm:jit,forward_inference,src_f32::blocked:abcd:f0 wei_f32::blocked:abcd:f0 bia_f32::blocked:a:f0 dst_f32::blocked:abcd:f0,,alg:convolution_direct,mb1_ic64oc64_ih56oh56kh3sh1dh0ph1_iw56ow56kw3sw1dw0pw1,6.68799
dnnl_verbose,exec,cpu,binary,jit:uni,undef,src_f32::blocked:abcd:f0 src_f32::blocked:abcd:f0 dst_f32::blocked:abcd:f0,,alg:binary_add,1x64x56x56:1x64x56x56,0.045166
dnnl_verbose,exec,cpu,batch_normalization,ncsp_bnorm:any,forward_inference,data_f32::blocked:abcd:f0 diff_undef::undef::f0,,flags:GS,mb1ic64ih56iw56,0.240967
dnnl_verbose,exec,cpu,eltwise,jit:avx512_common,forward_inference,data_f32::blocked:abcd:f0 diff_undef::undef::f0,,alg:eltwise_relu alpha:0 beta:0,1x64x56x56,0.0290527
dnnl_verbose,exec,cpu,convolution,gemm:jit,forward_inference,src_f32::blocked:abcd:f0 wei_f32::blocked:abcd:f0 bia_f32::blocked:a:f0 dst_f32::blocked:abcd:f0,,alg:convolution_direct,mb1_ic64oc128_ih56oh28kh3sh2dh0ph1_iw56ow28kw3sw2dw0pw1,0.455078
dnnl_verbose,exec,cpu,batch_normalization,ncsp_bnorm:any,forward_inference,data_f32::blocked:abcd:f0 diff_undef::undef::f0,,flags:GS,mb1ic128ih28iw28,0.0810547
dnnl_verbose,exec,cpu,eltwise,jit:avx512_common,forward_inference,data_f32::blocked:abcd:f0 diff_undef::undef::f0,,alg:eltwise_relu alpha:0 beta:0,1x128x28x28,0.0141602
dnnl_verbose,exec,cpu,convolution,gemm:jit,forward_inference,src_f32::blocked:abcd:f0 wei_f32::blocked:abcd:f0 bia_f32::blocked:a:f0 dst_f32::blocked:abcd:f0,,alg:convolution_direct,mb1_ic128oc128_ih28oh28kh3sh1dh0ph1_iw28ow28kw3sw1dw0pw1,2.80786
dnnl_verbose,exec,cpu,convolution,gemm:jit,forward_inference,src_f32::blocked:abcd:f0 wei_f32::blocked:abcd:f0 bia_f32::blocked:a:f0 dst_f32::blocked:abcd:f0,,alg:convolution_direct,mb1_ic64oc128_ih56oh28kh1sh2dh0ph0_iw56ow28kw1sw2dw0pw0,0.0888672
dnnl_verbose,exec,cpu,binary,jit:uni,undef,src_f32::blocked:abcd:f0 src_f32::blocked:abcd:f0 dst_f32::blocked:abcd:f0,,alg:binary_add,1x128x28x28:1x128x28x28,0.0288086
dnnl_verbose,exec,cpu,batch_normalization,ncsp_bnorm:any,forward_inference,data_f32::blocked:abcd:f0 diff_undef::undef::f0,,flags:GS,mb1ic128ih28iw28,0.0769043
dnnl_verbose,exec,cpu,eltwise,jit:avx512_common,forward_inference,data_f32::blocked:abcd:f0 diff_undef::undef::f0,,alg:eltwise_relu alpha:0 beta:0,1x128x28x28,0.0129395
dnnl_verbose,exec,cpu,convolution,gemm:jit,forward_inference,src_f32::blocked:abcd:f0 wei_f32::blocked:abcd:f0 bia_f32::blocked:a:f0 dst_f32::blocked:abcd:f0,,alg:convolution_direct,mb1_ic128oc128_ih28oh28kh3sh1dh0ph1_iw28ow28kw3sw1dw0pw1,2.22803
dnnl_verbose,exec,cpu,batch_normalization,ncsp_bnorm:any,forward_inference,data_f32::blocked:abcd:f0 diff_undef::undef::f0,,flags:GS,mb1ic128ih28iw28,0.119141
dnnl_verbose,exec,cpu,eltwise,jit:avx512_common,forward_inference,data_f32::blocked:abcd:f0 diff_undef::undef::f0,,alg:eltwise_relu alpha:0 beta:0,1x128x28x28,0.0119629
dnnl_verbose,exec,cpu,convolution,gemm:jit,forward_inference,src_f32::blocked:abcd:f0 wei_f32::blocked:abcd:f0 bia_f32::blocked:a:f0 dst_f32::blocked:abcd:f0,,alg:convolution_direct,mb1_ic128oc128_ih28oh28kh3sh1dh0ph1_iw28ow28kw3sw1dw0pw1,3.23218
dnnl_verbose,exec,cpu,binary,jit:uni,undef,src_f32::blocked:abcd:f0 src_f32::blocked:abcd:f0 dst_f32::blocked:abcd:f0,,alg:binary_add,1x128x28x28:1x128x28x28,0.0290527
dnnl_verbose,exec,cpu,batch_normalization,ncsp_bnorm:any,forward_inference,data_f32::blocked:abcd:f0 diff_undef::undef::f0,,flags:GS,mb1ic128ih28iw28,0.161133
dnnl_verbose,exec,cpu,eltwise,jit:avx512_common,forward_inference,data_f32::blocked:abcd:f0 diff_undef::undef::f0,,alg:eltwise_relu alpha:0 beta:0,1x128x28x28,0.0129395
dnnl_verbose,exec,cpu,convolution,gemm:jit,forward_inference,src_f32::blocked:abcd:f0 wei_f32::blocked:abcd:f0 bia_f32::blocked:a:f0 dst_f32::blocked:abcd:f0,,alg:convolution_direct,mb1_ic128oc256_ih28oh14kh3sh2dh0ph1_iw28ow14kw3sw2dw0pw1,0.513916
dnnl_verbose,exec,cpu,batch_normalization,ncsp_bnorm:any,forward_inference,data_f32::blocked:abcd:f0 diff_undef::undef::f0,,flags:GS,mb1ic256ih14iw14,0.0859375
dnnl_verbose,exec,cpu,eltwise,jit:avx512_common,forward_inference,data_f32::blocked:abcd:f0 diff_undef::undef::f0,,alg:eltwise_relu alpha:0 beta:0,1x256x14x14,0.0109863
dnnl_verbose,exec,cpu,convolution,gemm:jit,forward_inference,src_f32::blocked:abcd:f0 wei_f32::blocked:abcd:f0 bia_f32::blocked:a:f0 dst_f32::blocked:abcd:f0,,alg:convolution_direct,mb1_ic256oc256_ih14oh14kh3sh1dh0ph1_iw14ow14kw3sw1dw0pw1,5.93701
dnnl_verbose,exec,cpu,convolution,gemm:jit,forward_inference,src_f32::blocked:abcd:f0 wei_f32::blocked:abcd:f0 bia_f32::blocked:a:f0 dst_f32::blocked:abcd:f0,,alg:convolution_direct,mb1_ic128oc256_ih28oh14kh1sh2dh0ph0_iw28ow14kw1sw2dw0pw0,0.0878906
dnnl_verbose,exec,cpu,binary,jit:uni,undef,src_f32::blocked:abcd:f0 src_f32::blocked:abcd:f0 dst_f32::blocked:abcd:f0,,alg:binary_add,1x256x14x14:1x256x14x14,0.0209961
dnnl_verbose,exec,cpu,batch_normalization,ncsp_bnorm:any,forward_inference,data_f32::blocked:abcd:f0 diff_undef::undef::f0,,flags:GS,mb1ic256ih14iw14,0.0471191
dnnl_verbose,exec,cpu,eltwise,jit:avx512_common,forward_inference,data_f32::blocked:abcd:f0 diff_undef::undef::f0,,alg:eltwise_relu alpha:0 beta:0,1x256x14x14,0.0090332
dnnl_verbose,exec,cpu,convolution,gemm:jit,forward_inference,src_f32::blocked:abcd:f0 wei_f32::blocked:abcd:f0 bia_f32::blocked:a:f0 dst_f32::blocked:abcd:f0,,alg:convolution_direct,mb1_ic256oc256_ih14oh14kh3sh1dh0ph1_iw14ow14kw3sw1dw0pw1,1.573
dnnl_verbose,exec,cpu,batch_normalization,ncsp_bnorm:any,forward_inference,data_f32::blocked:abcd:f0 diff_undef::undef::f0,,flags:GS,mb1ic256ih14iw14,0.103027
dnnl_verbose,exec,cpu,eltwise,jit:avx512_common,forward_inference,data_f32::blocked:abcd:f0 diff_undef::undef::f0,,alg:eltwise_relu alpha:0 beta:0,1x256x14x14,0.0090332
dnnl_verbose,exec,cpu,convolution,gemm:jit,forward_inference,src_f32::blocked:abcd:f0 wei_f32::blocked:abcd:f0 bia_f32::blocked:a:f0 dst_f32::blocked:abcd:f0,,alg:convolution_direct,mb1_ic256oc256_ih14oh14kh3sh1dh0ph1_iw14ow14kw3sw1dw0pw1,1.38403
dnnl_verbose,exec,cpu,binary,jit:uni,undef,src_f32::blocked:abcd:f0 src_f32::blocked:abcd:f0 dst_f32::blocked:abcd:f0,,alg:binary_add,1x256x14x14:1x256x14x14,0.0219727
dnnl_verbose,exec,cpu,batch_normalization,ncsp_bnorm:any,forward_inference,data_f32::blocked:abcd:f0 diff_undef::undef::f0,,flags:GS,mb1ic256ih14iw14,0.0529785
dnnl_verbose,exec,cpu,eltwise,jit:avx512_common,forward_inference,data_f32::blocked:abcd:f0 diff_undef::undef::f0,,alg:eltwise_relu alpha:0 beta:0,1x256x14x14,0.0090332
dnnl_verbose,exec,cpu,convolution,gemm:jit,forward_inference,src_f32::blocked:abcd:f0 wei_f32::blocked:abcd:f0 bia_f32::blocked:a:f0 dst_f32::blocked:abcd:f0,,alg:convolution_direct,mb1_ic256oc512_ih14oh7kh3sh2dh0ph1_iw14ow7kw3sw2dw0pw1,0.469971
dnnl_verbose,exec,cpu,batch_normalization,ncsp_bnorm:any,forward_inference,data_f32::blocked:abcd:f0 diff_undef::undef::f0,,flags:GS,mb1ic512ih7iw7,0.0290527
dnnl_verbose,exec,cpu,eltwise,jit:avx512_common,forward_inference,data_f32::blocked:abcd:f0 diff_undef::undef::f0,,alg:eltwise_relu alpha:0 beta:0,1x512x7x7,0.00805664
dnnl_verbose,exec,cpu,convolution,gemm:jit,forward_inference,src_f32::blocked:abcd:f0 wei_f32::blocked:abcd:f0 bia_f32::blocked:a:f0 dst_f32::blocked:abcd:f0,,alg:convolution_direct,mb1_ic512oc512_ih7oh7kh3sh1dh0ph1_iw7ow7kw3sw1dw0pw1,0.682861
dnnl_verbose,exec,cpu,convolution,gemm:jit,forward_inference,src_f32::blocked:abcd:f0 wei_f32::blocked:abcd:f0 bia_f32::blocked:a:f0 dst_f32::blocked:abcd:f0,,alg:convolution_direct,mb1_ic256oc512_ih14oh7kh1sh2dh0ph0_iw14ow7kw1sw2dw0pw0,0.0800781
dnnl_verbose,exec,cpu,binary,jit:uni,undef,src_f32::blocked:abcd:f0 src_f32::blocked:abcd:f0 dst_f32::blocked:abcd:f0,,alg:binary_add,1x512x7x7:1x512x7x7,0.0200195
dnnl_verbose,exec,cpu,batch_normalization,ncsp_bnorm:any,forward_inference,data_f32::blocked:abcd:f0 diff_undef::undef::f0,,flags:GS,mb1ic512ih7iw7,0.026123
dnnl_verbose,exec,cpu,eltwise,jit:avx512_common,forward_inference,data_f32::blocked:abcd:f0 diff_undef::undef::f0,,alg:eltwise_relu alpha:0 beta:0,1x512x7x7,0.00708008
dnnl_verbose,exec,cpu,convolution,gemm:jit,forward_inference,src_f32::blocked:abcd:f0 wei_f32::blocked:abcd:f0 bia_f32::blocked:a:f0 dst_f32::blocked:abcd:f0,,alg:convolution_direct,mb1_ic512oc512_ih7oh7kh3sh1dh0ph1_iw7ow7kw3sw1dw0pw1,0.662109
dnnl_verbose,exec,cpu,batch_normalization,ncsp_bnorm:any,forward_inference,data_f32::blocked:abcd:f0 diff_undef::undef::f0,,flags:GS,mb1ic512ih7iw7,0.0268555
dnnl_verbose,exec,cpu,eltwise,jit:avx512_common,forward_inference,data_f32::blocked:abcd:f0 diff_undef::undef::f0,,alg:eltwise_relu alpha:0 beta:0,1x512x7x7,0.00683594
dnnl_verbose,exec,cpu,convolution,gemm:jit,forward_inference,src_f32::blocked:abcd:f0 wei_f32::blocked:abcd:f0 bia_f32::blocked:a:f0 dst_f32::blocked:abcd:f0,,alg:convolution_direct,mb1_ic512oc512_ih7oh7kh3sh1dh0ph1_iw7ow7kw3sw1dw0pw1,0.640137
dnnl_verbose,exec,cpu,binary,jit:uni,undef,src_f32::blocked:abcd:f0 src_f32::blocked:abcd:f0 dst_f32::blocked:abcd:f0,,alg:binary_add,1x512x7x7:1x512x7x7,0.0200195
dnnl_verbose,exec,cpu,batch_normalization,ncsp_bnorm:any,forward_inference,data_f32::blocked:abcd:f0 diff_undef::undef::f0,,flags:GS,mb1ic512ih7iw7,0.0270996
dnnl_verbose,exec,cpu,eltwise,jit:avx512_common,forward_inference,data_f32::blocked:abcd:f0 diff_undef::undef::f0,,alg:eltwise_relu alpha:0 beta:0,1x512x7x7,0.00708008
dnnl_verbose,exec,cpu,inner_product,gemm:jit,forward_inference,src_f32::blocked:ab:f0 wei_f32::blocked:ab:f0 bia_f32::blocked:a:f0 dst_f32::blocked:ab:f0,,,mb1ic512oc1000,0.0690918
dnnl_verbose,exec,cpu,batch_normalization,ncsp_bnorm:any,forward_inference,data_f32::blocked:abcd:f0 diff_undef::undef::f0,,flags:GS,mb1ic3ih224iw224,0.109131
dnnl_verbose,exec,cpu,convolution,gemm:jit,forward_inference,src_f32::blocked:abcd:f0 wei_f32::blocked:abcd:f0 bia_f32::blocked:a:f0 dst_f32::blocked:abcd:f0,,alg:convolution_direct,mb1_ic3oc64_ih224oh112kh7sh2dh0ph3_iw224ow112kw7sw2dw0pw3,3.09692
dnnl_verbose,exec,cpu,batch_normalization,ncsp_bnorm:any,forward_inference,data_f32::blocked:abcd:f0 diff_undef::undef::f0,,flags:GS,mb1ic64ih112iw112,2.12305
dnnl_verbose,exec,cpu,eltwise,jit:avx512_common,forward_inference,data_f32::blocked:abcd:f0 diff_undef::undef::f0,,alg:eltwise_relu alpha:0 beta:0,1x64x112x112,0.103027
dnnl_verbose,exec,cpu,batch_normalization,ncsp_bnorm:any,forward_inference,data_f32::blocked:abcd:f0 diff_undef::undef::f0,,flags:GS,mb1ic64ih56iw56,0.253174
dnnl_verbose,exec,cpu,eltwise,jit:avx512_common,forward_inference,data_f32::blocked:abcd:f0 diff_undef::undef::f0,,alg:eltwise_relu alpha:0 beta:0,1x64x56x56,0.0410156
dnnl_verbose,exec,cpu,convolution,gemm:jit,forward_inference,src_f32::blocked:abcd:f0 wei_f32::blocked:abcd:f0 bia_f32::blocked:a:f0 dst_f32::blocked:abcd:f0,,alg:convolution_direct,mb1_ic64oc64_ih56oh56kh3sh1dh0ph1_iw56ow56kw3sw1dw0pw1,6.88892
dnnl_verbose,exec,cpu,batch_normalization,ncsp_bnorm:any,forward_inference,data_f32::blocked:abcd:f0 diff_undef::undef::f0,,flags:GS,mb1ic64ih56iw56,0.1521
dnnl_verbose,exec,cpu,eltwise,jit:avx512_common,forward_inference,data_f32::blocked:abcd:f0 diff_undef::undef::f0,,alg:eltwise_relu alpha:0 beta:0,1x64x56x56,0.0349121
dnnl_verbose,exec,cpu,convolution,gemm:jit,forward_inference,src_f32::blocked:abcd:f0 wei_f32::blocked:abcd:f0 bia_f32::blocked:a:f0 dst_f32::blocked:abcd:f0,,alg:convolution_direct,mb1_ic64oc64_ih56oh56kh3sh1dh0ph1_iw56ow56kw3sw1dw0pw1,8.54907
dnnl_verbose,exec,cpu,convolution,gemm:jit,forward_inference,src_f32::blocked:abcd:f0 wei_f32::blocked:abcd:f0 bia_f32::blocked:a:f0 dst_f32::blocked:abcd:f0,,alg:convolution_direct,mb1_ic64oc64_ih56oh56kh1sh1dh0ph0_iw56ow56kw1sw1dw0pw0,0.156006
dnnl_verbose,exec,cpu,binary,jit:uni,undef,src_f32::blocked:abcd:f0 src_f32::blocked:abcd:f0 dst_f32::blocked:abcd:f0,,alg:binary_add,1x64x56x56:1x64x56x56,0.0620117
dnnl_verbose,exec,cpu,batch_normalization,ncsp_bnorm:any,forward_inference,data_f32::blocked:abcd:f0 diff_undef::undef::f0,,flags:GS,mb1ic64ih56iw56,0.23999
dnnl_verbose,exec,cpu,eltwise,jit:avx512_common,forward_inference,data_f32::blocked:abcd:f0 diff_undef::undef::f0,,alg:eltwise_relu alpha:0 beta:0,1x64x56x56,0.0268555
dnnl_verbose,exec,cpu,convolution,gemm:jit,forward_inference,src_f32::blocked:abcd:f0 wei_f32::blocked:abcd:f0 bia_f32::blocked:a:f0 dst_f32::blocked:abcd:f0,,alg:convolution_direct,mb1_ic64oc64_ih56oh56kh3sh1dh0ph1_iw56ow56kw3sw1dw0pw1,0.937012
dnnl_verbose,exec,cpu,batch_normalization,ncsp_bnorm:any,forward_inference,data_f32::blocked:abcd:f0 diff_undef::undef::f0,,flags:GS,mb1ic64ih56iw56,0.146973
dnnl_verbose,exec,cpu,eltwise,jit:avx512_common,forward_inference,data_f32::blocked:abcd:f0 diff_undef::undef::f0,,alg:eltwise_relu alpha:0 beta:0,1x64x56x56,0.0219727
dnnl_verbose,exec,cpu,convolution,gemm:jit,forward_inference,src_f32::blocked:abcd:f0 wei_f32::blocked:abcd:f0 bia_f32::blocked:a:f0 dst_f32::blocked:abcd:f0,,alg:convolution_direct,mb1_ic64oc64_ih56oh56kh3sh1dh0ph1_iw56ow56kw3sw1dw0pw1,6.99512
dnnl_verbose,exec,cpu,binary,jit:uni,undef,src_f32::blocked:abcd:f0 src_f32::blocked:abcd:f0 dst_f32::blocked:abcd:f0,,alg:binary_add,1x64x56x56:1x64x56x56,0.0510254
dnnl_verbose,exec,cpu,batch_normalization,ncsp_bnorm:any,forward_inference,data_f32::blocked:abcd:f0 diff_undef::undef::f0,,flags:GS,mb1ic64ih56iw56,0.240234
dnnl_verbose,exec,cpu,eltwise,jit:avx512_common,forward_inference,data_f32::blocked:abcd:f0 diff_undef::undef::f0,,alg:eltwise_relu alpha:0 beta:0,1x64x56x56,0.026123
dnnl_verbose,exec,cpu,convolution,gemm:jit,forward_inference,src_f32::blocked:abcd:f0 wei_f32::blocked:abcd:f0 bia_f32::blocked:a:f0 dst_f32::blocked:abcd:f0,,alg:convolution_direct,mb1_ic64oc128_ih56oh28kh3sh2dh0ph1_iw56ow28kw3sw2dw0pw1,0.459961
dnnl_verbose,exec,cpu,batch_normalization,ncsp_bnorm:any,forward_inference,data_f32::blocked:abcd:f0 diff_undef::undef::f0,,flags:GS,mb1ic128ih28iw28,0.0842285
dnnl_verbose,exec,cpu,eltwise,jit:avx512_common,forward_inference,data_f32::blocked:abcd:f0 diff_undef::undef::f0,,alg:eltwise_relu alpha:0 beta:0,1x128x28x28,0.013916
dnnl_verbose,exec,cpu,convolution,gemm:jit,forward_inference,src_f32::blocked:abcd:f0 wei_f32::blocked:abcd:f0 bia_f32::blocked:a:f0 dst_f32::blocked:abcd:f0,,alg:convolution_direct,mb1_ic128oc128_ih28oh28kh3sh1dh0ph1_iw28ow28kw3sw1dw0pw1,2.78613
dnnl_verbose,exec,cpu,convolution,gemm:jit,forward_inference,src_f32::blocked:abcd:f0 wei_f32::blocked:abcd:f0 bia_f32::blocked:a:f0 dst_f32::blocked:abcd:f0,,alg:convolution_direct,mb1_ic64oc128_ih56oh28kh1sh2dh0ph0_iw56ow28kw1sw2dw0pw0,0.0891113
dnnl_verbose,exec,cpu,binary,jit:uni,undef,src_f32::blocked:abcd:f0 src_f32::blocked:abcd:f0 dst_f32::blocked:abcd:f0,,alg:binary_add,1x128x28x28:1x128x28x28,0.032959
dnnl_verbose,exec,cpu,batch_normalization,ncsp_bnorm:any,forward_inference,data_f32::blocked:abcd:f0 diff_undef::undef::f0,,flags:GS,mb1ic128ih28iw28,0.0759277
dnnl_verbose,exec,cpu,eltwise,jit:avx512_common,forward_inference,data_f32::blocked:abcd:f0 diff_undef::undef::f0,,alg:eltwise_relu alpha:0 beta:0,1x128x28x28,0.0119629
dnnl_verbose,exec,cpu,convolution,gemm:jit,forward_inference,src_f32::blocked:abcd:f0 wei_f32::blocked:abcd:f0 bia_f32::blocked:a:f0 dst_f32::blocked:abcd:f0,,alg:convolution_direct,mb1_ic128oc128_ih28oh28kh3sh1dh0ph1_iw28ow28kw3sw1dw0pw1,2.25903
dnnl_verbose,exec,cpu,batch_normalization,ncsp_bnorm:any,forward_inference,data_f32::blocked:abcd:f0 diff_undef::undef::f0,,flags:GS,mb1ic128ih28iw28,0.120117
dnnl_verbose,exec,cpu,eltwise,jit:avx512_common,forward_inference,data_f32::blocked:abcd:f0 diff_undef::undef::f0,,alg:eltwise_relu alpha:0 beta:0,1x128x28x28,0.012207
dnnl_verbose,exec,cpu,convolution,gemm:jit,forward_inference,src_f32::blocked:abcd:f0 wei_f32::blocked:abcd:f0 bia_f32::blocked:a:f0 dst_f32::blocked:abcd:f0,,alg:convolution_direct,mb1_ic128oc128_ih28oh28kh3sh1dh0ph1_iw28ow28kw3sw1dw0pw1,3.22192
dnnl_verbose,exec,cpu,binary,jit:uni,undef,src_f32::blocked:abcd:f0 src_f32::blocked:abcd:f0 dst_f32::blocked:abcd:f0,,alg:binary_add,1x128x28x28:1x128x28x28,0.0280762
dnnl_verbose,exec,cpu,batch_normalization,ncsp_bnorm:any,forward_inference,data_f32::blocked:abcd:f0 diff_undef::undef::f0,,flags:GS,mb1ic128ih28iw28,0.162109
dnnl_verbose,exec,cpu,eltwise,jit:avx512_common,forward_inference,data_f32::blocked:abcd:f0 diff_undef::undef::f0,,alg:eltwise_relu alpha:0 beta:0,1x128x28x28,0.0119629
dnnl_verbose,exec,cpu,convolution,gemm:jit,forward_inference,src_f32::blocked:abcd:f0 wei_f32::blocked:abcd:f0 bia_f32::blocked:a:f0 dst_f32::blocked:abcd:f0,,alg:convolution_direct,mb1_ic128oc256_ih28oh14kh3sh2dh0ph1_iw28ow14kw3sw2dw0pw1,0.50708
dnnl_verbose,exec,cpu,batch_normalization,ncsp_bnorm:any,forward_inference,data_f32::blocked:abcd:f0 diff_undef::undef::f0,,flags:GS,mb1ic256ih14iw14,0.0849609
dnnl_verbose,exec,cpu,eltwise,jit:avx512_common,forward_inference,data_f32::blocked:abcd:f0 diff_undef::undef::f0,,alg:eltwise_relu alpha:0 beta:0,1x256x14x14,0.0100098
dnnl_verbose,exec,cpu,convolution,gemm:jit,forward_inference,src_f32::blocked:abcd:f0 wei_f32::blocked:abcd:f0 bia_f32::blocked:a:f0 dst_f32::blocked:abcd:f0,,alg:convolution_direct,mb1_ic256oc256_ih14oh14kh3sh1dh0ph1_iw14ow14kw3sw1dw0pw1,5.96094
dnnl_verbose,exec,cpu,convolution,gemm:jit,forward_inference,src_f32::blocked:abcd:f0 wei_f32::blocked:abcd:f0 bia_f32::blocked:a:f0 dst_f32::blocked:abcd:f0,,alg:convolution_direct,mb1_ic128oc256_ih28oh14kh1sh2dh0ph0_iw28ow14kw1sw2dw0pw0,0.0942383
dnnl_verbose,exec,cpu,binary,jit:uni,undef,src_f32::blocked:abcd:f0 src_f32::blocked:abcd:f0 dst_f32::blocked:abcd:f0,,alg:binary_add,1x256x14x14:1x256x14x14,0.0209961
dnnl_verbose,exec,cpu,batch_normalization,ncsp_bnorm:any,forward_inference,data_f32::blocked:abcd:f0 diff_undef::undef::f0,,flags:GS,mb1ic256ih14iw14,0.046875
dnnl_verbose,exec,cpu,eltwise,jit:avx512_common,forward_inference,data_f32::blocked:abcd:f0 diff_undef::undef::f0,,alg:eltwise_relu alpha:0 beta:0,1x256x14x14,0.0090332
dnnl_verbose,exec,cpu,convolution,gemm:jit,forward_inference,src_f32::blocked:abcd:f0 wei_f32::blocked:abcd:f0 bia_f32::blocked:a:f0 dst_f32::blocked:abcd:f0,,alg:convolution_direct,mb1_ic256oc256_ih14oh14kh3sh1dh0ph1_iw14ow14kw3sw1dw0pw1,1.49585
dnnl_verbose,exec,cpu,batch_normalization,ncsp_bnorm:any,forward_inference,data_f32::blocked:abcd:f0 diff_undef::undef::f0,,flags:GS,mb1ic256ih14iw14,0.10498
dnnl_verbose,exec,cpu,eltwise,jit:avx512_common,forward_inference,data_f32::blocked:abcd:f0 diff_undef::undef::f0,,alg:eltwise_relu alpha:0 beta:0,1x256x14x14,0.0090332
dnnl_verbose,exec,cpu,convolution,gemm:jit,forward_inference,src_f32::blocked:abcd:f0 wei_f32::blocked:abcd:f0 bia_f32::blocked:a:f0 dst_f32::blocked:abcd:f0,,alg:convolution_direct,mb1_ic256oc256_ih14oh14kh3sh1dh0ph1_iw14ow14kw3sw1dw0pw1,1.51807
dnnl_verbose,exec,cpu,binary,jit:uni,undef,src_f32::blocked:abcd:f0 src_f32::blocked:abcd:f0 dst_f32::blocked:abcd:f0,,alg:binary_add,1x256x14x14:1x256x14x14,0.0219727
dnnl_verbose,exec,cpu,batch_normalization,ncsp_bnorm:any,forward_inference,data_f32::blocked:abcd:f0 diff_undef::undef::f0,,flags:GS,mb1ic256ih14iw14,0.0529785
dnnl_verbose,exec,cpu,eltwise,jit:avx512_common,forward_inference,data_f32::blocked:abcd:f0 diff_undef::undef::f0,,alg:eltwise_relu alpha:0 beta:0,1x256x14x14,0.0090332
dnnl_verbose,exec,cpu,convolution,gemm:jit,forward_inference,src_f32::blocked:abcd:f0 wei_f32::blocked:abcd:f0 bia_f32::blocked:a:f0 dst_f32::blocked:abcd:f0,,alg:convolution_direct,mb1_ic256oc512_ih14oh7kh3sh2dh0ph1_iw14ow7kw3sw2dw0pw1,0.471924
dnnl_verbose,exec,cpu,batch_normalization,ncsp_bnorm:any,forward_inference,data_f32::blocked:abcd:f0 diff_undef::undef::f0,,flags:GS,mb1ic512ih7iw7,0.0349121
dnnl_verbose,exec,cpu,eltwise,jit:avx512_common,forward_inference,data_f32::blocked:abcd:f0 diff_undef::undef::f0,,alg:eltwise_relu alpha:0 beta:0,1x512x7x7,0.00683594
dnnl_verbose,exec,cpu,convolution,gemm:jit,forward_inference,src_f32::blocked:abcd:f0 wei_f32::blocked:abcd:f0 bia_f32::blocked:a:f0 dst_f32::blocked:abcd:f0,,alg:convolution_direct,mb1_ic512oc512_ih7oh7kh3sh1dh0ph1_iw7ow7kw3sw1dw0pw1,0.655029
dnnl_verbose,exec,cpu,convolution,gemm:jit,forward_inference,src_f32::blocked:abcd:f0 wei_f32::blocked:abcd:f0 bia_f32::blocked:a:f0 dst_f32::blocked:abcd:f0,,alg:convolution_direct,mb1_ic256oc512_ih14oh7kh1sh2dh0ph0_iw14ow7kw1sw2dw0pw0,0.0749512
dnnl_verbose,exec,cpu,binary,jit:uni,undef,src_f32::blocked:abcd:f0 src_f32::blocked:abcd:f0 dst_f32::blocked:abcd:f0,,alg:binary_add,1x512x7x7:1x512x7x7,0.0200195
dnnl_verbose,exec,cpu,batch_normalization,ncsp_bnorm:any,forward_inference,data_f32::blocked:abcd:f0 diff_undef::undef::f0,,flags:GS,mb1ic512ih7iw7,0.026123
dnnl_verbose,exec,cpu,eltwise,jit:avx512_common,forward_inference,data_f32::blocked:abcd:f0 diff_undef::undef::f0,,alg:eltwise_relu alpha:0 beta:0,1x512x7x7,0.00805664
dnnl_verbose,exec,cpu,convolution,gemm:jit,forward_inference,src_f32::blocked:abcd:f0 wei_f32::blocked:abcd:f0 bia_f32::blocked:a:f0 dst_f32::blocked:abcd:f0,,alg:convolution_direct,mb1_ic512oc512_ih7oh7kh3sh1dh0ph1_iw7ow7kw3sw1dw0pw1,0.644043
dnnl_verbose,exec,cpu,batch_normalization,ncsp_bnorm:any,forward_inference,data_f32::blocked:abcd:f0 diff_undef::undef::f0,,flags:GS,mb1ic512ih7iw7,0.0300293
dnnl_verbose,exec,cpu,eltwise,jit:avx512_common,forward_inference,data_f32::blocked:abcd:f0 diff_undef::undef::f0,,alg:eltwise_relu alpha:0 beta:0,1x512x7x7,0.00683594
dnnl_verbose,exec,cpu,convolution,gemm:jit,forward_inference,src_f32::blocked:abcd:f0 wei_f32::blocked:abcd:f0 bia_f32::blocked:a:f0 dst_f32::blocked:abcd:f0,,alg:convolution_direct,mb1_ic512oc512_ih7oh7kh3sh1dh0ph1_iw7ow7kw3sw1dw0pw1,0.648193
dnnl_verbose,exec,cpu,binary,jit:uni,undef,src_f32::blocked:abcd:f0 src_f32::blocked:abcd:f0 dst_f32::blocked:abcd:f0,,alg:binary_add,1x512x7x7:1x512x7x7,0.0209961
dnnl_verbose,exec,cpu,batch_normalization,ncsp_bnorm:any,forward_inference,data_f32::blocked:abcd:f0 diff_undef::undef::f0,,flags:GS,mb1ic512ih7iw7,0.0270996
dnnl_verbose,exec,cpu,eltwise,jit:avx512_common,forward_inference,data_f32::blocked:abcd:f0 diff_undef::undef::f0,,alg:eltwise_relu alpha:0 beta:0,1x512x7x7,0.0078125
dnnl_verbose,exec,cpu,inner_product,gemm:jit,forward_inference,src_f32::blocked:ab:f0 wei_f32::blocked:ab:f0 bia_f32::blocked:a:f0 dst_f32::blocked:ab:f0,,,mb1ic512oc1000,0.0620117
dnnl_verbose,exec,cpu,batch_normalization,ncsp_bnorm:any,forward_inference,data_f32::blocked:abcd:f0 diff_undef::undef::f0,,flags:GS,mb1ic3ih224iw224,0.101807
dnnl_verbose,exec,cpu,convolution,gemm:jit,forward_inference,src_f32::blocked:abcd:f0 wei_f32::blocked:abcd:f0 bia_f32::blocked:a:f0 dst_f32::blocked:abcd:f0,,alg:convolution_direct,mb1_ic3oc64_ih224oh112kh7sh2dh0ph3_iw224ow112kw7sw2dw0pw3,3.11499
dnnl_verbose,exec,cpu,batch_normalization,ncsp_bnorm:any,forward_inference,data_f32::blocked:abcd:f0 diff_undef::undef::f0,,flags:GS,mb1ic64ih112iw112,2.13086
dnnl_verbose,exec,cpu,eltwise,jit:avx512_common,forward_inference,data_f32::blocked:abcd:f0 diff_undef::undef::f0,,alg:eltwise_relu alpha:0 beta:0,1x64x112x112,0.098877
dnnl_verbose,exec,cpu,batch_normalization,ncsp_bnorm:any,forward_inference,data_f32::blocked:abcd:f0 diff_undef::undef::f0,,flags:GS,mb1ic64ih56iw56,0.24585
dnnl_verbose,exec,cpu,eltwise,jit:avx512_common,forward_inference,data_f32::blocked:abcd:f0 diff_undef::undef::f0,,alg:eltwise_relu alpha:0 beta:0,1x64x56x56,0.0349121
dnnl_verbose,exec,cpu,convolution,gemm:jit,forward_inference,src_f32::blocked:abcd:f0 wei_f32::blocked:abcd:f0 bia_f32::blocked:a:f0 dst_f32::blocked:abcd:f0,,alg:convolution_direct,mb1_ic64oc64_ih56oh56kh3sh1dh0ph1_iw56ow56kw3sw1dw0pw1,6.396
dnnl_verbose,exec,cpu,batch_normalization,ncsp_bnorm:any,forward_inference,data_f32::blocked:abcd:f0 diff_undef::undef::f0,,flags:GS,mb1ic64ih56iw56,0.150146
dnnl_verbose,exec,cpu,eltwise,jit:avx512_common,forward_inference,data_f32::blocked:abcd:f0 diff_undef::undef::f0,,alg:eltwise_relu alpha:0 beta:0,1x64x56x56,0.0368652
dnnl_verbose,exec,cpu,convolution,gemm:jit,forward_inference,src_f32::blocked:abcd:f0 wei_f32::blocked:abcd:f0 bia_f32::blocked:a:f0 dst_f32::blocked:abcd:f0,,alg:convolution_direct,mb1_ic64oc64_ih56oh56kh3sh1dh0ph1_iw56ow56kw3sw1dw0pw1,7.72021
dnnl_verbose,exec,cpu,convolution,gemm:jit,forward_inference,src_f32::blocked:abcd:f0 wei_f32::blocked:abcd:f0 bia_f32::blocked:a:f0 dst_f32::blocked:abcd:f0,,alg:convolution_direct,mb1_ic64oc64_ih56oh56kh1sh1dh0ph0_iw56ow56kw1sw1dw0pw0,0.13916
dnnl_verbose,exec,cpu,binary,jit:uni,undef,src_f32::blocked:abcd:f0 src_f32::blocked:abcd:f0 dst_f32::blocked:abcd:f0,,alg:binary_add,1x64x56x56:1x64x56x56,0.0761719
dnnl_verbose,exec,cpu,batch_normalization,ncsp_bnorm:any,forward_inference,data_f32::blocked:abcd:f0 diff_undef::undef::f0,,flags:GS,mb1ic64ih56iw56,0.240967
dnnl_verbose,exec,cpu,eltwise,jit:avx512_common,forward_inference,data_f32::blocked:abcd:f0 diff_undef::undef::f0,,alg:eltwise_relu alpha:0 beta:0,1x64x56x56,0.0358887
dnnl_verbose,exec,cpu,convolution,gemm:jit,forward_inference,src_f32::blocked:abcd:f0 wei_f32::blocked:abcd:f0 bia_f32::blocked:a:f0 dst_f32::blocked:abcd:f0,,alg:convolution_direct,mb1_ic64oc64_ih56oh56kh3sh1dh0ph1_iw56ow56kw3sw1dw0pw1,0.71582
dnnl_verbose,exec,cpu,batch_normalization,ncsp_bnorm:any,forward_inference,data_f32::blocked:abcd:f0 diff_undef::undef::f0,,flags:GS,mb1ic64ih56iw56,0.147949
dnnl_verbose,exec,cpu,eltwise,jit:avx512_common,forward_inference,data_f32::blocked:abcd:f0 diff_undef::undef::f0,,alg:eltwise_relu alpha:0 beta:0,1x64x56x56,0.026123
dnnl_verbose,exec,cpu,convolution,gemm:jit,forward_inference,src_f32::blocked:abcd:f0 wei_f32::blocked:abcd:f0 bia_f32::blocked:a:f0 dst_f32::blocked:abcd:f0,,alg:convolution_direct,mb1_ic64oc64_ih56oh56kh3sh1dh0ph1_iw56ow56kw3sw1dw0pw1,6.68408
dnnl_verbose,exec,cpu,binary,jit:uni,undef,src_f32::blocked:abcd:f0 src_f32::blocked:abcd:f0 dst_f32::blocked:abcd:f0,,alg:binary_add,1x64x56x56:1x64x56x56,0.0419922
dnnl_verbose,exec,cpu,batch_normalization,ncsp_bnorm:any,forward_inference,data_f32::blocked:abcd:f0 diff_undef::undef::f0,,flags:GS,mb1ic64ih56iw56,0.238037
dnnl_verbose,exec,cpu,eltwise,jit:avx512_common,forward_inference,data_f32::blocked:abcd:f0 diff_undef::undef::f0,,alg:eltwise_relu alpha:0 beta:0,1x64x56x56,0.0280762
dnnl_verbose,exec,cpu,convolution,gemm:jit,forward_inference,src_f32::blocked:abcd:f0 wei_f32::blocked:abcd:f0 bia_f32::blocked:a:f0 dst_f32::blocked:abcd:f0,,alg:convolution_direct,mb1_ic64oc128_ih56oh28kh3sh2dh0ph1_iw56ow28kw3sw2dw0pw1,0.452881
dnnl_verbose,exec,cpu,batch_normalization,ncsp_bnorm:any,forward_inference,data_f32::blocked:abcd:f0 diff_undef::undef::f0,,flags:GS,mb1ic128ih28iw28,0.0810547
dnnl_verbose,exec,cpu,eltwise,jit:avx512_common,forward_inference,data_f32::blocked:abcd:f0 diff_undef::undef::f0,,alg:eltwise_relu alpha:0 beta:0,1x128x28x28,0.013916
dnnl_verbose,exec,cpu,convolution,gemm:jit,forward_inference,src_f32::blocked:abcd:f0 wei_f32::blocked:abcd:f0 bia_f32::blocked:a:f0 dst_f32::blocked:abcd:f0,,alg:convolution_direct,mb1_ic128oc128_ih28oh28kh3sh1dh0ph1_iw28ow28kw3sw1dw0pw1,2.80103
dnnl_verbose,exec,cpu,convolution,gemm:jit,forward_inference,src_f32::blocked:abcd:f0 wei_f32::blocked:abcd:f0 bia_f32::blocked:a:f0 dst_f32::blocked:abcd:f0,,alg:convolution_direct,mb1_ic64oc128_ih56oh28kh1sh2dh0ph0_iw56ow28kw1sw2dw0pw0,0.0859375
dnnl_verbose,exec,cpu,binary,jit:uni,undef,src_f32::blocked:abcd:f0 src_f32::blocked:abcd:f0 dst_f32::blocked:abcd:f0,,alg:binary_add,1x128x28x28:1x128x28x28,0.027832
dnnl_verbose,exec,cpu,batch_normalization,ncsp_bnorm:any,forward_inference,data_f32::blocked:abcd:f0 diff_undef::undef::f0,,flags:GS,mb1ic128ih28iw28,0.0759277
dnnl_verbose,exec,cpu,eltwise,jit:avx512_common,forward_inference,data_f32::blocked:abcd:f0 diff_undef::undef::f0,,alg:eltwise_relu alpha:0 beta:0,1x128x28x28,0.0119629
dnnl_verbose,exec,cpu,convolution,gemm:jit,forward_inference,src_f32::blocked:abcd:f0 wei_f32::blocked:abcd:f0 bia_f32::blocked:a:f0 dst_f32::blocked:abcd:f0,,alg:convolution_direct,mb1_ic128oc128_ih28oh28kh3sh1dh0ph1_iw28ow28kw3sw1dw0pw1,2.21997
dnnl_verbose,exec,cpu,batch_normalization,ncsp_bnorm:any,forward_inference,data_f32::blocked:abcd:f0 diff_undef::undef::f0,,flags:GS,mb1ic128ih28iw28,0.120117
dnnl_verbose,exec,cpu,eltwise,jit:avx512_common,forward_inference,data_f32::blocked:abcd:f0 diff_undef::undef::f0,,alg:eltwise_relu alpha:0 beta:0,1x128x28x28,0.012207
dnnl_verbose,exec,cpu,convolution,gemm:jit,forward_inference,src_f32::blocked:abcd:f0 wei_f32::blocked:abcd:f0 bia_f32::blocked:a:f0 dst_f32::blocked:abcd:f0,,alg:convolution_direct,mb1_ic128oc128_ih28oh28kh3sh1dh0ph1_iw28ow28kw3sw1dw0pw1,3.23096
dnnl_verbose,exec,cpu,binary,jit:uni,undef,src_f32::blocked:abcd:f0 src_f32::blocked:abcd:f0 dst_f32::blocked:abcd:f0,,alg:binary_add,1x128x28x28:1x128x28x28,0.0280762
dnnl_verbose,exec,cpu,batch_normalization,ncsp_bnorm:any,forward_inference,data_f32::blocked:abcd:f0 diff_undef::undef::f0,,flags:GS,mb1ic128ih28iw28,0.161133
dnnl_verbose,exec,cpu,eltwise,jit:avx512_common,forward_inference,data_f32::blocked:abcd:f0 diff_undef::undef::f0,,alg:eltwise_relu alpha:0 beta:0,1x128x28x28,0.0129395
dnnl_verbose,exec,cpu,convolution,gemm:jit,forward_inference,src_f32::blocked:abcd:f0 wei_f32::blocked:abcd:f0 bia_f32::blocked:a:f0 dst_f32::blocked:abcd:f0,,alg:convolution_direct,mb1_ic128oc256_ih28oh14kh3sh2dh0ph1_iw28ow14kw3sw2dw0pw1,0.52002
dnnl_verbose,exec,cpu,batch_normalization,ncsp_bnorm:any,forward_inference,data_f32::blocked:abcd:f0 diff_undef::undef::f0,,flags:GS,mb1ic256ih14iw14,0.0852051
dnnl_verbose,exec,cpu,eltwise,jit:avx512_common,forward_inference,data_f32::blocked:abcd:f0 diff_undef::undef::f0,,alg:eltwise_relu alpha:0 beta:0,1x256x14x14,0.0100098
dnnl_verbose,exec,cpu,convolution,gemm:jit,forward_inference,src_f32::blocked:abcd:f0 wei_f32::blocked:abcd:f0 bia_f32::blocked:a:f0 dst_f32::blocked:abcd:f0,,alg:convolution_direct,mb1_ic256oc256_ih14oh14kh3sh1dh0ph1_iw14ow14kw3sw1dw0pw1,5.9231
dnnl_verbose,exec,cpu,convolution,gemm:jit,forward_inference,src_f32::blocked:abcd:f0 wei_f32::blocked:abcd:f0 bia_f32::blocked:a:f0 dst_f32::blocked:abcd:f0,,alg:convolution_direct,mb1_ic128oc256_ih28oh14kh1sh2dh0ph0_iw28ow14kw1sw2dw0pw0,0.0881348
dnnl_verbose,exec,cpu,binary,jit:uni,undef,src_f32::blocked:abcd:f0 src_f32::blocked:abcd:f0 dst_f32::blocked:abcd:f0,,alg:binary_add,1x256x14x14:1x256x14x14,0.0200195
dnnl_verbose,exec,cpu,batch_normalization,ncsp_bnorm:any,forward_inference,data_f32::blocked:abcd:f0 diff_undef::undef::f0,,flags:GS,mb1ic256ih14iw14,0.0498047
dnnl_verbose,exec,cpu,eltwise,jit:avx512_common,forward_inference,data_f32::blocked:abcd:f0 diff_undef::undef::f0,,alg:eltwise_relu alpha:0 beta:0,1x256x14x14,0.0090332
dnnl_verbose,exec,cpu,convolution,gemm:jit,forward_inference,src_f32::blocked:abcd:f0 wei_f32::blocked:abcd:f0 bia_f32::blocked:a:f0 dst_f32::blocked:abcd:f0,,alg:convolution_direct,mb1_ic256oc256_ih14oh14kh3sh1dh0ph1_iw14ow14kw3sw1dw0pw1,1.52588
dnnl_verbose,exec,cpu,batch_normalization,ncsp_bnorm:any,forward_inference,data_f32::blocked:abcd:f0 diff_undef::undef::f0,,flags:GS,mb1ic256ih14iw14,0.103027
dnnl_verbose,exec,cpu,eltwise,jit:avx512_common,forward_inference,data_f32::blocked:abcd:f0 diff_undef::undef::f0,,alg:eltwise_relu alpha:0 beta:0,1x256x14x14,0.0100098
dnnl_verbose,exec,cpu,convolution,gemm:jit,forward_inference,src_f32::blocked:abcd:f0 wei_f32::blocked:abcd:f0 bia_f32::blocked:a:f0 dst_f32::blocked:abcd:f0,,alg:convolution_direct,mb1_ic256oc256_ih14oh14kh3sh1dh0ph1_iw14ow14kw3sw1dw0pw1,1.39697
dnnl_verbose,exec,cpu,binary,jit:uni,undef,src_f32::blocked:abcd:f0 src_f32::blocked:abcd:f0 dst_f32::blocked:abcd:f0,,alg:binary_add,1x256x14x14:1x256x14x14,0.0209961
dnnl_verbose,exec,cpu,batch_normalization,ncsp_bnorm:any,forward_inference,data_f32::blocked:abcd:f0 diff_undef::undef::f0,,flags:GS,mb1ic256ih14iw14,0.0529785
dnnl_verbose,exec,cpu,eltwise,jit:avx512_common,forward_inference,data_f32::blocked:abcd:f0 diff_undef::undef::f0,,alg:eltwise_relu alpha:0 beta:0,1x256x14x14,0.00805664
dnnl_verbose,exec,cpu,convolution,gemm:jit,forward_inference,src_f32::blocked:abcd:f0 wei_f32::blocked:abcd:f0 bia_f32::blocked:a:f0 dst_f32::blocked:abcd:f0,,alg:convolution_direct,mb1_ic256oc512_ih14oh7kh3sh2dh0ph1_iw14ow7kw3sw2dw0pw1,0.474854
dnnl_verbose,exec,cpu,batch_normalization,ncsp_bnorm:any,forward_inference,data_f32::blocked:abcd:f0 diff_undef::undef::f0,,flags:GS,mb1ic512ih7iw7,0.0288086
dnnl_verbose,exec,cpu,eltwise,jit:avx512_common,forward_inference,data_f32::blocked:abcd:f0 diff_undef::undef::f0,,alg:eltwise_relu alpha:0 beta:0,1x512x7x7,0.00708008
dnnl_verbose,exec,cpu,convolution,gemm:jit,forward_inference,src_f32::blocked:abcd:f0 wei_f32::blocked:abcd:f0 bia_f32::blocked:a:f0 dst_f32::blocked:abcd:f0,,alg:convolution_direct,mb1_ic512oc512_ih7oh7kh3sh1dh0ph1_iw7ow7kw3sw1dw0pw1,0.708984
dnnl_verbose,exec,cpu,convolution,gemm:jit,forward_inference,src_f32::blocked:abcd:f0 wei_f32::blocked:abcd:f0 bia_f32::blocked:a:f0 dst_f32::blocked:abcd:f0,,alg:convolution_direct,mb1_ic256oc512_ih14oh7kh1sh2dh0ph0_iw14ow7kw1sw2dw0pw0,0.0749512
dnnl_verbose,exec,cpu,binary,jit:uni,undef,src_f32::blocked:abcd:f0 src_f32::blocked:abcd:f0 dst_f32::blocked:abcd:f0,,alg:binary_add,1x512x7x7:1x512x7x7,0.019043
dnnl_verbose,exec,cpu,batch_normalization,ncsp_bnorm:any,forward_inference,data_f32::blocked:abcd:f0 diff_undef::undef::f0,,flags:GS,mb1ic512ih7iw7,0.026123
dnnl_verbose,exec,cpu,eltwise,jit:avx512_common,forward_inference,data_f32::blocked:abcd:f0 diff_undef::undef::f0,,alg:eltwise_relu alpha:0 beta:0,1x512x7x7,0.00708008
dnnl_verbose,exec,cpu,convolution,gemm:jit,forward_inference,src_f32::blocked:abcd:f0 wei_f32::blocked:abcd:f0 bia_f32::blocked:a:f0 dst_f32::blocked:abcd:f0,,alg:convolution_direct,mb1_ic512oc512_ih7oh7kh3sh1dh0ph1_iw7ow7kw3sw1dw0pw1,0.670898
dnnl_verbose,exec,cpu,batch_normalization,ncsp_bnorm:any,forward_inference,data_f32::blocked:abcd:f0 diff_undef::undef::f0,,flags:GS,mb1ic512ih7iw7,0.0280762
dnnl_verbose,exec,cpu,eltwise,jit:avx512_common,forward_inference,data_f32::blocked:abcd:f0 diff_undef::undef::f0,,alg:eltwise_relu alpha:0 beta:0,1x512x7x7,0.00805664
dnnl_verbose,exec,cpu,convolution,gemm:jit,forward_inference,src_f32::blocked:abcd:f0 wei_f32::blocked:abcd:f0 bia_f32::blocked:a:f0 dst_f32::blocked:abcd:f0,,alg:convolution_direct,mb1_ic512oc512_ih7oh7kh3sh1dh0ph1_iw7ow7kw3sw1dw0pw1,0.670898
dnnl_verbose,exec,cpu,binary,jit:uni,undef,src_f32::blocked:abcd:f0 src_f32::blocked:abcd:f0 dst_f32::blocked:abcd:f0,,alg:binary_add,1x512x7x7:1x512x7x7,0.0200195
dnnl_verbose,exec,cpu,batch_normalization,ncsp_bnorm:any,forward_inference,data_f32::blocked:abcd:f0 diff_undef::undef::f0,,flags:GS,mb1ic512ih7iw7,0.0270996
dnnl_verbose,exec,cpu,eltwise,jit:avx512_common,forward_inference,data_f32::blocked:abcd:f0 diff_undef::undef::f0,,alg:eltwise_relu alpha:0 beta:0,1x512x7x7,0.00708008
dnnl_verbose,exec,cpu,inner_product,gemm:jit,forward_inference,src_f32::blocked:ab:f0 wei_f32::blocked:ab:f0 bia_f32::blocked:a:f0 dst_f32::blocked:ab:f0,,,mb1ic512oc1000,0.064209
dnnl_verbose,exec,cpu,batch_normalization,ncsp_bnorm:any,forward_inference,data_f32::blocked:abcd:f0 diff_undef::undef::f0,,flags:GS,mb1ic3ih224iw224,0.103027
dnnl_verbose,exec,cpu,convolution,gemm:jit,forward_inference,src_f32::blocked:abcd:f0 wei_f32::blocked:abcd:f0 bia_f32::blocked:a:f0 dst_f32::blocked:abcd:f0,,alg:convolution_direct,mb1_ic3oc64_ih224oh112kh7sh2dh0ph3_iw224ow112kw7sw2dw0pw3,3.09912
dnnl_verbose,exec,cpu,batch_normalization,ncsp_bnorm:any,forward_inference,data_f32::blocked:abcd:f0 diff_undef::undef::f0,,flags:GS,mb1ic64ih112iw112,2.12109
dnnl_verbose,exec,cpu,eltwise,jit:avx512_common,forward_inference,data_f32::blocked:abcd:f0 diff_undef::undef::f0,,alg:eltwise_relu alpha:0 beta:0,1x64x112x112,0.103027
dnnl_verbose,exec,cpu,batch_normalization,ncsp_bnorm:any,forward_inference,data_f32::blocked:abcd:f0 diff_undef::undef::f0,,flags:GS,mb1ic64ih56iw56,0.249023
dnnl_verbose,exec,cpu,eltwise,jit:avx512_common,forward_inference,data_f32::blocked:abcd:f0 diff_undef::undef::f0,,alg:eltwise_relu alpha:0 beta:0,1x64x56x56,0.0339355
dnnl_verbose,exec,cpu,convolution,gemm:jit,forward_inference,src_f32::blocked:abcd:f0 wei_f32::blocked:abcd:f0 bia_f32::blocked:a:f0 dst_f32::blocked:abcd:f0,,alg:convolution_direct,mb1_ic64oc64_ih56oh56kh3sh1dh0ph1_iw56ow56kw3sw1dw0pw1,6.40601
dnnl_verbose,exec,cpu,batch_normalization,ncsp_bnorm:any,forward_inference,data_f32::blocked:abcd:f0 diff_undef::undef::f0,,flags:GS,mb1ic64ih56iw56,0.147949
dnnl_verbose,exec,cpu,eltwise,jit:avx512_common,forward_inference,data_f32::blocked:abcd:f0 diff_undef::undef::f0,,alg:eltwise_relu alpha:0 beta:0,1x64x56x56,0.0349121
dnnl_verbose,exec,cpu,convolution,gemm:jit,forward_inference,src_f32::blocked:abcd:f0 wei_f32::blocked:abcd:f0 bia_f32::blocked:a:f0 dst_f32::blocked:abcd:f0,,alg:convolution_direct,mb1_ic64oc64_ih56oh56kh3sh1dh0ph1_iw56ow56kw3sw1dw0pw1,7.72998
dnnl_verbose,exec,cpu,convolution,gemm:jit,forward_inference,src_f32::blocked:abcd:f0 wei_f32::blocked:abcd:f0 bia_f32::blocked:a:f0 dst_f32::blocked:abcd:f0,,alg:convolution_direct,mb1_ic64oc64_ih56oh56kh1sh1dh0ph0_iw56ow56kw1sw1dw0pw0,0.137939
dnnl_verbose,exec,cpu,binary,jit:uni,undef,src_f32::blocked:abcd:f0 src_f32::blocked:abcd:f0 dst_f32::blocked:abcd:f0,,alg:binary_add,1x64x56x56:1x64x56x56,0.0771484
dnnl_verbose,exec,cpu,batch_normalization,ncsp_bnorm:any,forward_inference,data_f32::blocked:abcd:f0 diff_undef::undef::f0,,flags:GS,mb1ic64ih56iw56,0.239014
dnnl_verbose,exec,cpu,eltwise,jit:avx512_common,forward_inference,data_f32::blocked:abcd:f0 diff_undef::undef::f0,,alg:eltwise_relu alpha:0 beta:0,1x64x56x56,0.0349121
dnnl_verbose,exec,cpu,convolution,gemm:jit,forward_inference,src_f32::blocked:abcd:f0 wei_f32::blocked:abcd:f0 bia_f32::blocked:a:f0 dst_f32::blocked:abcd:f0,,alg:convolution_direct,mb1_ic64oc64_ih56oh56kh3sh1dh0ph1_iw56ow56kw3sw1dw0pw1,0.716064
dnnl_verbose,exec,cpu,batch_normalization,ncsp_bnorm:any,forward_inference,data_f32::blocked:abcd:f0 diff_undef::undef::f0,,flags:GS,mb1ic64ih56iw56,0.147949
dnnl_verbose,exec,cpu,eltwise,jit:avx512_common,forward_inference,data_f32::blocked:abcd:f0 diff_undef::undef::f0,,alg:eltwise_relu alpha:0 beta:0,1x64x56x56,0.0268555
dnnl_verbose,exec,cpu,convolution,gemm:jit,forward_inference,src_f32::blocked:abcd:f0 wei_f32::blocked:abcd:f0 bia_f32::blocked:a:f0 dst_f32::blocked:abcd:f0,,alg:convolution_direct,mb1_ic64oc64_ih56oh56kh3sh1dh0ph1_iw56ow56kw3sw1dw0pw1,6.66089
dnnl_verbose,exec,cpu,binary,jit:uni,undef,src_f32::blocked:abcd:f0 src_f32::blocked:abcd:f0 dst_f32::blocked:abcd:f0,,alg:binary_add,1x64x56x56:1x64x56x56,0.0441895
dnnl_verbose,exec,cpu,batch_normalization,ncsp_bnorm:any,forward_inference,data_f32::blocked:abcd:f0 diff_undef::undef::f0,,flags:GS,mb1ic64ih56iw56,0.239014
dnnl_verbose,exec,cpu,eltwise,jit:avx512_common,forward_inference,data_f32::blocked:abcd:f0 diff_undef::undef::f0,,alg:eltwise_relu alpha:0 beta:0,1x64x56x56,0.0290527
dnnl_verbose,exec,cpu,convolution,gemm:jit,forward_inference,src_f32::blocked:abcd:f0 wei_f32::blocked:abcd:f0 bia_f32::blocked:a:f0 dst_f32::blocked:abcd:f0,,alg:convolution_direct,mb1_ic64oc128_ih56oh28kh3sh2dh0ph1_iw56ow28kw3sw2dw0pw1,0.449951
dnnl_verbose,exec,cpu,batch_normalization,ncsp_bnorm:any,forward_inference,data_f32::blocked:abcd:f0 diff_undef::undef::f0,,flags:GS,mb1ic128ih28iw28,0.0810547
dnnl_verbose,exec,cpu,eltwise,jit:avx512_common,forward_inference,data_f32::blocked:abcd:f0 diff_undef::undef::f0,,alg:eltwise_relu alpha:0 beta:0,1x128x28x28,0.013916
dnnl_verbose,exec,cpu,convolution,gemm:jit,forward_inference,src_f32::blocked:abcd:f0 wei_f32::blocked:abcd:f0 bia_f32::blocked:a:f0 dst_f32::blocked:abcd:f0,,alg:convolution_direct,mb1_ic128oc128_ih28oh28kh3sh1dh0ph1_iw28ow28kw3sw1dw0pw1,2.79712
dnnl_verbose,exec,cpu,convolution,gemm:jit,forward_inference,src_f32::blocked:abcd:f0 wei_f32::blocked:abcd:f0 bia_f32::blocked:a:f0 dst_f32::blocked:abcd:f0,,alg:convolution_direct,mb1_ic64oc128_ih56oh28kh1sh2dh0ph0_iw56ow28kw1sw2dw0pw0,0.0859375
dnnl_verbose,exec,cpu,binary,jit:uni,undef,src_f32::blocked:abcd:f0 src_f32::blocked:abcd:f0 dst_f32::blocked:abcd:f0,,alg:binary_add,1x128x28x28:1x128x28x28,0.0280762
dnnl_verbose,exec,cpu,batch_normalization,ncsp_bnorm:any,forward_inference,data_f32::blocked:abcd:f0 diff_undef::undef::f0,,flags:GS,mb1ic128ih28iw28,0.0769043
dnnl_verbose,exec,cpu,eltwise,jit:avx512_common,forward_inference,data_f32::blocked:abcd:f0 diff_undef::undef::f0,,alg:eltwise_relu alpha:0 beta:0,1x128x28x28,0.0129395
dnnl_verbose,exec,cpu,convolution,gemm:jit,forward_inference,src_f32::blocked:abcd:f0 wei_f32::blocked:abcd:f0 bia_f32::blocked:a:f0 dst_f32::blocked:abcd:f0,,alg:convolution_direct,mb1_ic128oc128_ih28oh28kh3sh1dh0ph1_iw28ow28kw3sw1dw0pw1,2.21606
dnnl_verbose,exec,cpu,batch_normalization,ncsp_bnorm:any,forward_inference,data_f32::blocked:abcd:f0 diff_undef::undef::f0,,flags:GS,mb1ic128ih28iw28,0.127197
dnnl_verbose,exec,cpu,eltwise,jit:avx512_common,forward_inference,data_f32::blocked:abcd:f0 diff_undef::undef::f0,,alg:eltwise_relu alpha:0 beta:0,1x128x28x28,0.013916
dnnl_verbose,exec,cpu,convolution,gemm:jit,forward_inference,src_f32::blocked:abcd:f0 wei_f32::blocked:abcd:f0 bia_f32::blocked:a:f0 dst_f32::blocked:abcd:f0,,alg:convolution_direct,mb1_ic128oc128_ih28oh28kh3sh1dh0ph1_iw28ow28kw3sw1dw0pw1,3.22412
dnnl_verbose,exec,cpu,binary,jit:uni,undef,src_f32::blocked:abcd:f0 src_f32::blocked:abcd:f0 dst_f32::blocked:abcd:f0,,alg:binary_add,1x128x28x28:1x128x28x28,0.0280762
dnnl_verbose,exec,cpu,batch_normalization,ncsp_bnorm:any,forward_inference,data_f32::blocked:abcd:f0 diff_undef::undef::f0,,flags:GS,mb1ic128ih28iw28,0.162109
dnnl_verbose,exec,cpu,eltwise,jit:avx512_common,forward_inference,data_f32::blocked:abcd:f0 diff_undef::undef::f0,,alg:eltwise_relu alpha:0 beta:0,1x128x28x28,0.0119629
dnnl_verbose,exec,cpu,convolution,gemm:jit,forward_inference,src_f32::blocked:abcd:f0 wei_f32::blocked:abcd:f0 bia_f32::blocked:a:f0 dst_f32::blocked:abcd:f0,,alg:convolution_direct,mb1_ic128oc256_ih28oh14kh3sh2dh0ph1_iw28ow14kw3sw2dw0pw1,0.52417
dnnl_verbose,exec,cpu,batch_normalization,ncsp_bnorm:any,forward_inference,data_f32::blocked:abcd:f0 diff_undef::undef::f0,,flags:GS,mb1ic256ih14iw14,0.0849609
dnnl_verbose,exec,cpu,eltwise,jit:avx512_common,forward_inference,data_f32::blocked:abcd:f0 diff_undef::undef::f0,,alg:eltwise_relu alpha:0 beta:0,1x256x14x14,0.0100098
dnnl_verbose,exec,cpu,convolution,gemm:jit,forward_inference,src_f32::blocked:abcd:f0 wei_f32::blocked:abcd:f0 bia_f32::blocked:a:f0 dst_f32::blocked:abcd:f0,,alg:convolution_direct,mb1_ic256oc256_ih14oh14kh3sh1dh0ph1_iw14ow14kw3sw1dw0pw1,5.92212
dnnl_verbose,exec,cpu,convolution,gemm:jit,forward_inference,src_f32::blocked:abcd:f0 wei_f32::blocked:abcd:f0 bia_f32::blocked:a:f0 dst_f32::blocked:abcd:f0,,alg:convolution_direct,mb1_ic128oc256_ih28oh14kh1sh2dh0ph0_iw28ow14kw1sw2dw0pw0,0.0891113
dnnl_verbose,exec,cpu,binary,jit:uni,undef,src_f32::blocked:abcd:f0 src_f32::blocked:abcd:f0 dst_f32::blocked:abcd:f0,,alg:binary_add,1x256x14x14:1x256x14x14,0.0209961
dnnl_verbose,exec,cpu,batch_normalization,ncsp_bnorm:any,forward_inference,data_f32::blocked:abcd:f0 diff_undef::undef::f0,,flags:GS,mb1ic256ih14iw14,0.0458984
dnnl_verbose,exec,cpu,eltwise,jit:avx512_common,forward_inference,data_f32::blocked:abcd:f0 diff_undef::undef::f0,,alg:eltwise_relu alpha:0 beta:0,1x256x14x14,0.0090332
dnnl_verbose,exec,cpu,convolution,gemm:jit,forward_inference,src_f32::blocked:abcd:f0 wei_f32::blocked:abcd:f0 bia_f32::blocked:a:f0 dst_f32::blocked:abcd:f0,,alg:convolution_direct,mb1_ic256oc256_ih14oh14kh3sh1dh0ph1_iw14ow14kw3sw1dw0pw1,1.50586
dnnl_verbose,exec,cpu,batch_normalization,ncsp_bnorm:any,forward_inference,data_f32::blocked:abcd:f0 diff_undef::undef::f0,,flags:GS,mb1ic256ih14iw14,0.105957
dnnl_verbose,exec,cpu,eltwise,jit:avx512_common,forward_inference,data_f32::blocked:abcd:f0 diff_undef::undef::f0,,alg:eltwise_relu alpha:0 beta:0,1x256x14x14,0.0090332
dnnl_verbose,exec,cpu,convolution,gemm:jit,forward_inference,src_f32::blocked:abcd:f0 wei_f32::blocked:abcd:f0 bia_f32::blocked:a:f0 dst_f32::blocked:abcd:f0,,alg:convolution_direct,mb1_ic256oc256_ih14oh14kh3sh1dh0ph1_iw14ow14kw3sw1dw0pw1,1.36816
dnnl_verbose,exec,cpu,binary,jit:uni,undef,src_f32::blocked:abcd:f0 src_f32::blocked:abcd:f0 dst_f32::blocked:abcd:f0,,alg:binary_add,1x256x14x14:1x256x14x14,0.0200195
dnnl_verbose,exec,cpu,batch_normalization,ncsp_bnorm:any,forward_inference,data_f32::blocked:abcd:f0 diff_undef::undef::f0,,flags:GS,mb1ic256ih14iw14,0.052002
dnnl_verbose,exec,cpu,eltwise,jit:avx512_common,forward_inference,data_f32::blocked:abcd:f0 diff_undef::undef::f0,,alg:eltwise_relu alpha:0 beta:0,1x256x14x14,0.0090332
dnnl_verbose,exec,cpu,convolution,gemm:jit,forward_inference,src_f32::blocked:abcd:f0 wei_f32::blocked:abcd:f0 bia_f32::blocked:a:f0 dst_f32::blocked:abcd:f0,,alg:convolution_direct,mb1_ic256oc512_ih14oh7kh3sh2dh0ph1_iw14ow7kw3sw2dw0pw1,0.477051
dnnl_verbose,exec,cpu,batch_normalization,ncsp_bnorm:any,forward_inference,data_f32::blocked:abcd:f0 diff_undef::undef::f0,,flags:GS,mb1ic512ih7iw7,0.0280762
dnnl_verbose,exec,cpu,eltwise,jit:avx512_common,forward_inference,data_f32::blocked:abcd:f0 diff_undef::undef::f0,,alg:eltwise_relu alpha:0 beta:0,1x512x7x7,0.00805664
dnnl_verbose,exec,cpu,convolution,gemm:jit,forward_inference,src_f32::blocked:abcd:f0 wei_f32::blocked:abcd:f0 bia_f32::blocked:a:f0 dst_f32::blocked:abcd:f0,,alg:convolution_direct,mb1_ic512oc512_ih7oh7kh3sh1dh0ph1_iw7ow7kw3sw1dw0pw1,0.677002
dnnl_verbose,exec,cpu,convolution,gemm:jit,forward_inference,src_f32::blocked:abcd:f0 wei_f32::blocked:abcd:f0 bia_f32::blocked:a:f0 dst_f32::blocked:abcd:f0,,alg:convolution_direct,mb1_ic256oc512_ih14oh7kh1sh2dh0ph0_iw14ow7kw1sw2dw0pw0,0.072998
dnnl_verbose,exec,cpu,binary,jit:uni,undef,src_f32::blocked:abcd:f0 src_f32::blocked:abcd:f0 dst_f32::blocked:abcd:f0,,alg:binary_add,1x512x7x7:1x512x7x7,0.019043
dnnl_verbose,exec,cpu,batch_normalization,ncsp_bnorm:any,forward_inference,data_f32::blocked:abcd:f0 diff_undef::undef::f0,,flags:GS,mb1ic512ih7iw7,0.0270996
dnnl_verbose,exec,cpu,eltwise,jit:avx512_common,forward_inference,data_f32::blocked:abcd:f0 diff_undef::undef::f0,,alg:eltwise_relu alpha:0 beta:0,1x512x7x7,0.00683594
dnnl_verbose,exec,cpu,convolution,gemm:jit,forward_inference,src_f32::blocked:abcd:f0 wei_f32::blocked:abcd:f0 bia_f32::blocked:a:f0 dst_f32::blocked:abcd:f0,,alg:convolution_direct,mb1_ic512oc512_ih7oh7kh3sh1dh0ph1_iw7ow7kw3sw1dw0pw1,0.614014
dnnl_verbose,exec,cpu,batch_normalization,ncsp_bnorm:any,forward_inference,data_f32::blocked:abcd:f0 diff_undef::undef::f0,,flags:GS,mb1ic512ih7iw7,0.0258789
dnnl_verbose,exec,cpu,eltwise,jit:avx512_common,forward_inference,data_f32::blocked:abcd:f0 diff_undef::undef::f0,,alg:eltwise_relu alpha:0 beta:0,1x512x7x7,0.00708008
dnnl_verbose,exec,cpu,convolution,gemm:jit,forward_inference,src_f32::blocked:abcd:f0 wei_f32::blocked:abcd:f0 bia_f32::blocked:a:f0 dst_f32::blocked:abcd:f0,,alg:convolution_direct,mb1_ic512oc512_ih7oh7kh3sh1dh0ph1_iw7ow7kw3sw1dw0pw1,0.654053
dnnl_verbose,exec,cpu,binary,jit:uni,undef,src_f32::blocked:abcd:f0 src_f32::blocked:abcd:f0 dst_f32::blocked:abcd:f0,,alg:binary_add,1x512x7x7:1x512x7x7,0.0209961
dnnl_verbose,exec,cpu,batch_normalization,ncsp_bnorm:any,forward_inference,data_f32::blocked:abcd:f0 diff_undef::undef::f0,,flags:GS,mb1ic512ih7iw7,0.026123
dnnl_verbose,exec,cpu,eltwise,jit:avx512_common,forward_inference,data_f32::blocked:abcd:f0 diff_undef::undef::f0,,alg:eltwise_relu alpha:0 beta:0,1x512x7x7,0.00708008
dnnl_verbose,exec,cpu,inner_product,gemm:jit,forward_inference,src_f32::blocked:ab:f0 wei_f32::blocked:ab:f0 bia_f32::blocked:a:f0 dst_f32::blocked:ab:f0,,,mb1ic512oc1000,0.0629883

resnet50_v1: with_fuse_ms: 61.0203 ms
